src/train/models/hand_gesture_model.pth (torch, 235495 bytes, 8 tensors)

net.0.weight f4 [256, 63]
-0.06918614 -0.015249496 -0.06438495 -0.08118848 0.03888383 0.03655488 -0.08524365 -0.059940055
-0.058006182 -0.11859461 0.0027264832 -0.025365371 -0.069633186 0.08394 0.026324587 0.058323037
0.10260999 0.020988462 -0.06308172 -0.077913865 0.017324086 0.06265101 -0.024945993 0.1320689
0.05540305 -0.07671333 0.087082766 -0.0058164224 0.083557665 0.1685841 0.048763845 0.08800747
0.116147995 0.082761526 0.0032262888 0.031245297 0.0024754314 0.0048285187 0.0150982095 0.109625354
0.008844488 0.07506329 -0.03443373 -0.021381492 -0.055372465 -0.14227353 0.07920884 0.08564143
-0.14064808 0.113733 0.17893153 0.06789065 0.109936655 0.068555474 -0.06318162 0.081442624
-0.05744871 -0.027284807 -0.106171496 0.0511666 -0.11422844 0.107765205 0.007347305 0.026401108
-0.021561524 0.016214944 0.03577243 -0.08432555 -0.10854764 -0.084130615 -0.07500607 -0.10261465
-0.0033959474 -0.15885945 -0.13359413 -0.076186255 0.02637407 -0.023100067 0.031966057 -0.061654206
0.09746908 0.10750413 0.036327746 -0.060988493 0.077617995 -0.053919908 -0.11664591 0.03611976
0.08687819 0.04341655 0.0778183 -0.03983709 0.14816622 0.09870571 -0.05664874 -0.10053187
0.14398363 -0.06472558 -0.06024602 0.13142383 0.021602802 0.035808094 0.028352262 0.07436578
0.050384816 -0.053621482 -0.17417532 -0.19916365 0.0053980113 -0.015142555 -0.15846701 0.052930005
-0.148563 -0.009718697 -0.006578281 0.058576223 0.053469554 0.012693151 0.025699362 -0.11263406
0.06702848 -0.19331397 -0.009521146 0.033027112 -0.073222116 -0.09408964 0.04677215 0.048408702
-0.16998056 0.014569374 -0.058803886 0.07990947 -0.05768596 -0.09558054 -0.06482805 0.13916731
0.18066105 0.07126772 0.08804415 0.11295149 -0.1351145 0.13674058 -0.024307262 -0.114326246
0.014670039 -0.08427879 0.029285662 -0.07357943 -0.06167889 -0.021844167 0.003465516 0.12688324
-0.02098347 0.13436885 -0.054976452 0.060841016 -0.036306746 -0.12706731 0.110005476 0.11789489
0.044195883 -0.03602346 -0.052081984 0.07058164 -0.034154292 -0.07640089 -0.1090359 0.073672876
-0.021334404 -0.037957933 0.08116069 -0.10264535 -0.14721993 -0.01881718 0.05578884 0.028948393
-0.058551256 -0.056780156 0.035728622 0.13493472 -0.1298856 -0.19174345 0.063029744 0.0031982576
-0.19144835 0.10556389 -0.0016942363 -0.07816387 -0.02766283 -0.041365813 -0.07657128 0.0020378225
-0.09060223 0.15857115 -0.22257413 -0.012864434 -0.00153524 -0.11603775 0.029283052 -0.024273299
-0.02634921 -0.03389825 -0.252756 -0.04252545 -0.02153154 0.09852118 -0.14647329 0.11752861
0.12511027 0.11542848 -0.10158393 0.023135565 0.08415719 0.046607286 0.14743227 0.053182073
0.05483374 0.09257195 -0.096858755 0.06989958 -0.024785152 0.14466992 0.01085595 0.014255138
-0.018408416 0.022429893 -0.09649694 0.14817236 -0.093050845 0.09988495 0.19260392 0.09569976
-0.12544505 0.14950585 -0.003812967 -0.046300117 -0.14041169 -0.04006759 -0.21238604 -0.2177048
0.103966735 -0.110357925 0.12956123 -0.07149368 -0.041336562 0.112375416 0.03382859 0.10849796
-0.08174233 0.05128763 0.07751104 0.041347336 -0.06494517 0.053681966 0.23407358 -0.074945726
00000000: 77b1 8dbd 06d9 79bc 42dc 83bd 2546 a6bd
00000010: a744 1f3d 92ba 153d 3994 aebd b483 75bd
00000020: e497 6dbd bbe1 f2bd ccae 323b 0acb cfbc
00000030: d89b 8ebd bce8 ab3d a9a6 d73c 23e4 6e3d
00000040: 3025 d23d ffef ab3c fd30 81bd 4e91 9fbd
00000050: 3eeb 8d3c 2c4f 803d 8a5b ccbc 123d 073e
00000060: 4fee 623d e11b 9dbd 7358 b23d b097 bebb
00000070: 4820 ab3d 4fa1 2c3e 99bc 473d 433d b43d
00000080: 00df ed3d e07e a93d 2570 533b 23f6 ff3c
00000090: d93a 223b 8d38 9e3b 7b5e 773c 4283 e03d
000000a0: 79e8 103c c8ba 993d 620a 0dbd 3d28 afbc
000000b0: 3dce 62bd 27b0 11be 3f38 a23d c664 af3d
000000c0: 0d06 10be d9ec e83d d439 373e 410a 8b3d
000000d0: 7826 e13d d066 8c3d 5d65 81bd 64cb a63d
000000e0: 574f 6bbd 6384 dfbc 7170 d9bd 1294 513d
000000f0: 9af0 e9bd 01b4 dc3d a9c1 f03b 2347 d83c
00000100: cba1 b0bc 34d5 843c 1d86 123d e0b2 acbd
00000110: 3a4e debd ac4c acbd c89c 99bd a127 d2bd
00000120: 8b8e 5ebb 0dac 22be e6cc 08be 8a07 9cbd
00000130: 6f0e d83c 5a3c bdbc d7ee 023d 1f89 7cbd
00000140: de9d c73d 202b dc3d 67cc 143d 12cf 79bd
00000150: 2ff6 9e3d 1fdb 5cbd 0de4 eebd 50f2 133d
00000160: 31ed b13d 8dd5 313d 335f 9f3d 372c 23bd
00000170: e3b8 173e 3826 ca3d 8208 68bd a7e3 cdbd
00000180: 7270 133e d88e 84bd 88c4 76bd f893 063e
00000190: 5cf8 b03c 82ab 123d 0143 e83c 164d 983d
000001a0: 4f60 4e3d 33a2 5bbd 045b 32be 8ef1 4bbe
000001b0: cde1 b03b 7b18 78bc 2d45 22be 22cd 583d
000001c0: e620 18be 2b3b 1fbc 9f8e d7bb 9fed 6f3d
000001d0: e402 5b3d eff6 4f3c 7887 d23c b0ac e6bd
000001e0: 3a46 893d 19f4 45be 95fe 1bbc 7047 073d
000001f0: 7af5 95bd 12b2 c0bd 2794 3f3d 3448 463d
00000200: 620f 2ebe 62b4 6e3c 58dc 70bd 94a7 a33d
00000210: 1d48 6cbd bbbf c3bd 92c4 84bd e081 0e3e
00000220: 36ff 383e cff4 913d 7e50 b43d 1c53 e73d
00000230: 755b 0abe b905 0c3e 0620 c7bc e123 eabd
00000240: 9a5a 703c 5c9a acbd 7ce8 ef3c d0b0 96bd
00000250: 01a3 7cbd 8af2 b2bc b61d 633b aeed 013e
00000260: 87e5 abbc fd97 093e fd2e 61bd 6e34 793d
00000270: 62b6 14bd ef1d 02be 8d4a e13d e072 f13d
00000280: be06 353d 568d 13bd eb53 55bd 1b8d 903d
00000290: 5fe5 0bbd 1278 9cbd 374e dfbd cee1 963d
000002a0: 7dc5 aebc c779 1bbd 9337 a63d ba37 d2bd
000002b0: d2c0 16be 7d26 9abc d782 643d 2e25 ed3c
000002c0: 71d3 6fbd 4f92 68bd 2d58 123d 542c 0a3e
000002d0: bb00 05be 6558 44be bd15 813d dc99 513b
000002e0: 090b 44be e131 d83d 2311 deba 6114 a0bd
000002f0: 299d e2bc 336f 29bd 67d1 9cbd fd8c 053b
00000300: a98d b9bd 7a60 223e 79ea 63be 59c5 52bc
00000310: 1b3a c9ba 33a5 edbd 03e3 ef3c ccd8 c6bc
00000320: 4cda d7bc e4d8 0abd 3c69 81be 2b2f 2ebd
00000330: ea62 b0bc 79c5 c93d 18fd 15be d7b2 f03d
00000340: e81c 003e c465 ec3d 3c0b d0bd cc86 bd3c
00000350: 9b5a ac3d 48e7 3e3d 7cf8 163e 72d5 593d
00000360: 5899 603d 5d96 bd3d e25d c6bd 8327 8f3d
00000370: 3b0a cbbc 5a24 143e 28dd 313c 628e 693c
00000380: 3fcd 96bc e5be b73c 30a0 c5bd 7fba 173e
00000390: 7191 bebd 7b90 cc3d f639 453e 3cfe c33d
000003a0: ab74 00be 1018 193e f9e2 79bb 31a5 3dbd
000003b0: 15c8 0fbe ea1d 24bd ba7b 59be 02ee 5ebe
000003c0: 83ec d43d 5603 e2bd b3ab 043e 476b 92bd
000003d0: 8750 29bd 1525 e63d d98f 0a3d 2e34 de3d
000003e0: 8668 a7bd fa12 523d 1cbe 9e3d d35b 293d
000003f0: f901 85bd 9fe1 5b3d fcb0 6f3e 257d 99bd

net.0.bias f4 [256]
0.14281182 -0.03290001 0.15009576 -0.006802015 0.011551589 -0.025800461 0.06876906 0.090035856
0.122943565 -0.108400606 0.11561417 -0.060551405 0.113729686 0.047343668 0.09876282 -0.11358122
0.08116393 0.036422715 -0.050274745 -0.08008519 0.06208621 -0.025116736 0.028482225 0.020594545
-0.0529887 -0.018186351 -0.0011570248 -0.10986547 0.13362719 0.016779268 0.027814195 0.041236408
0.048202544 0.03616556 0.050730437 0.09523134 0.08968442 -0.011825921 0.023662306 -0.029710822
0.17448391 0.033498563 0.025443029 0.13201596 0.096835785 0.12285064 0.17450358 0.053069085
0.07839989 -0.028688744 0.041282 -0.061525133 0.07557334 0.13370703 -0.03097864 0.07909021
0.07990012 -0.0022547827 0.00033142391 0.1554867 -0.12347602 -0.020510444 0.051502753 0.095843546
-0.06699132 -0.08101384 -0.089654565 -0.09402553 0.01822981 -0.06846968 -0.011855457 -0.030770095
0.1670593 -0.014509108 0.049460385 -0.13815275 -0.045742378 -0.02779016 -0.13566576 0.080359444
-0.09260994 -0.035930566 -0.008597553 0.002709365 0.029927056 -0.004957802 -0.023589017 0.046163436
-0.052580398 -0.09165142 0.011230842 0.0707867 0.13225499 -0.05175197 0.04054002 -0.004628026
0.116361335 0.12538317 0.15580857 0.10821223 0.11809213 -0.08089626 -0.052194808 -0.1712001
-0.048550494 -0.052042075 0.065943055 0.06598539 0.0055692685 0.16691835 0.12568496 0.065636165
0.11104893 0.08270359 -0.020575782 -0.094838254 -0.10157573 0.123839736 -0.04842446 -0.059574015
-0.07140114 0.15378591 0.17392468 -0.025838047 -0.08933381 0.12934488 -0.052013587 -0.08845893
-0.09709557 -0.03404565 0.018186035 -0.02768824 0.14650907 -0.016621958 0.0074007697 0.14017805
0.09692417 -0.048017614 -0.07396227 -0.014856837 0.12512669 -0.0067473385 -0.15569702 0.0020548156
0.010276411 0.04227713 0.002164027 0.13170744 -0.066620596 -0.0074023204 -0.014770473 -0.04114216
0.14489551 0.05507029 -0.12681498 0.20970196 0.0051175808 0.08898332 0.12501912 0.056876082
-0.019912072 -0.041540988 -0.06466143 0.112253875 -0.0842371 0.03680845 -0.01350533 0.060367487
-0.043519817 -0.025614232 -0.10022662 -0.065939896 0.087305896 0.045922745 -0.059442606 -0.08261019
0.055432506 0.016249178 0.09407289 0.03513152 0.054823365 0.03518389 0.16256212 0.15145181
0.09030551 0.09411709 0.13479505 -0.100670345 -0.018344589 0.077107675 -0.07054673 0.1184835
-0.035834022 -0.009952412 0.12517034 0.0837935 0.055533856 0.004714153 -0.007613163 0.0017532802
0.08846669 0.035887364 0.08545113 -0.04511157 -0.045354243 -0.0716925 -0.057583794 -0.0022714848
0.071254134 -0.0077632936 0.022407971 0.033744954 -0.0046695108 -0.0367761 0.1275099 -0.05134147
0.0591813 0.16220836 -0.0066243187 0.0815135 -0.045631662 -0.03702021 -0.01778869 0.0060025593
-0.11728424 -0.06402362 0.12147907 0.03939429 -0.11256743 -0.081609026 0.08672704 -0.017628256
0.11371646 0.11288896 0.05354681 -0.057723813 -0.041391205 -0.03412565 -0.061843734 0.0002707525
-0.057706185 -0.013042247 -0.044848647 0.029120516 -0.010150546 0.032679565 0.09989703 0.030722579
0.00017018101 -0.0321814 -0.047086474 0.16725735 -0.099036485 0.08291716 0.15669979 0.14717521
00000000: 433d 123e 29c2 06bd b4b2 193e 70e3 debb
00000010: e042 3d3c 7d5b d3bc cbd6 8c3d b864 b83d
00000020: d6c9 fb3d 2301 debd 1fc7 ec3d c004 78bd
00000030: 1ceb e83d 6feb 413d 2944 ca3d 459d e8bd
00000040: 4639 a63d fc2f 153d e4ec 4dbd b403 a4bd
00000050: 1c4e 7e3d 9dc1 cdbc 8e53 e93c e4b5 a83c
00000060: ae0a 59bd 8bfb 94bc 4fa7 97ba 2601 e1bd
00000070: 91d5 083e ad74 893c 98da e33c 82e7 283d
00000080: 0870 453d 5722 143d b8ca 4f3d a608 c33d
00000090: 77ac b73d 82c1 41bc 74d7 c13c 1c64 f3bc
000000a0: e9ab 323e ca35 093d e66d d03c 312f 073e
000000b0: d751 c63d 1e99 fb3d 11b1 323e f85e 593d
000000c0: 1f90 a03d a804 ebbc 5017 293d c701 7cbd
000000d0: 32c6 9a3d 7fea 083e ebc6 fdbc 0cfa a13d
000000e0: ada2 a33d fac4 13bb f7c2 ad39 e837 1f3e
000000f0: ffe0 fcbd 8505 a8bc 8df4 523d 9f49 c43d
00000100: bf32 89bd 96ea a5bd d09c b7bd 7590 c0bd
00000110: af56 953c d539 8cbd 643d 42bc 9111 fcbc
00000120: 9811 2b3e 9cb7 6dbc f996 4a3d ea77 0dbe
00000130: 5c5c 3bbd 31a8 e3bc f7eb 0abe 7e93 a43d
00000140: 48aa bdbd ee2b 13bd c0dc 0cbc 9a8f 313b
00000150: 9629 f53c 0f75 a2bb c13d c1bc df15 3d3d
00000160: 8b5e 57bd bdb3 bbbd 9101 383c 9ef8 903d
00000170: da6d 073e e0f9 53bd 4b0d 263d b2a6 97bb
00000180: da4e ee3d 7264 003e 488c 1f3e 609e dd3d
00000190: 49da f13d f0ac a5bd 39ca 55bd 144f 2fbe
000001a0: e2dc 46bd 122a 55bd 270d 873d 5923 873d
000001b0: 697e b63b a5ec 2a3e 8fb3 003e 416c 863d
000001c0: 9f6d e33d 8060 a93d 8b8e a8bc 8f3a c2bd
000001d0: f006 d0bd b09f fd3d ba58 46bd e203 74bd
000001e0: c33a 92bd 0e7a 1d3e 5019 323e 50aa d3bc
000001f0: a5f4 b6bd fc72 043e 330c 55bd f529 b5bd
00000200: 0bda c6bd 7473 0bbd e1fa 943c 73d2 e2bc
00000210: 7906 163e c62a 88bc 2882 f23b d68a 0f3e
00000220: 2e80 c63d 1eae 44bd 8879 97bd 176a 73bc
00000230: 3621 003e c718 ddbb 0a6f 1fbe 16aa 063b
00000240: 645e 283c c92a 2d3d 59d2 0d3b 51de 063e
00000250: 6170 88bd 2a8f f2bb dbff 71bc ae84 28bd
00000260: 7d5f 143e 6291 613d c9db 01be 1cbc 563e
00000270: 61b1 a73b e33c b63d 0305 003e e5f6 683d
00000280: a41e a3bc e226 2abd 366d 84bd 5ce5 e53d
00000290: 8084 acbd 75c4 163d 7645 5dbc e643 773d
000002a0: d641 32bd f0d4 d1bc 9d43 cdbd 7f0b 87bd
000002b0: 6fcd b23d 7d19 3c3d 177a 73bd 882f a9bd
000002c0: 320d 633d ff1c 853c 4aa9 c03d 12e6 0f3d
000002d0: 778e 603d fc1c 103d af76 263e 2f16 1b3e
000002e0: 18f2 b83d 76c0 c03d b707 0a3e 412c cebd
000002f0: 6447 96bc a1ea 9d3d ce7a 90bd 7aa7 f23d
00000300: b2c6 12bd 710f 23bc a72c 003e ed9b ab3d
00000310: 7877 633d 2e79 9a3b d777 f9bb 52ce e53a
00000320: 062e b53d a1fe 123d 0101 af3d e9c6 38bd
00000330: 5fc5 39bd 84d3 92bd fcdc 6bbd 31dd 14bb
00000340: b0ed 913d 3a63 febb ec90 b73c 2638 0a3d
00000350: b202 99bb 89a2 16bd f591 023e 6f4b 52bd
00000360: 1768 723d f319 263e d010 d9bb 8df0 a63d
00000370: 44e8 3abd 81a2 17bd 96b9 91bc 1eb1 c43b
00000380: b832 f0bd d11e 83bd 05ca f83d e85b 213d
00000390: c189 e6bd a222 a7bd f29d b13d 2269 90bc
000003a0: 2de4 e83d 5432 e73d e653 5b3d ce6f 6cbd
000003b0: d389 29bd 56c7 0bbd db4f 7dbd c9f3 8d39
000003c0: 525d 6cbd 26af 55bc 37b3 37bd 268e ee3c
000003d0: 7a4e 26bc 02db 053d d096 cc3d ebad fb3c
000003e0: 9e72 3239 a5d0 03bd bfdd 40bd 8345 2b3e
000003f0: a4d3 cabd 79d0 a93d e975 203e 19b5 163e

net.3.weight f4 [128, 256]
0.0439916 0.00033972922 -0.06293356 0.18647322 0.015231037 -0.17064236 0.035872206 -0.03246151
0.11014365 0.118926875 0.06921699 0.010769702 -0.011332578 0.08889012 -0.02015465 -0.051987506
-0.06491533 0.10325721 0.02343164 0.02584891 0.036037598 0.14150086 -0.025495013 -0.1390116
0.022205455 -0.10923645 -0.110311165 -0.020048706 0.10115833 0.049358793 0.102463216 0.07362398
0.1172715 -0.008687467 -0.035131447 -0.07730427 0.018020144 -0.06868652 -0.020020392 -0.04750929
0.13157669 -0.1557588 0.029251758 -0.0070756823 -0.10812361 -0.092195034 0.06721467 0.07024206
-0.06216806 0.089903235 -0.022198452 -0.0965658 -0.07445415 0.002542963 -0.022836806 0.039634366
0.08824163 0.0841998 -0.039812937 0.07264699 0.084144734 0.05794373 0.019170655 -0.013524835
-0.06284028 0.06491023 -0.068798006 -0.02796499 0.03547683 0.060072865 0.028084705 0.01731962
-0.073400825 -0.011900244 -0.029352441 0.03278988 0.048958488 0.056802593 -0.051621966 -0.04701407
0.056616284 0.004771821 -0.0077976077 0.045533992 -0.040379502 0.0058804066 0.023608424 -0.02291914
-0.08107645 0.030814406 -0.007000494 -0.080539085 -0.06403741 0.0016389247 -0.13847706 -0.04924967
-0.0036339464 0.050881773 -0.028567502 -0.026446322 0.0646769 -0.03022871 0.01794082 0.032999903
-0.13141094 0.04125901 0.018641196 -0.04263322 -0.17147529 0.106137075 0.07589898 0.0378729
0.01489742 -0.0007297839 -0.050583232 -0.1380172 -0.03433139 -0.07584122 -0.0511962 0.005352989
-0.0071456484 -0.014782851 -0.027921809 0.06447871 -0.038677864 -0.048311874 -0.07536963 0.014517699
0.08093141 0.0348525 0.027441405 -0.1133997 -0.0610171 -0.034479015 -0.010072299 0.090724945
-0.025091551 0.09047154 0.04412403 -0.008307916 0.0061028735 0.024937693 0.062745795 0.068975314
-0.0007737776 0.024387557 0.043787006 -0.003172874 0.043736555 0.012786075 0.016330803 0.04467467
0.024585865 -0.039589427 0.002968943 0.043549936 -0.011758385 0.1075012 -0.034761816 0.054143377
0.03424324 0.09799548 0.036183674 0.0376869 -0.0995576 -0.037196785 -0.014296714 -0.047406506
0.036729198 -0.09050405 0.06803178 0.00064881693 0.12002601 0.035575714 -0.12943424 0.0035244902
0.041212577 0.004141355 -0.033560954 0.13369866 -0.040137358 0.065475665 0.0141386315 -0.06995529
-0.070770055 0.041770782 -0.09479934 0.06677277 -0.034172844 -0.080124 0.089205205 -0.013040105
0.029648675 -0.1521961 0.070332125 0.013486184 0.08254098 -0.07194157 0.069323465 -0.016788734
-0.02735474 -0.027276162 -0.0065614167 -0.046374775 -0.08198168 -0.027742961 0.025800066 0.12763752
-0.04040052 0.018641857 1.880295e-05 0.1082373 0.05267257 -0.009915805 0.03832775 0.011468412
-0.14157191 -0.04879527 -0.01697812 -0.041153837 -0.06346237 0.054779276 -0.021543227 -0.07316868
0.010817685 0.07323858 0.025943251 -0.05579054 -0.034091137 0.007806803 -0.13911343 0.12517396
-0.05283032 -0.090257466 -0.027184658 0.065473184 0.11189509 -0.12605591 -0.065438546 0.023556348
0.043142196 0.027625484 0.00056717126 -0.029443426 0.057958882 0.06812192 0.086726785 0.07057172
-0.12669055 0.0093195345 -0.025505532 -0.025956277 0.06119898 0.07499608 0.0690833 0.01699809
00000000: 8930 343d af1d b239 4fe3 80bd d6f2 3e3e
00000010: 998b 793c dfbc 2ebe bcee 123d 5cf6 04bd
00000020: fe92 e13d ef8f f33d a3c1 8d3d 6773 303c
00000030: 47ac 39bc 060c b63d 5d1b a5bc daf0 54bd
00000040: 54f2 84bd 8478 d33d b6f3 bf3c 18c1 d33c
00000050: 299c 133d 9ae5 103e ebda d0bc 0f59 0ebe
00000060: 37e8 b53c 5cb7 dfbd d2ea e1bd 2f3d a4bc
00000070: 192c cf3d 722c 4a3d 3cd8 d13d 2bc8 963d
00000080: 0a2c f03d e155 0ebc fee5 0fbd b351 9ebd
00000090: fb9e 933c 85ab 8cbd ce01 a4bc 1a99 42bd
000000a0: 0abc 063e 3c7f 1fbe 62a1 ef3c 20db e7bb
000000b0: e96f ddbd c0d0 bcbd d8a7 893d 12db 8f3d
000000c0: f0a3 7ebd 301f b83d 87d9 b5bc 4ac4 c5bd
000000d0: 6b7b 98bd d7a7 263b 4114 bbbc a557 223d
000000e0: 07b8 b43d f270 ac3d e412 23bd f2c7 943d
000000f0: 1354 ac3d 6856 6d3d c70b 9d3c 4597 5dbc
00000100: 68b2 80bd a8ef 843d f8e5 8cbd d616 e5bc
00000110: 2750 113d f70e 763d e511 e63c e0e1 8d3c
00000120: 2c53 96bd 3ef9 42bc 8874 f0bc ae4e 063d
00000130: b288 483d d6a9 683d 8e71 53bd d391 40bd
00000140: 7ae6 673d f05c 9c3b 1383 ffbb da81 3a3d
00000150: fa64 25bd 6db0 c03b 7466 c13c ecc0 bbbc
00000160: 690b a6bd 7e6e fc3c 6664 e5bb adf1 a4bd
00000170: 0c26 83bd 30d1 d63a eecc 0dbe 06ba 49bd
00000180: 8127 6ebb 6869 503d 6506 eabc f5a5 d8bc
00000190: 5375 843d 33a2 f7bc a0f8 923c e82a 073d
000001a0: 9790 06be 35ff 283d 6cb5 983c 2ca0 2ebd
000001b0: 3897 2fbe 655e d93d ed70 9b3d 9d20 1b3d
000001c0: 4f14 743c f84e 3fba 5d30 4fbd 6254 0dbe
000001d0: 129f 0cbd a452 9bbd 1bb3 51bd 2068 af3b
000001e0: 0b26 eabb c533 72bc 47bc e4bc 6a0d 843d
000001f0: ae6c 1ebd ace2 45bd 645b 9abd a5db 6d3c
00000200: 5ebf a53d 7fc1 0e3d cccc e03c 1a3e e8bd
00000210: 11ed 79bd de39 0dbd 4906 25bc 00ce b93d
00000220: cc8c cdbc 2549 b93d 66bb 343d ed1d 08bc
00000230: 9dfa c73b 224a cc3c de80 803d ee42 8d3d
00000240: 56d7 4aba 6ac8 c73c 015a 333d feef 4fbb
00000250: 1a25 333d af7c 513c 2dc8 853c c9fc 363d
00000260: 4c68 c93c 8628 22bd 9992 423b 6b61 323d
00000270: 3ea6 40bc 9729 dc3d 6862 0ebd 72c5 5d3d
00000280: a442 0c3d dbb1 c83d 5535 143d 945d 1a3d
00000290: dbe4 cbbd a85b 18bd c43c 6abc 532d 42bd
000002a0: 5b71 163d 305a b9bd 3f54 8b3d 5e15 2a3a
000002b0: 32d0 f53d d7b7 113d 698a 04be 22fb 663b
000002c0: 85ce 283d 34b4 873b 3677 09bd 4de8 083e
000002d0: 1267 24bd 1b18 863d b8a5 673c b844 8fbd
000002e0: e4ef 90bd d717 2b3d 2826 c2bd 29c0 883d
000002f0: d3f8 0bbd 0d18 a4bd 38b1 b63d 2aa6 55bc
00000300: c7e1 f23c 4bd9 1bbe 4a0a 903d 28f5 5c3c
00000310: 3f0b a93d 1a56 93bd 76f9 8d3d 8788 89bc
00000320: 0c17 e0bc 4272 dfbc 2701 d7bb 7af3 3dbd
00000330: 03e6 a7bd 3545 e3bc a95a d33c 69b3 023e
00000340: 047b 25bd cfb6 983c 07bb 9d37 84ab dd3d
00000350: 31bf 573d e775 22bc 8ffd 1c3d 02e6 3b3c
00000360: 3af8 10be 8ddd 47bd b315 8bbc ed90 28bd
00000370: 8ff8 81bd 3c60 603d 6c7b b0bc 76d9 95bd
00000380: a93c 313c 1cfe 953d f186 d43c 9f84 64bd
00000390: 26a3 0bbd 36d0 ff3b c073 0ebe 9a2d 003e
000003a0: 9b64 58bd e8d8 b8bd 5cb2 debc ce16 863d
000003b0: 4129 e53d cd14 01be a504 86bd 3ef9 c03c
000003c0: dfb5 303d d74e e23c 38ae 143a 5733 f1bc
000003d0: 4b66 6d3d 8183 8b3d d09d b13d e887 903d
000003e0: 2bbb 01be f6b0 183c faf0 d0bc 42a2 d4bc
000003f0: c8ab 7a3d 8b97 993d 8c7b 8d3d 943f 8b3c

net.3.bias f4 [128]
-0.027388582 0.038490463 0.038115323 0.014236999 0.041647762 0.103527226 0.007840698 0.021240953
0.095763415 -0.016732637 -0.0052509895 -0.007995952 0.013684433 0.008577964 0.028032577 -0.025643555
-0.061126247 -0.005773206 0.0038009402 -0.03595667 0.0034220219 0.091709614 0.006106331 -0.03632247
0.054122623 0.050983507 0.1021884 -0.015043518 0.022566246 0.05454473 0.08770519 0.0005202377
0.055269353 0.029746424 -0.0046908753 0.071765125 -0.046038646 -0.019117203 0.03486061 -0.018930467
0.014312172 0.018017108 -0.0053123995 0.03833889 0.0268788 -0.02960661 -0.060195144 -0.02313516
0.04665645 0.03229558 -0.046031546 0.08530682 -0.02960299 -0.03713901 -0.01105588 0.022016387
0.06736324 0.074224845 -0.023231499 -0.047509912 0.0029796716 0.007850049 0.03588804 0.05784485
0.025604812 0.0770451 0.05867598 0.015721267 0.006890877 -0.0025625764 -0.0043889666 -0.043491032
0.039466728 0.031683605 0.07391114 -0.019312395 0.044910602 -0.0347565 0.047614057 0.06872342
0.012184502 -0.0249333 -0.025007 0.05382755 0.08569514 0.0369014 -0.0050715394 -0.040556185
0.05323982 0.09928913 -0.030996313 0.075784855 0.042496458 0.0046199784 0.020762736 0.049852543
0.06943952 0.030426033 0.017762985 -0.024884136 -0.030586388 0.026545841 0.05952505 0.04389512
-0.045675315 -0.06086288 -0.034134015 -0.051001698 -0.02517411 0.003868152 -0.012873893 -0.014727451
-0.036482204 0.072230116 0.020227922 0.035388798 0.010459467 -0.014073623 0.055156533 0.07232806
-0.020486226 0.077917404 0.008695753 -0.008666573 0.008522632 0.009531228 -0.006492667 -0.053468302
00000000: 055e e0bc 2da8 1d3d d01e 1c3d 4d42 693c
00000010: d896 2a3d 1506 d43d 4576 003c 8201 ae3c
00000020: 9c1f c43d e212 89bc 7e10 acbb 7401 03bc
00000030: ac34 603c 978a 0c3c 93a4 e53c 6f12 d2bc
00000040: 845f 7abd 292d bdbb 3219 793b 4d47 13bd
00000050: 0044 603b 40d2 bb3d 9e17 c83b dfc6 14bd
00000060: afaf 5d3d 15d4 503d 2748 d13d 1679 76bc
00000070: d9dc b83c 4b6a 5f3d c79e b33d 9060 083a
00000080: 1e62 623d c6ae f33c eab5 99bb 98f9 923d
00000090: 0593 3cbd ae9b 9cbc 00ca 0e3d 1114 9bbc
000000a0: 9a7d 6a3c 9d98 933c a313 aebb 3d09 1d3d
000000b0: ee30 dc3c 9089 f2bc 2f8f 76bd f285 bdbc
000000c0: d51a 3f3d 5f48 043d 938b 3cbd 58b5 ae3d
000000d0: f881 f2bc 131f 18bd b923 35bc b65b b43c
000000e0: bdf5 893d 3203 983d fc4f bebc c199 42bd
000000f0: 9846 433b 7e9d 003c 56ff 123d b9ee 6c3d
00000100: 2fc1 d13c d2c9 9d3d 3956 703d e3c9 803c
00000110: decc e13b e6f0 27bb 52d1 8fbb a723 32bd
00000120: dda7 213d abc6 013d b95e 973d 0735 9ebc
00000130: 2ef4 373d d55c 0ebd f506 433d ddbe 8c3d
00000140: 81a1 473c ec40 ccbc 7bdb ccbc 477a 5c3d
00000150: ef80 af3d ec25 173d 282f a6bb 3e1e 26bd
00000160: ff11 5a3d 1958 cb3d fbeb fdbc 1735 9b3d
00000170: c410 2e3d 3063 973b 9d16 aa3c 2e32 4c3d
00000180: 4f36 8e3d 0440 f93c ae83 913c d1d9 cbbc
00000190: 4e90 fabc aa76 d93c 8ad0 733d 5fcb 333d
000001a0: 0a16 3bbd 5b4b 79bd 1cd0 0bbd 28e7 50bd
000001b0: ef39 cebc d280 7d3b 05ed 52bc 684b 71bc
000001c0: 5d6e 15bd 62ed 933d 07b5 a53c d8f3 103d
000001d0: 2f5e 2b3c 0e95 66bc d1eb 613d bc20 943d
000001e0: bbd2 a7bc 2993 9f3d a278 0e3c 3efe 0dbc
000001f0: 82a2 0b3c de28 1c3c 70c0 d4bb 9401 5bbd

net.6.weight f4 [64, 128]
-0.04334591 -0.060308564 0.13695653 -0.031400986 -0.04277216 -0.040458012 0.07852611 0.006389464
0.117105156 -0.017784476 0.008482731 -0.023989849 0.098259926 0.15628712 -0.05267924 0.019589376
-0.05805904 0.1411722 -0.037341956 0.15275256 -0.081373654 0.08707268 0.07728767 0.012389622
0.011793192 0.05511924 -0.0753911 0.12966676 -0.11632186 0.17693804 0.13610272 0.064819634
0.0062712226 0.06377523 0.07444751 0.11011971 -0.039514545 0.11143069 -0.020672107 -0.10604808
0.10417973 0.08318089 0.03763996 0.026334329 0.041963786 -0.011225385 0.065099135 0.013059972
-0.14861508 0.0053218803 0.045480393 0.06624878 0.045758262 0.09693798 -0.027290389 -0.06262875
-0.08586331 0.06534803 0.009571615 0.13179737 0.0043766205 0.17985916 -0.0059911734 -0.023466393
0.05478894 0.049988646 0.061825596 -0.09745369 0.010417406 0.058681455 0.024502136 -0.024559688
0.048828833 -0.13145068 0.103531934 0.121995255 -0.08076588 -0.07298641 -0.027661469 -0.025619378
0.034520503 0.095189676 -0.118858024 0.122310884 0.067341015 -0.01335936 0.13922888 -0.124736354
0.19088988 0.001014246 0.015846698 0.17388894 -0.04991132 0.054863714 0.019291203 -0.12449334
0.110837616 -0.009348772 0.12564032 -0.046563078 -0.030910071 -0.019078491 0.068744145 -0.041349325
-0.012211097 0.18744685 -0.022521319 -0.036015265 0.17620403 -0.1501321 0.025001066 -0.10509148
0.049926724 0.06763894 0.0069431677 0.17468037 -0.06536595 0.06320905 0.041739326 0.032597844
0.03431093 0.021899566 -0.060512207 0.12245495 0.04354364 -0.12477369 0.0797639 0.013829659
-0.07789805 0.06695059 0.0170815 0.020006284 -0.19410746 0.045384236 0.024988284 0.0017985972
-0.016918298 0.04313895 -0.0614203 0.091143854 0.0035443185 0.059490267 0.016103562 -0.015837546
-0.23970677 0.0032142256 -0.000120553865 0.08738655 0.08496283 -0.0015649189 -0.089300506 0.0742166
-0.0033526823 0.06839038 -0.0025945636 -0.017174022 0.03332024 0.002630038 0.0552906 -0.0071630077
-0.13833153 0.102328144 0.041435428 0.14175452 0.007009704 0.09439808 -0.010964072 -0.018266227
0.057465676 0.115067676 0.038364947 0.03979759 -0.03414179 -0.0027669223 0.027558753 0.018657947
0.07902768 -0.041454576 -0.0018209671 0.091908894 0.04184747 -0.12615831 -0.01198258 0.07833594
0.05823446 0.0042255707 -0.01272648 -0.049262986 0.04037674 0.017746583 0.13818586 -0.03273098
-0.03122983 -0.0413448 0.07797996 0.015759533 -0.01887552 -0.08604129 -0.009765218 0.079718344
-0.024954725 -0.06755027 0.03289946 -0.028852351 -0.00391397 0.019218383 -0.11873404 -0.02174472
0.0743327 0.047646645 0.059297767 0.065119974 0.03206276 -0.010228688 0.038049996 0.107929766
0.06819082 0.10330559 0.06963686 -0.020340681 -0.11347572 -0.025441376 0.05140358 0.053702395
-0.01259944 -0.0044069435 0.0119775785 0.04478257 -0.106495716 -0.08244354 -0.010928062 0.03348295
-0.012133177 0.03137419 -0.0555283 0.012066667 0.0047377083 -0.07374482 -0.04477769 -0.049743764
-0.21331462 0.0892087 -0.047572628 -0.0061299405 0.03732092 -0.016716875 0.04484365 -0.021250779
0.074198425 -0.061523467 0.0044688913 -0.056855533 0.07280194 0.038041994 -0.04821469 -0.07526062
00000000: 7b8b 31bd 1d06 77bd 553e 0c3e 529e 00bd
00000010: dc31 2fbd 4db7 25bd 4cd2 a03d b55e d13b
00000020: d4d4 ef3d c0b0 91bc 27fb 0a3c 5c86 c4bc
00000030: 803c c93d bb09 203e 30c6 57bd e679 a03c
00000040: 51cf 6dbd 728f 103e e1f3 18bd 2b6b 1c3e
00000050: 3ba7 a6bd 2953 b23d ff48 9e3d d7fd 4a3c
00000060: 3b38 413c b6c4 613d a666 9abd 5dc7 043e
00000070: 283a eebd 3f2f 353e 835e 0b3e 28c0 843d
00000080: d47e cd3b 969c 823d f077 983d 7186 e13d
00000090: 01da 21bd c635 e43d 8d58 a9bc bc2f d9bd
000000a0: 2f5c d53d be5a aa3d 5c2c 1a3d 17bb d73c
000000b0: 38e2 2b3d adea 37bc b252 853d 7ef9 553c
000000c0: 8d2e 18be 2b63 ae3b a649 3a3d 71ad 873d
000000d0: 046d 3b3d 6b87 c63d 1890 dfbc 8143 80bd
000000e0: 1ad9 afbd 30d5 853d 43d2 1c3c e4f5 063e
000000f0: c169 8f3b 002d 383e 9b51 c4bb 983c c0bc
00000100: 5e6a 603d e5c0 4c3d d63c 7d3d cd95 c7bd
00000110: c5ad 2a3c f75b 703d b4b8 c83c 6631 c9bc
00000120: be00 483d 029b 06be 8d08 d43d a6d8 f93d
00000130: 9568 a5bd e679 95bd 4e9a e2bc bbdf d1bc
00000140: 5f65 0d3d cef2 c23d d66b f3bd 217e fa3d
00000150: 16ea 893d 38e1 5abc 0492 0e3e c675 ffbd
00000160: a378 433e 73f0 843a efd0 813c f10f 323e
00000170: d06f 4cbd c6b8 603d 9608 9e3c 5df6 febd
00000180: d5fe e23d 972b 19bc dba7 003e edb8 3ebd
00000190: 1e37 fdbc 7f4a 9cbc bbc9 8c3d e95d 29bd
000001a0: 0e11 48bc 11f2 3f3e a17e b8bc be84 13bd
000001b0: d46e 343e 3bbc 19be 09cf cc3c 343a d7bd
000001c0: f77f 4c3d 4986 8a3d 8383 e33b 69df 323e
000001d0: 95de 85bd bf73 813d dbf6 2a3d 5185 053d
000001e0: 9e89 0c3d b866 b33c a6db 77bd a9c9 fa3d
000001f0: d15a 323d 5989 ffbd 415b a33d cb95 623c
00000200: 0389 9fbd 641d 893d 80ee 8b3c 38e4 a33c
00000210: 1bc4 46be d2e4 393d 3bb4 cc3c e8be eb3a
00000220: 3e98 8abc 78b2 303d da93 7bbd a1a9 ba3d
00000230: cc47 683b 11ac 733d 9eeb 833c bebd 81bc
00000240: b175 75be c2a5 523b ddd1 fcb8 b8f7 b23d
00000250: fe00 ae3d f71d cdba 2fe3 b6bd dffe 973d
00000260: adb8 5bbb 4110 8c3d 8e09 2abb 89b0 8cbc
00000270: ce7a 083d b75c 2c3b 6578 623d aab7 eabb
00000280: c8a6 0dbe 6b91 d13d 32b8 293d 1928 113e
00000290: a9b1 e53b c853 c13d a7a2 33bc 0ea3 95bc
000002a0: 2161 6b3d 9aa8 eb3d 9024 1d3d cc02 233d
000002b0: 43d8 0bbd 4155 35bb e5c2 e13c 8dd8 983c
000002c0: 44d9 a13d 46cc 29bd 84ad eeba bb3a bc3d
000002d0: 4168 2b3d a52f 01be 9552 44bc 986e a03d
000002e0: 4287 6e3d a876 8a3b ba82 50bc fcc7 49bd
000002f0: 1562 253d 4861 913c 9880 0d3e ec10 06bd
00000300: b3d5 ffbc 2a59 29bd f5b3 9f3d 231a 813c
00000310: d6a0 9abc 6a36 b0bd 4bfe 1fbc 5f43 a33d
00000320: da6d ccbc cc57 8abd 96c1 063d c45b ecbc
00000330: c340 80bb df6f 9d3c d52a f3bd fc21 b2bc
00000340: be3b 983d 2129 433d 37e2 723d 9f5d 853d
00000350: 3e54 033d 3a96 27bc 50da 1b3d 480a dd3d
00000360: a1a7 8b3d e291 d33d c59d 8e3d 80a1 a6bc
00000370: f565 e8bd 6f6a d0bc 8f8c 523d 0bf7 5b3d
00000380: e26d 4ebc 1f68 90bb 9b3d 443c ee6d 373d
00000390: 6d1a dabd 29d8 a8bd 9d0b 33bc 6b25 093d
000003a0: 3cca 46bc 3982 003d a571 63bd 45b3 453c
000003b0: c73e 9b3b 8607 97bd d068 37bd 1ec0 4bbd
000003c0: 266f 5abe 0db3 b63d 84db 42bd abdd c8bb
000003d0: d2dd 183d d4f1 88bc faad 373d 1d16 aebc
000003e0: 58f5 973d 0800 7cbd c76f 923b 59e1 68bd
000003f0: 2f19 953d ecd1 1b3d c47c 45bd 3d22 9abd

net.6.bias f4 [64]
0.088516325 -0.053994633 0.023753347 0.07261807 -0.050903488 0.02252825 0.04201747 -0.006394057
0.06805006 0.10649661 0.020114291 0.0370398 0.103249505 -0.0068432093 0.026051968 -0.03329448
-0.04070217 0.0037216903 0.017581614 0.04886788 0.03917187 0.07432177 -0.08008976 0.10622152
-0.01618886 0.057107557 -0.08861696 -0.039816428 0.041767653 -0.052646454 0.13049848 0.023934126
0.11836788 -0.013556806 0.02220833 -0.08539537 0.055357922 -0.026323132 -0.011691886 -0.0133788
0.0042719757 -0.026120635 0.037348494 -0.056231145 -0.037905667 0.080327936 -0.0019371762 -0.08241877
0.015456575 0.00052522414 -0.003135196 0.10711187 -0.017819047 0.08679836 -0.039006744 0.100907885
0.052116465 -0.012222884 -0.0630626 -0.046287417 -0.025627539 0.057345014 -0.0009877533 0.06356834
00000000: 0c48 b53d 7a29 5dbd 6196 c23c c8b8 943d
00000010: 2d80 50bd 2a8d b83c 831a 2c3d 3d85 d1bb
00000020: d45d 8b3d e51a da3d bac6 a43c 0cb7 173d
00000030: 7a74 d33d 003d e0bb f06a d53c cb5f 08bd
00000040: 52b7 26bd 9ae7 733b 5107 903c b029 483d
00000050: af72 203d 0336 983d 1a06 a4bd ab8a d93d
00000060: 809e 84bc 9de9 693d cf7c b5bd 8d16 23bd
00000070: 8f14 2b3d cfa3 57bd 65a1 053e 8011 c43c
00000080: dc6a f23d 5e1d 5ebc 3eee b53c c5e3 aebd
00000090: fdbe 623d 9ca3 d7bc 538f 3fbc c132 5bbc
000000a0: eefb 8b3b f1fa d5bc bcfa 183d a152 66bd
000000b0: f942 1bbd f982 a43d d9e8 fdba 2ccb a8bd
000000c0: 933d 7d3c 32af 093a dc77 4dbb 785d db3d
000000d0: 40f9 91bc 57c3 b13d 89c5 1fbd cba8 ce3d
000000e0: 1378 553d 7e42 48bc f726 81bd e097 3dbd
000000f0: d8f0 d1bc 9be2 6a3d 8077 81ba 1e30 823d

net.8.weight f4 [6, 64]
-0.05283344 -0.2025297 -0.2055319 -0.18720709 0.011768536 -0.1287156 -0.15912434 -0.03839204
0.017095935 -0.07795408 -0.2246562 -0.15419969 -0.1832311 0.1595821 -0.04337249 0.008013279
-0.090424895 0.12538728 0.04511883 -0.074500896 0.016871247 -0.19041038 0.06749617 -0.058069114
0.09136923 -0.12969325 -0.053062152 0.0945034 -0.02426112 -0.1530815 -0.16040082 -0.09240457
0.103243865 0.12712234 0.09426418 -0.055326484 -0.040794455 0.03809014 0.071134314 0.15761614
0.093296245 0.06674834 0.14834522 -0.21161295 0.13861603 -0.012017406 0.11864185 -0.10352214
0.08426802 0.17868212 0.12858236 -0.21746612 0.053615045 0.08202322 0.04471205 -0.1564602
-0.018976202 -0.08819959 0.073154934 0.1756416 -0.09612077 -0.15835129 0.05140229 0.017343206
-0.17978919 0.10710093 0.17415416 0.04274535 -0.116355 0.034525514 0.12269338 -0.13712482
0.17347436 -0.10420303 -0.16886993 -0.06785613 -0.15112463 0.1419858 -0.13115638 0.1875187
0.11959884 0.14025576 0.01361209 -0.17322382 0.074089795 -0.10985011 -0.13970833 -0.068456374
0.1750472 0.12836432 0.037342366 0.14531909 -0.20010102 -0.052663315 -0.069355704 -0.122750506
0.024521085 -0.15605783 -0.052845553 0.033556703 0.056250717 -0.056823947 -0.09229921 -0.011003308
-0.078533165 -0.059274603 0.13715099 0.07760979 0.102124974 -0.151704 0.03714624 0.09147788
-0.18510859 0.03260516 -0.040058423 0.06243751 0.032268886 0.02832688 -0.07098245 -0.18171792
0.07080492 -0.14308572 -0.20407589 -0.072356075 -0.106932305 -0.08334387 0.17060697 0.15386224
-0.13353318 -0.07269548 0.098695874 0.11368816 0.08343854 -0.13437207 0.18783116 -0.09229268
-0.18324772 -0.17180058 0.013689 0.10275016 -0.16581461 -0.15531355 -0.1355032 -0.147143
0.14580029 0.13084055 -0.1747289 -0.19570181 -0.18829538 0.033825256 0.009065099 0.16196702
-0.020159643 0.07885 -0.041672967 -0.0043161325 -0.18221898 0.1551785 0.07018402 0.03876707
0.08450076 -0.16163091 -0.07066403 0.06363926 -0.0020299486 0.089635774 -0.120545246 -0.21808262
-0.15189259 0.109491706 0.05032376 -0.10967919 -0.22176908 0.03509951 -0.18087322 -0.16740009
0.10610604 0.07038174 -0.094353296 -0.13075931 0.07221632 -0.10123017 -0.08742855 0.14841011
0.17996237 0.13708037 -0.058170114 -0.19380845 -0.01520722 0.053600512 -0.17958663 0.1374503
0.06365691 0.12108539 -0.1790077 -0.02649234 -0.20524606 0.07648113 -0.097877696 0.047915038
0.11166141 -0.08434008 0.12909433 0.12279223 0.077702835 -0.16414297 -0.012981685 -0.20533697
-0.209675 -0.014097469 0.05196365 0.06280575 -0.28053927 0.021799784 0.043216467 0.0001512809
0.002047714 0.053948116 -0.030010426 -0.24485283 -0.24101825 0.19371407 -0.012606487 -0.054087903
0.14195366 -0.039185602 0.23457763 -0.030419428 0.12616745 -0.25710493 0.24388522 0.15814207
0.13406803 -0.09197227 0.1715577 0.15395701 -0.23009166 -0.09927681 -0.124659546 0.04661666
0.11766527 -0.049855884 -0.1714934 0.041206907 -0.27574274 -0.106591105 -0.20436682 -0.0066230637
0.018247316 -0.1438925 0.012467045 -0.061985195 0.15174048 0.13393174 -0.11144853 -0.18221252
00000000: e167 58bd f263 4fbe f476 52be 37b3 3fbe
00000010: d1d0 403c 06ce 03be 7ef1 22be f940 1dbd
00000020: c60c 8c3c 64a6 9fbd 460c 66be 86e6 1dbe
00000030: efa0 3bbe 7d69 233e 5aa7 31bd 214a 033c
00000040: b030 b9bd 8665 003e 86ce 383d ed93 98bd
00000050: 9235 8a3c f0fa 42be 6f3b 8a3d e1d9 6dbd
00000060: ca1f bb3d 4fce 04be b357 59bd 008b c13d
00000070: 42bf c6bc 66c1 1cbe 1d40 24be 9b3e bdbd
00000080: 8571 d33d 5c2c 023e 940d c13d 069e 62bd
00000090: 1618 27bd 6804 1c3d deae 913d 2066 213e
000000a0: 1a12 bf3d 5bb3 883d cfe7 173e 11b1 58be
000000b0: 5cf1 0d3e a7e4 44bc 80fa f23d 6a03 d4bd
000000c0: b694 ac3d 72f8 363e 18ab 033e 70af 5ebe
000000d0: 739b 5b3d cafb a73d fc23 373d 1a37 20be
000000e0: fb73 9bbc fda1 b4bd 41d2 953d 64db 333e
000000f0: f7da c4bd d726 22be 358b 523d 5713 8e3c
00000100: a81a 38be bb57 db3d 7855 323e c015 2f3d
00000110: 884b eebd a06a 0d3d ab46 fb3d 736a 0cbe
00000120: 43a3 313e 6668 d5bd 3dec 2cbe 28f8 8abd
00000130: 6ac0 1abe ba64 113e dc4d 06be e704 403e
00000140: 3df0 f43d 359f 0f3e 3e05 5f3c 9661 31be
00000150: 64bc 973d 18f9 e0bd b30f 0fbe db32 8cbd
00000160: 933f 333e f071 033e 4ff4 183d 87ce 143e
00000170: 48e7 4cbe 7db5 57bd 5d0a 8ebd 9e64 fbbd
00000180: 71e0 c83c a0cd 1fbe 9474 58bd c172 093d
00000190: 2767 663d 3ac0 68bd 5e07 bdbd 3847 34bc
000001a0: ffd5 a0bd edc9 72bd 4f71 0c3e e2f1 9e3d
000001b0: e626 d13d 4b58 1bbe a826 183d c158 bb3d
000001c0: 1b8d 3dbe fd8c 053d 4d14 24bd 79be 7f3d
000001d0: 612c 043d c60d e83c 3f5f 91bd 4314 3abe
000001e0: 2b02 913d 1085 12be 45f9 50be 6c2f 94bd
000001f0: 53ff dabd 31b0 aabd 98b3 2e3e 108e 1d3e
00000200: ecbc 08be 5ee1 94bd 1021 ca3d 57d5 e83d
00000210: d3e1 aa3d d598 09be d056 403e f203 bdbd
00000220: 4aa5 3bbe 7eec 2fbe d447 603c ad6e d23d
00000230: 4ecb 29be 840a 1fbe 5ac1 0abe a8ac 16be
00000240: ac4c 153e 11fb 053e 22ec 32be 0e66 48be
00000250: 81d0 40be 5a8c 0a3d c885 143c afda 253e
00000260: d625 a5bc 1c7c a13d 46b1 2abd 586e 8dbb
00000270: 9d97 3abe 1de7 1e3e a4bc 8f3d 38ca 1e3d
00000280: bc0e ad3d 9382 25be 4eb8 90bd 4d55 823d
00000290: e308 05bb f692 b73d 6de0 f6bd 0d51 5fbe
000002a0: bb89 1bbe 303d e03d 4920 4e3d 7c9f e0bd
000002b0: 6f17 63be 81c4 0f3d d436 39be ee6a 2bbe
000002c0: 204e d93d 4d24 903d 4d3c c1bd c5e5 05be
000002d0: 26e6 933d c351 cfbd bd0d b3bd d2f8 173e
000002e0: 0e48 383e cc5e 0c3e c943 6ebd b975 46be
000002f0: b427 79bc 368c 5b3d 8fe5 37be c5bf 0c3e
00000300: 8e5e 823d 9efb f73d cb4d 37be 7706 d9bc
00000310: 062c 52be 24a2 9c3d 1a74 c8bd 8f42 443d
00000320: bdae e43d 7eba acbd 4e31 043e 7e7a fb3d
00000330: aa22 9f3d 1815 28be 22b1 54bc db43 52be
00000340: 0bb5 56be 12f9 66bc d6d7 543d 4da0 803d
00000350: d8a2 8fbe 7695 b23c c003 313d 28a1 1e39
00000360: f132 063b b3f8 5c3d 6dd8 f5bc b3ba 7abe
00000370: 7dcd 76be fb5c 463e 708b 4ebc 478b 5dbd
00000380: 4d5c 113e 1581 20bd 1e35 703e 2a32 f9bc
00000390: 0a32 013e 42a3 83be 0cbd 793e ffef 213e
000003a0: 2149 093e f55b bcbd d2ac 2f3e e8a6 1d3e
000003b0: 269d 6bbe a451 cbbd 814d ffbd 1cf1 3e3d
000003c0: 7dfa f03d af35 4cbd f79b 2fbe 93c8 283d
000003d0: 272e 8dbe 704c dabd 8945 51be 4906 d9bb
000003e0: 657b 953c 8e58 13be 9442 4c3c 30e4 7dbd
000003f0: db61 1b3e 6725 093e 203f e4bd eb95 3abe

net.8.bias f4 [6]
-0.040267892 0.06512605 0.08474919 -0.03311576 0.07187177 -0.032841235
00000000: f2ef 24bd ce60 853d fc90 ad3d 64a4 07bd
00000010: 8231 933d 8884 06bd
