src/train/models/hand_gesture_model.pth (torch, 232423 bytes, 8 tensors)

net.0.weight f4 [256, 60]
0	0x3daba3cd	0.08380852
1	0xbe810fb9	-0.25207308
2	0x3e2e157d	0.17000385
3	0x3e00d037	0.12579428
4	0xbd333215	-0.043748934
5	0x3e10c390	0.14137101
6	0x3d985365	0.07437781
7	0x3d061c9b	0.032742124
8	0x3e904129	0.28174713
9	0xbe8edd9f	-0.27903458
10	0x3e03bf40	0.12865925
11	0x3e411b32	0.1885803
12	0xbcc5c3f0	-0.024141282
13	0xbdd65ec9	-0.104672976
14	0x3dcb56f4	0.09928694
15	0x3d8a953e	0.06766747
16	0xbdf367e6	-0.118850514
17	0xbd7326c2	-0.059363134
18	0xbadeb1d6	-0.0016990255
19	0x3d2f8085	0.042847175
20	0xbb8f528b	-0.0043738536
21	0x3e095df7	0.13414751
22	0xbd8355f4	-0.06412879
23	0xbe4462cd	-0.19178315
24	0xbd277e39	-0.04089186
25	0x3c75f833	0.015012789
26	0xbc082913	-0.008310574
27	0xbd81ce68	-0.06338197
28	0xbd8403a7	-0.06446009
29	0x3c7ad9c4	0.015310708
30	0x3ad83342	0.0016494768
31	0xbd6d9cfd	-0.058011044
32	0xbdd99dbb	-0.10625788
33	0xbd06c8b9	-0.032906268
34	0xbe177808	-0.14791882
35	0xbd1c7394	-0.03819616
36	0x3dc10054	0.09423891
37	0x3e306ade	0.17228267
38	0x3dd0addd	0.10189412
39	0xbdf535af	-0.1197313
40	0x3df4d9ca	0.119556025
41	0x3e2e5715	0.17025407
42	0x3dfe8b0a	0.12428863
43	0xbdc8d79a	-0.09806748
44	0x3dd5bc58	0.10436314
45	0x3d307700	0.043082237
46	0xbcadf342	-0.021234158
47	0x3d111284	0.03541805
48	0x3e0c6992	0.13712147
49	0x3cfcfbcc	0.030881785
50	0x3ce2b758	0.027675316
51	0xbd03ba8c	-0.032160327
52	0xbd3e53aa	-0.046466507
53	0x3dbace02	0.09121324
54	0x3d197c51	0.037472073
55	0x3d9ecfe3	0.07754495
56	0x3c962cc2	0.018331889
57	0xbd441397	-0.047870245
58	0x3e538219	0.20655097
59	0xbe192544	-0.14955622
60	0xbe1e37dd	-0.15450998
61	0x3da96907	0.082719855
62	0xbbe2e992	-0.0069248164
63	0xbcfd6e32	-0.030936334
64	0x3d9879ff	0.07445144
65	0x3e375aea	0.17905775
66	0xbdc511a1	-0.09622503
67	0x3e7a84fb	0.2446479
68	0x3d00b3a2	0.03142131
69	0xbed5be0c	-0.41746557
70	0x3d8857e3	0.06657388
71	0x3e204e2f	0.15654825
72	0x3ce95212	0.028481517
73	0x3c1e7fa1	0.009673984
74	0xbda2c307	-0.07947355
75	0xbd0db20a	-0.03459362
76	0xbd826852	-0.06367554
77	0xbc905bc4	-0.017621882
78	0x3d929b80	0.071585655
79	0x3cb1d099	0.021705912
80	0x3d1478a4	0.036247864
81	0x3c3ce104	0.011528257
82	0xbd8848d3	-0.06654515
83	0x3e8494cc	0.25894773
84	0x3cb79581	0.022410156
85	0xbdff1934	-0.12455979
86	0x3c1ebf2c	0.009689134
87	0xbcdbb393	-0.026819026
88	0xbdac0d42	-0.08400966
89	0xbdce7a16	-0.1008188
90	0x3caa0538	0.020754442
91	0x3deaa387	0.114569716
92	0xbd8a3203	-0.0674782
93	0xbca695f3	-0.020335173
94	0x3cf55564	0.029947944
95	0x3d659d35	0.056058127
96	0x3c0ba22b	0.008522551
97	0xbe112d95	-0.14177544
98	0x3ca01b81	0.019544365
99	0x3d428d6d	0.047498155
100	0x3dcc1123	0.09964206
101	0xbda28fa4	-0.079375535
102	0xbe09e499	-0.1346611
103	0x3d671300	0.056414604
104	0xbe0e0455	-0.1386884
105	0x3ce6ced0	0.028174788
106	0x3df5f231	0.12009085
107	0xbd4c1431	-0.049823944
108	0x3cb97a4b	0.022641322
109	0xbe0b78fb	-0.13620369
110	0xbe163200	-0.14667511
111	0xbd93b2b3	-0.072118185
112	0x3d891200	0.06692886
113	0xbe2e6aa2	-0.17032865
114	0x3dbb9411	0.09159101
115	0xbde13dfb	-0.1099815
116	0x3ccf79cc	0.025326632
117	0x3dd6888a	0.104752615
118	0xbcf25786	-0.02958275
119	0x3d37e01e	0.04489147
120	0xbde1694b	-0.11006411
121	0x3dbd980e	0.09257518
122	0x3e57874a	0.21047702
123	0x3d714128	0.05890003
124	0x3e29c1b6	0.16577801
125	0x3e38b89d	0.18039174
126	0x3d09b6f4	0.033621743
127	0x3e72de24	0.23717552
128	0x3e336a42	0.17521003
129	0xbd5651ab	-0.05232398
130	0x3e7575e8	0.23970759
131	0x3cd3a03e	0.025833245
132	0xbd881a06	-0.066455886
133	0xbdcb2f97	-0.099211864
134	0xbd97b3a3	-0.0740731
135	0xbd723206	-0.059129737
136	0xbd8dd36f	-0.069250934
137	0xbdcdaba3	-0.10042503
138	0xbdc22e09	-0.09481437
139	0x3db8c5a7	0.09022074
140	0x3dee6b2b	0.116415344
141	0x3c8b9e35	0.017043212
142	0xbe0fb14b	-0.14032476
143	0xbd61c835	-0.055122573
144	0xbd2152c4	-0.039385572
145	0xbd93a2a2	-0.07208754
146	0xbe2b056c	-0.16701287
147	0x3dee7f10	0.11645329
148	0xbd1c4434	-0.03815098
149	0x3ddf5932	0.109056845
150	0x3de28164	0.110598356
151	0x3dfdb5c1	0.123881824
152	0xbcffe808	-0.03123857
153	0x3dc89559	0.09794111
154	0x3d22a779	0.039710496
155	0x3d900a3b	0.07033201
156	0xbdfaa8ff	-0.12239265
157	0x3b5168d9	0.0031953363
158	0xbc3696c5	-0.011144345
159	0x3dff2f8c	0.12460241
160	0x3d38b167	0.04509106
161	0x3e0812e8	0.13288462
162	0xbbb2bc0d	-0.0054545463
163	0xbd7a1499	-0.0610548
164	0x3e129c4d	0.14317437
165	0x3df661be	0.120303616
166	0xbcfac3bf	-0.030610917
167	0xbde0aae2	-0.10970093
168	0x3a904153	0.0011005796
169	0xbe113ad4	-0.14182597
170	0x3d67e0a8	0.056610733
171	0x3e02bdf9	0.12767781
172	0x3d267219	0.040636156
173	0xbcc8aeac	-0.024497353
174	0xbd5a70a1	-0.053330068
175	0xbe2d7071	-0.16937424
176	0xbe700f6e	-0.23443386
177	0x3deadaea	0.11467536
178	0xbe773a3d	-0.2414331
179	0xbeb54f6a	-0.3541215
180	0xbc63fadc	-0.01391479
181	0x3ca5e7fb	0.020252218
182	0x3e27530c	0.16340274
183	0xbdc262b6	-0.09491484
184	0xbd26d93e	-0.040734522
185	0xbd367e00	-0.044553757
186	0xbdfedf1b	-0.12444898
187	0xba37ba29	-0.0007008636
188	0xbb99fb3f	-0.0046991403
189	0xbe25d8a0	-0.16195917
190	0x3d099859	0.033592556
191	0xbda33528	-0.07969123
192	0x3d7e8612	0.06213958
193	0x3b435fc3	0.0029811717
194	0xbdb08775	-0.086195864
195	0x3d9829f6	0.074298784
196	0x3d8d10b7	0.06887954
197	0x3d58489d	0.052803624
198	0x3dfbbc4e	0.12291776
199	0xbe474ef1	-0.19463708
200	0x3d7cf57e	0.061757557
201	0x3d8519a2	0.0649903
202	0xbe5f2353	-0.21790819
203	0xbc9e23fa	-0.019304264
204	0x3dac6e39	0.08419461
205	0x3de3d0e8	0.1112383
206	0xbdbd52b2	-0.092442885
207	0xbd46a7ca	-0.04849986
208	0x3d9d7dfc	0.07690045
209	0x3ad6c96a	0.001638693
210	0x3e255bf2	0.16148356
211	0xbcc8acf8	-0.02449654
212	0xbd32a509	-0.04361442
213	0x3e24886e	0.16067669
214	0x3e036ef6	0.12835297
215	0xbd215b9b	-0.039394002
216	0xbdd4915d	-0.10379288
217	0xbd599daf	-0.053128894
218	0xbdf17121	-0.11789156
219	0xbd8b381e	-0.06797813
220	0xbd518296	-0.051149927
221	0xbc7cb138	-0.015423112
222	0x3dd3f12c	0.10348734
223	0xbd8c5566	-0.06852226
224	0x3e01bdea	0.12670103
225	0x3e37119c	0.17877811
226	0x3d4a3d57	0.049374904
227	0x3e2d2afa	0.16910926
228	0xbcdd47d5	-0.027011791
229	0x3d9d9524	0.07694462
230	0x3db9f8d1	0.09080661
231	0x3e00d4a5	0.12581117
232	0x3dbe8896	0.093033955
233	0xbd8f107e	-0.069855675
234	0x3c4fcb1b	0.012682701
235	0x3dbc21c5	0.091861285
236	0x3de12bc3	0.10994675
237	0xbc7bd0d4	-0.015369613
238	0x3d8de9df	0.06929373
239	0xbd9a396d	-0.07530484
240	0x3c86a8c4	0.016437896
241	0x3d145006	0.03620913
242	0xbd7506bf	-0.059820887
243	0x3bdbb725	0.006705182
244	0x3e856dca	0.26060325
245	0x3cebdbbe	0.028791305
246	0xbe824635	-0.2544419
247	0x3e3a8f61	0.18218757
248	0x3d9b41ce	0.075809106
249	0xbe86997c	-0.26288974
250	0x3e328e80	0.17437172
251	0x3b394fc9	0.0028276315
252	0xbda499b3	-0.08037128
253	0xbdc452a0	-0.09586072
254	0xbdda23b9	-0.10651345
255	0x3d68ec39	0.056865904

net.0.bias f4 [256]
0	0xbe21bcfb	-0.15794747
1	0x3c8a8784	0.016910322
2	0xbc54fd0e	-0.012999786
3	0xbe2049fa	-0.1565322
4	0xbde120f6	-0.10992615
5	0x3d4b4607	0.04962733
6	0xbce7ef24	-0.028312273
7	0xbd099d6e	-0.033597402
8	0x3b89ff4c	0.004211342
9	0x3de88db7	0.11355155
10	0xbcd58ae4	-0.026067205
11	0xbdba9d97	-0.09112089
12	0xbe23c7fc	-0.15994257
13	0xbd88ef6f	-0.06686293
14	0x3d5bb46d	0.053638864
15	0xbdb7dfb6	-0.08978216
16	0xbdefab5a	-0.117026046
17	0xbd45c18f	-0.048280295
18	0x3b9eecb7	0.004849996
19	0xbe0840be	-0.13305947
20	0x3d489a60	0.04897535
21	0xbe23a729	-0.15981735
22	0xbd5f32f2	-0.054491945
23	0xbe17255e	-0.14760348
24	0x3e3776f5	0.17916472
25	0xbd683ec1	-0.05670047
26	0xbce00506	-0.027346145
27	0xbda6c4dc	-0.08143017
28	0xbd48636b	-0.048922937
29	0x3dcb0b6a	0.099142864
30	0xbe8c52d9	-0.27406958
31	0xbd148ae8	-0.036265284
32	0xbd9a0651	-0.07520736
33	0xbe10a20b	-0.14124314
34	0x3e480479	0.19532956
35	0xbd8cdd74	-0.06878176
36	0xbdbb1ece	-0.09136735
37	0x3d93b1b9	0.07211632
38	0x3db2cebe	0.08730839
39	0xbd523b7d	-0.051326264
40	0xbd48e0d1	-0.049042527
41	0xbe01f94a	-0.12692752
42	0xbe93b751	-0.28850797
43	0x3e0cdadb	0.13755362
44	0xbde7381b	-0.11289998
45	0x3bd0422d	0.006355545
46	0xbdc97603	-0.09836962
47	0xbe06601b	-0.13122599
48	0xbc2d27db	-0.010568584
49	0xbe91d7a9	-0.28484848
50	0xbe675169	-0.2258965
51	0xbd1af2ba	-0.03782914
52	0xbe23c20a	-0.15991989
53	0xbe1519ad	-0.14560576
54	0xbe420555	-0.18947347
55	0x3c999baa	0.018750984
56	0x3c7fa4a8	0.015603222
57	0xbd0e8c83	-0.03480197
58	0xbcb01772	-0.021495555
59	0xbe3556ca	-0.17708889
60	0xba9618ab	-0.0011451443
61	0xbd19056c	-0.037358686
62	0xbcaee474	-0.02134917
63	0x3dc5b989	0.09654529
64	0x3ba02d91	0.0048882444
65	0xbc45cd69	-0.012072899
66	0xbd9d072c	-0.076673836
67	0x3d2b8b4a	0.041880883
68	0xbe72525e	-0.23664233
69	0xbd87bb53	-0.06627526
70	0xbcee8fd8	-0.029121324
71	0xbda3498c	-0.07973012
72	0xbd9b1911	-0.075731404
73	0xbd365edb	-0.044524055
74	0xbd9fafb7	-0.07797187
75	0x3da93c65	0.082634725
76	0x3e10e3f8	0.14149463
77	0x3d12e5d9	0.03586373
78	0xbe0f4473	-0.13990955
79	0xbe63dd14	-0.22252303
80	0xbe06157d	-0.13094135
81	0xbdb665e2	-0.08906151
82	0xbc9a2026	-0.018814158
83	0xbe54dd36	-0.2078751
84	0xbcecf864	-0.028927036
85	0xbde2d882	-0.11076452
86	0xbd3ac967	-0.04560223
87	0xbe65ff0b	-0.22460572
88	0x3d9cbfeb	0.07653793
89	0xbd42a9e6	-0.04752531
90	0xbe1209ce	-0.14261553
91	0xbe3520da	-0.17688313
92	0xbe5d123a	-0.21588984
93	0xbe5390f7	-0.20660768
94	0xbe011f7a	-0.12609664
95	0xbde74ebe	-0.11294316
96	0x3c993774	0.0187032
97	0x3d455358	0.048175186
98	0x3c8fa205	0.017533312
99	0x3d333a69	0.043756876
100	0xbded2a4d	-0.11580334
101	0xbd89ade0	-0.06722617
102	0xbd3cd8b1	-0.04610509
103	0xbe1174e5	-0.14204748
104	0xbc218307	-0.0098578995
105	0x3d0968a2	0.03354705
106	0xbdf6a91b	-0.12043973
107	0x3d0eb5b7	0.034841266
108	0xbe5ab044	-0.21356302
109	0x3dc1f218	0.09470004
110	0xbe5013d0	-0.20320058
111	0xbe72a45e	-0.23695514
112	0xbe2ce977	-0.16885935
113	0x3d430da5	0.047620434
114	0xbd0c12ed	-0.034197737
115	0xbddcfe03	-0.107906364
116	0xbe3ecd68	-0.18633044
117	0xbe0223b1	-0.12708928
118	0xbe5ba712	-0.21450451
119	0xbea797f3	-0.32733116
120	0x3d9e7627	0.077373795
121	0x3ddcf4e6	0.10788898
122	0x3d5719af	0.05251473
123	0xbb7d7e0e	-0.003867987
124	0x3bae1f9b	0.0053138263
125	0xbea512a4	-0.32240784
126	0x3df9bcc4	0.12194207
127	0xbcc183b6	-0.023622375
128	0x3da5b9b5	0.080920614
129	0xbe4d96b1	-0.20077015
130	0x3bc925b6	0.0061385287
131	0xbd460cae	-0.048351936
132	0x3d335984	0.04378654
133	0xbe298cd9	-0.16557635
134	0xbe1d442c	-0.15358037
135	0xbda24140	-0.07922602
136	0x3bebd68e	0.007197208
137	0xbe47b2c5	-0.19501789
138	0x3b36fc8f	0.0027921533
139	0x3c05d5f6	0.008168688
140	0x3d0b0527	0.03394046
141	0x3d7d7d52	0.061887093
142	0xbe208acd	-0.15677948
143	0xbdca7523	-0.09885623
144	0xbe3a0576	-0.18166146
145	0xbe30ca82	-0.1726475
146	0x3d6452eb	0.05574314
147	0xbe255394	-0.16145164
148	0xb8bc0259	-8.964976e-05
149	0xbd67dac3	-0.05660511
150	0xbde2a256	-0.110661194
151	0xbd447189	-0.047959838
152	0xbe057780	-0.13033867
153	0xbd9a2531	-0.07526625
154	0xbe0030df	-0.12518643
155	0xbde2bc6a	-0.110710934
156	0x3d522265	0.051302332
157	0xbdc72179	-0.09723181
158	0xbe22dbd4	-0.1590417
159	0x3dc82466	0.097725675
160	0xbd2a91fa	-0.04164312
161	0xbd9de0e8	-0.07708913
162	0xbdca7527	-0.09885626
163	0x3e1e5683	0.15462689
164	0xbdc6a356	-0.096991226
165	0xbc9c98cb	-0.019115826
166	0xbdd29120	-0.10281587
167	0xbe2d07b3	-0.16897468
168	0x3d899907	0.06718641
169	0xbd466866	-0.048439406
170	0xbe5db540	-0.21651173
171	0xbbd744e0	-0.00656949
172	0xbdaf3649	-0.08555276
173	0x3e2285ed	0.15871401
174	0xbe15fc08	-0.14646924
175	0xbe3d7d8e	-0.18504927
176	0x3c27e28a	0.010246882
177	0xbd4d6123	-0.050141465
178	0x3d875fe3	0.06610086
179	0x3db1b55a	0.08677168
180	0xbdafc706	-0.085828826
181	0xbe393e36	-0.18090138
182	0xbd908e30	-0.0705837
183	0xbcdd82d9	-0.027039932
184	0xbd15a24d	-0.036531735
185	0x3d25aab3	0.040445995
186	0xbda92fd2	-0.08261074
187	0xbd600a8f	-0.05469757
188	0xbe102d26	-0.14079723
189	0xbe3fe789	-0.18740667
190	0xbd9d75be	-0.07688473
191	0xbe1eca55	-0.15506871
192	0xbc1b887c	-0.00949299
193	0xbcdb08e0	-0.02673763
194	0xbe504452	-0.20338562
195	0xbda423bd	-0.08014629
196	0x3df8aef0	0.12142742
197	0xbe5bc461	-0.21461631
198	0x3d082395	0.03323706
199	0xbd89ae8f	-0.067227475
200	0xbe276874	-0.1634844
201	0xbe4bdade	-0.1990771
202	0xbebcbfd6	-0.3686511
203	0xbdb5dc97	-0.08879965
204	0xbdb9468f	-0.09046661
205	0x3df2a0d9	0.118470855
206	0xbda2e184	-0.0795317
207	0xbdf20913	-0.11818137
208	0x3d1a412b	0.037659805
209	0x3e103ce7	0.14085732
210	0x3d4a03f8	0.04932019
211	0x3d402dae	0.046918564
212	0xbe6a019f	-0.22852181
213	0xbe88e0ad	-0.26733914
214	0xbe200489	-0.1562673
215	0xbc45e9e7	-0.012079692
216	0xbd1d2bb7	-0.038371768
217	0xbe61910a	-0.22027984
218	0xbe368333	-0.17823486
219	0x3d0bd2eb	0.034136694
220	0xbe7a8b8a	-0.24467292
221	0xbe9998e2	-0.29999453
222	0x3d250785	0.040290374
223	0xbd58234d	-0.05276804
224	0x3d73bc1e	0.059505574
225	0x3d097402	0.0335579
226	0xbd82c355	-0.06384913
227	0x3e073627	0.13204251
228	0x3d19b824	0.037529126
229	0xbd1a06db	-0.037604194
230	0x3e1d771c	0.15377468
231	0x3c1f1de0	0.009711713
232	0x3d96dc7b	0.07366272
233	0xbc7b4ed3	-0.015338617
234	0x3d114b74	0.03547235
235	0xbe916b64	-0.28402245
236	0xbdad2c5d	-0.08455727
237	0x3da4a55e	0.08039354
238	0xbdb920a4	-0.09039429
239	0xbe2f0301	-0.1709099
240	0xbe23bbff	-0.15989684
241	0xbe0c614c	-0.13708991
242	0xbda7e2b4	-0.08197537
243	0x3b7f8dbe	0.0038994397
244	0xbe919334	-0.2843262
245	0xbe227561	-0.15865089
246	0x3df76fe2	0.12081887
247	0xbdc889c1	-0.097918995
248	0xbe040a0d	-0.12894459
249	0xbd29422d	-0.041322876
250	0xbdc7cf52	-0.0975634
251	0xbdb8a8cd	-0.09016571
252	0xbe9d0de1	-0.3067465
253	0x3d5f3179	0.05449054
254	0xbd9f6a11	-0.077839024
255	0xbd5a7742	-0.05333639

net.3.weight f4 [128, 256]
0	0x3dc90316	0.09815042
1	0xbd998f52	-0.07498039
2	0x3d72997b	0.0592284
3	0x3d8589e6	0.06520443
4	0xbdf7c8b3	-0.12098827
5	0xbc317d2c	-0.010833066
6	0xbe2a5a79	-0.16636075
7	0x3cb7dc0e	0.022443797
8	0xbdb696f7	-0.08915513
9	0xbc1807a0	-0.009279162
10	0xbc353656	-0.011060318
11	0x3c8333d6	0.016015928
12	0x3d902394	0.07038036
13	0xbb189c55	-0.002328654
14	0x3d101025	0.035171647
15	0xbd1df8ef	-0.03856748
16	0xbca30e39	-0.019904243
17	0x3ca08196	0.019593041
18	0x3d886364	0.06659582
19	0x3dbe220d	0.092838384
20	0xbe323f6f	-0.1740701
21	0xbd33410f	-0.043763217
22	0x3cb3db6e	0.021955218
23	0x3ac8fed2	0.0015334731
24	0xbe46b0d7	-0.19403397
25	0x3c1042ad	0.008804959
26	0xbe063312	-0.1310542
27	0x3d303df5	0.043027837
28	0x3d7da01c	0.06192027
29	0x3b30e865	0.0026993987
30	0x3cba1e29	0.02271946
31	0x3c11f884	0.008909348
32	0x3d205ed5	0.03915294
33	0x39ca45b1	0.00038580367
34	0xbe7afbe6	-0.24510154
35	0x3d8c1a81	0.06840993
36	0xbe32afd4	-0.17449886
37	0x3ca9b6f1	0.020717116
38	0x3e0666b2	0.13125113
39	0x3d255976	0.04036852
40	0x3da8a697	0.082348995
41	0x3c8ac68a	0.016940374
42	0x3c264e9e	0.01015058
43	0x3def3544	0.116800815
44	0x3d3216b1	0.04347867
45	0xbe6c62b6	-0.2308453
46	0x3d07d8de	0.033165805
47	0x3d09b101	0.03361607
48	0x3ca60ae8	0.020268872
49	0x3c495ef3	0.012290704
50	0xbdf8493c	-0.12123343
51	0x3e1114df	0.14168118
52	0x3e0404f9	0.12892522
53	0xbe62130a	-0.22077575
54	0x3dda6fc4	0.10665849
55	0x3ced0e6b	0.02893754
56	0xbd41fe3e	-0.047361605
57	0xbe233acc	-0.15940398
58	0xbd13be73	-0.0360703
59	0x3d975cff	0.073907845
60	0xbd15f4a1	-0.03661025
61	0xbc786095	-0.015159746
62	0xbd39b319	-0.045336816
63	0x3c387eee	0.011260731
64	0x3d2d8323	0.04236139
65	0xbe9796e5	-0.2960731
66	0xbcbf79dd	-0.023373539
67	0x3d022ca7	0.031780865
68	0x3de0b8ec	0.10972771
69	0x3d28611c	0.041108236
70	0xbe2715b8	-0.16316879
71	0xbacb55d2	-0.0015513247
72	0xbd3eccf1	-0.046582166
73	0xbd08f12a	-0.033433117
74	0x3d263fee	0.04058831
75	0xbe78ed7e	-0.24309346
76	0x3d1f3a9e	0.03887426
77	0xbd89f063	-0.06735303
78	0x3d091803	0.033470165
79	0x3d9ca296	0.07648198
80	0x3ddb59e6	0.10710506
81	0x3cc90959	0.02454059
82	0xbcd12acc	-0.025533102
83	0x3d9f29e0	0.07771659
84	0x3d859bbd	0.06523845
85	0xbab7398c	-0.0013978942
86	0x3c2ae913	0.010431546
87	0xbd517e19	-0.051145647
88	0x3dcb1f98	0.099181354
89	0xbd8754e4	-0.066079885
90	0x3d34faa7	0.044184353
91	0x3d1d3d85	0.038388748
92	0x3c77d2df	0.015125959
93	0x3e1e1ee6	0.15441474
94	0xbcaffd6f	-0.021483151
95	0x3b25d62b	0.0025304656
96	0xbdbdf34c	-0.09274921
97	0xbd6838eb	-0.056694906
98	0xbe0fd54c	-0.1404621
99	0x3b92868b	0.004471605
100	0xbd91292e	-0.070879325
101	0xbcb06615	-0.021533052
102	0xbe4d20ee	-0.20032093
103	0x3dab8408	0.08374792
104	0x3db8db4c	0.090262026
105	0x3dd083e4	0.10181406
106	0x3dfc5802	0.12321474
107	0xbd1502b5	-0.036379535
108	0x3c62795c	0.01382288
109	0xbd9c8881	-0.076432236
110	0x3dc2b139	0.09506459
111	0x3d0c5f48	0.034270555
112	0x3db257d4	0.08708158
113	0x3a8c20aa	0.0010690887
114	0x3e103b15	0.14085038
115	0xbd40769e	-0.046988122
116	0x3d394573	0.045232248
117	0x3bb100e0	0.0054017156
118	0x3de55fca	0.11199911
119	0xbdce2c96	-0.10067098
120	0xbd81679f	-0.06318592
121	0xbbeeebc3	-0.0072912886
122	0xbdc95a6d	-0.098317005
123	0xbd38139b	-0.044940572
124	0xbd50f9a1	-0.051019315
125	0xbd6ad49e	-0.057331674
126	0xbe0e1e1f	-0.13878678
127	0xbe10c5b2	-0.14137915
128	0xbe8e4248	-0.27784944
129	0x3d5d9f54	0.054107025
130	0xbd559868	-0.0521473
131	0x3c3404f8	0.010987513
132	0xbb95ec9d	-0.0045753256
133	0x3db5d316	0.08878152
134	0xbda922dc	-0.08258602
135	0x3d9909a6	0.074725434
136	0xbc27a5ea	-0.010232428
137	0x3caf9c79	0.021436917
138	0xbc5b3f0d	-0.013381732
139	0x3dba0959	0.09083814
140	0xbd1df1fd	-0.038560856
141	0xbe0e515a	-0.1389822
142	0xbc371a44	-0.011175696
143	0xbe977fcb	-0.29589686
144	0x3de9fe68	0.11425477
145	0x3de2cfe7	0.110748105
146	0xbcab05a9	-0.020876722
147	0xbd9cbb52	-0.07652916
148	0x3d1ae9b6	0.03782054
149	0xbd359c38	-0.044338435
150	0xbc9d4f0e	-0.019202735
151	0xbd7306be	-0.0593326
152	0xbe55170c	-0.20809573
153	0x3d6850bb	0.056717616
154	0x3d11bf20	0.03558266
155	0x3dbd5fc8	0.092467844
156	0xbddc041a	-0.1074297
157	0x3d4691e3	0.048478972
158	0x3cd0ab9f	0.02547246
159	0xbd42acb0	-0.04752797
160	0xbc3a131e	-0.011357097
161	0xbd1e6bf0	-0.038677156
162	0x3e0ff701	0.14059068
163	0xbb94014a	-0.004516755
164	0xbe4f4f25	-0.20245035
165	0x3e0eb900	0.1393776
166	0xbd188a49	-0.037241254
167	0x3d6d9c71	0.058010522
168	0xbe8cb921	-0.27484992
169	0xbd0a9e30	-0.033842266
170	0x3da7a694	0.08186069
171	0x3d879bd0	0.06621516
172	0xbc6c1ec8	-0.014411636
173	0xbd3f644d	-0.046726514
174	0x3d39e083	0.045380127
175	0x3d883d2c	0.066522926
176	0xbc6a03d2	-0.014283137
177	0xbe0c211d	-0.13684507
178	0xbd5d67d3	-0.054054093
179	0xbd86ac64	-0.0657585
180	0xbe01e9c4	-0.12686831
181	0xbe8774ca	-0.2645629
182	0x3c5d394d	0.013502431
183	0xbe3d3f03	-0.18481068
184	0xbd081e82	-0.03323222
185	0xbba889a8	-0.005143363
186	0xbda5998c	-0.08085927
187	0x3cead19c	0.028664403
188	0x3dc31fea	0.095275715
189	0xbdce05e2	-0.10059716
190	0x3df5bbde	0.119987234
191	0xbe51a7ec	-0.20474213
192	0x3bcfe692	0.006344625
193	0xbd879f40	-0.066221714
194	0xbdea73ef	-0.11447894
195	0xbcafacdd	-0.021444732
196	0xbdb97a40	-0.090565205
197	0x3d8e22d5	0.069402374
198	0x3e0ca992	0.13736561
199	0xbe009049	-0.1255504
200	0xbde49f2c	-0.11163172
201	0x3da022d9	0.07819147
202	0xbd056c33	-0.03257389
203	0xbd0f5e46	-0.035002016
204	0xbde5531c	-0.111974925
205	0x3dc64f6a	0.09683116
206	0x3d995643	0.07487156
207	0xbd540e5f	-0.051771518
208	0x3be55077	0.0069981175
209	0xbe3acdb3	-0.1824253
210	0x3dc85d42	0.097834125
211	0xbc78dd78	-0.015189521
212	0xbde2dfe0	-0.11077857
213	0xbd16f3fd	-0.03685378
214	0xbdaf044c	-0.085457414
215	0xbad4989a	-0.0016219795
216	0x3b80ecaf	0.003934465
217	0x3dde5240	0.10855532
218	0xbdfad884	-0.12248328
219	0xbcf8494a	-0.030308384
220	0x3dca1a72	0.09868325
221	0xb947ab33	-0.00019041896
222	0xbe073d26	-0.1320692
223	0xbd8da306	-0.0691586
224	0xbc248232	-0.010040807
225	0x3cf03671	0.029322835
226	0x3bb7e885	0.0056124353
227	0x3d91f0f0	0.07126033
228	0xbd2053e8	-0.03914252
229	0xbdb0dffd	-0.086364724
230	0x3c53db6a	0.01293073
231	0xbe243062	-0.16034082
232	0xbc6c9ec0	-0.014442146
233	0xbd02773b	-0.03185199
234	0xbe36fa53	-0.17868929
235	0x3da514b3	0.08060589
236	0x3d6ae421	0.057346467
237	0x3cb79723	0.022410935
238	0x3d3b1758	0.04567656
239	0x3dba1363	0.09085729
240	0x3d92adb2	0.07162036
241	0x3d2a3658	0.041555732
242	0x3e017725	0.12643106
243	0xbdb583b2	-0.088630095
244	0xbdb97c76	-0.09056942
245	0x3d2713f9	0.04079053
246	0xbdbfcba2	-0.09365012
247	0xbd8cf4ae	-0.068826064
248	0x3de8ddb0	0.113704085
249	0x3d84943d	0.06473587
250	0x3bdf6e3e	0.006818562
251	0xbc1a285d	-0.009409037
252	0xbbeb7121	-0.007185117
253	0xbe4cd598	-0.20003355
254	0x3d6f613c	0.05844234
255	0xbd0b2e0e	-0.033979468

net.3.bias f4 [128]
0	0xbd85a11d	-0.065248705
1	0xbc18c05a	-0.009323204
2	0x3b411fa7	0.002946833
3	0x3c224726	0.009904658
4	0x3e1bbecd	0.15209503
5	0xbcbe19f8	-0.023205742
6	0xbdd47854	-0.10374513
7	0x3d4623d6	0.04837402
8	0x3a60fdc1	0.0008582734
9	0x3db10e75	0.086453356
10	0x3b66a624	0.0035194242
11	0xbd490608	-0.049078017
12	0x3d63f4d1	0.055653397
13	0xbc485e57	-0.012229524
14	0x3c4cf6d2	0.012510018
15	0xbcf4332e	-0.02980956
16	0x3c5b8ad7	0.013399801
17	0x3c80a49e	0.015703496
18	0x3e15a962	0.14615396
19	0xbd595526	-0.05305972
20	0x3ced3f0f	0.028960733
21	0xbd95083c	-0.07276961
22	0xbb84513b	-0.0040380037
23	0x3d899b68	0.067190945
24	0x3dca086a	0.09864886
25	0x3dfc8106	0.12329297
26	0x3cdd29d4	0.026997484
27	0xbddae1a3	-0.10687568
28	0x3ae1070c	0.0017168238
29	0xbcf8e5d2	-0.030383024
30	0xbafb3f27	-0.0019168601
31	0x3db01ad2	0.085988656
32	0x3d9394ad	0.07206092
33	0xbd063bb5	-0.032771785
34	0x3ca2a026	0.019851755
35	0xbc1fb8d2	-0.009748654
36	0x3da75fe4	0.081725866
37	0x3c8e1b10	0.017346889
38	0xbdab6dd1	-0.08370555
39	0xbdc3c6d4	-0.09559408
40	0xbd316b6e	-0.043315344
41	0xbcd78055	-0.02630631
42	0xbcd63193	-0.026146686
43	0x3c881430	0.016611189
44	0xbc7dfa26	-0.015501535
45	0x3d84bfca	0.06481893
46	0x3d137a28	0.03600517
47	0xbd18d6f7	-0.03731438
48	0xbddb29d0	-0.107013345
49	0xbcc09334	-0.023507692
50	0x3cd4189d	0.025890643
51	0x3dac8e1c	0.08425543
52	0x3b7469ac	0.003729443
53	0x3d07e401	0.033176426
54	0xbd84cd50	-0.06484473
55	0x3b135aa5	0.0022484448
56	0x3d8545cd	0.06507454
57	0x3d9949d1	0.074847825
58	0xbc70d727	-0.014699734
59	0xbd6477a6	-0.05577817
60	0x3ba0c198	0.0049058907
61	0xbdc552ae	-0.096349105
62	0x3de89ef6	0.113584444
63	0x3ce4edb7	0.027945383
64	0x3c3c61a4	0.011497889
65	0xbc813921	-0.015774311
66	0xbd652a5b	-0.055948596
67	0xbdac7073	-0.084198855
68	0x3d90f0fa	0.07077213
69	0xbe17b2aa	-0.14814249
70	0x3d962504	0.07331279
71	0xbdd01ff8	-0.101623476
72	0x3cd89dab	0.02644237
73	0xbd5b1d8c	-0.053494975
74	0xbd09c4af	-0.033634838
75	0xbb7dea2f	-0.003874432
76	0x3d4c3537	0.049855437
77	0xbe077616	-0.1322864
78	0x3d16f976	0.036859
79	0xbd6ebce3	-0.058285605
80	0x3bdbc403	0.006706716
81	0xbb283c13	-0.0025670573
82	0xbc8a4d23	-0.016882485
83	0xbc9ac06a	-0.018890578
84	0x3d491701	0.049094204
85	0xbdd77b46	-0.105215594
86	0xbd3f4de7	-0.046705153
87	0x3badbb9f	0.005301907
88	0x3c7ddec0	0.015495002
89	0x3d97e83d	0.07417343
90	0x3d4b9dfa	0.049711205
91	0xbd5a1fb0	-0.053252876
92	0xbd1b2e04	-0.03788568
93	0xbdece362	-0.11566807
94	0xbccf2588	-0.025286451
95	0x3cfc14ae	0.03077158
96	0xbd638efb	-0.05555628
97	0xbd0e8054	-0.034790352
98	0x3d6cbee6	0.057799242
99	0xbcb4f4d7	-0.022089405
100	0xbb7d0811	-0.0038609544
101	0x3cb2fc33	0.021848774
102	0xbd0f819b	-0.03503571
103	0xbd8ec97c	-0.06972024
104	0xbc4fffa7	-0.01269523
105	0xbdcf4bf0	-0.10121906
106	0xbde43f4d	-0.11144886
107	0x3dd43e60	0.103634596
108	0x3d5d346f	0.054005083
109	0x3cd5e30f	0.026109247
110	0xbd16ffdf	-0.03686511
111	0xbd45a533	-0.04825325
112	0xbd17b27c	-0.03703545
113	0xbc6f9487	-0.014622814
114	0xbd95f6c3	-0.07322457
115	0xbc400ce7	-0.011721826
116	0xbc842ca5	-0.01613457
117	0xbdd6a1a5	-0.1048005
118	0xbd347d50	-0.04406482
119	0x3d104e1a	0.035230733
120	0xbb00328e	-0.0019561383
121	0xbc7a3d39	-0.015273386
122	0x3d0747e3	0.03302754
123	0x3c42afbf	0.011882721
124	0xbd853c88	-0.06505686
125	0xbd72fa04	-0.059320465
126	0x3d5ebdc5	0.054380197
127	0xbca38600	-0.019961357

net.6.weight f4 [64, 128]
0	0xbd1e86c2	-0.038702734
1	0x3b0493b3	0.0020229637
2	0x3bf2c2a4	0.007408457
3	0x3c3695f5	0.011144151
4	0x3e4acfcf	0.19805835
5	0x3e09e31d	0.13465543
6	0x3d86b42c	0.06577334
7	0x3dc52d36	0.09627764
8	0xbd0a0d29	-0.033703957
9	0x3e1246da	0.1428484
10	0x3e3e58ea	0.18588606
11	0xbc57e9b5	-0.013178279
12	0xbd89b3c6	-0.06723742
13	0x3d8a36a6	0.067487046
14	0x3dcb720a	0.099338606
15	0xbe419eea	-0.18908277
16	0x3d1aecdc	0.037823543
17	0x3d9677e6	0.073470876
18	0x3cf71ee9	0.030166106
19	0x3d7d2ac5	0.061808366
20	0xbddb22d4	-0.10700002
21	0xbe875eab	-0.26439413
22	0xbd8c04d1	-0.06836856
23	0x3d5ad38b	0.0534244
24	0xbde4e35b	-0.11176177
25	0x3e4bd647	0.19905959
26	0x3d02d97a	0.031945683
27	0xbdefbd5d	-0.1170604
28	0x3d88f792	0.06687845
29	0x3d67059a	0.056401826
30	0xbe0acc80	-0.13554573
31	0x3d76fc29	0.060299072
32	0x3da779d2	0.08177532
33	0xbe94929e	-0.2901811
34	0xbd0a86f7	-0.03382012
35	0xbcd109cd	-0.025517369
36	0xbc4faa1c	-0.012674835
37	0x3ddd703a	0.10812421
38	0x3deab26b	0.11459812
39	0x3daaf61f	0.08347725
40	0xbe0e4821	-0.13894702
41	0x3d2529bc	0.040323004
42	0xbd72bda0	-0.05926287
43	0x3c2ce108	0.0105516985
44	0xbd9811f7	-0.074253015
45	0xbd62e299	-0.05539188
46	0x3cdc6b4c	0.026906632
47	0xbd1944f6	-0.037419282
48	0x3db31827	0.08744841
49	0xbd15ee6a	-0.036604322
50	0x3de6997d	0.11259744
51	0x3b57a5ab	0.0032905142
52	0x3dd17fe9	0.10229475
53	0xbc47cc08	-0.012194641
54	0x3d38b67f	0.045095917
55	0x3b0c7981	0.0021434727
56	0x3ce1053b	0.027468314
57	0xbd02a623	-0.03189672
58	0xbdd2142e	-0.10257755
59	0xbdfe6e19	-0.12423343
60	0xbd09712c	-0.033555195
61	0x3c0b8062	0.008514496
62	0xbd28a494	-0.04117258
63	0x3cd39179	0.025826203
64	0x3e00892b	0.12552325
65	0xbd710de1	-0.058851127
66	0xbe0807d6	-0.13284239
67	0x3d63e374	0.055636838
68	0x3d6ef454	0.05833848
69	0x3deffe45	0.1171842
70	0x3e6f60b4	0.23376733
71	0x3c888b6f	0.01666805
72	0x3cebb88b	0.02877452
73	0xbdcfc8b4	-0.10145703
74	0xbc4c07f4	-0.012453068
75	0xbc4f3f66	-0.012649393
76	0x3e13e3a5	0.14442308
77	0xbe273493	-0.16328649
78	0x3d94af09	0.07259948
79	0xbc97f0c3	-0.018547421
80	0x3e09c811	0.13455226
81	0xbc3474ef	-0.011014207
82	0xbd844a95	-0.06459538
83	0xbcddd223	-0.02707774
84	0x3db6f418	0.08933276
85	0xbc740215	-0.0148930745
86	0xbdd3386c	-0.10313496
87	0x3d3147ea	0.043281473
88	0xbda06e2e	-0.07833515
89	0xbc482c36	-0.012217572
90	0x3d9d8d96	0.07693021
91	0xbe8eda4f	-0.2790093
92	0xbe12c236	-0.14331898
93	0x3cbba833	0.022907352
94	0xbdd1665e	-0.10224603
95	0xbca1b5d3	-0.01974002
96	0x3e141a4d	0.14463158
97	0xbde912fb	-0.11380573
98	0xbe005ae4	-0.12534672
99	0xbd95c399	-0.07312698
100	0xbcd2088d	-0.025638843
101	0x3e8a87d9	0.2705677
102	0xbd9de1ed	-0.077091075
103	0xbe47676b	-0.19473045
104	0x3d457c4e	0.04821425
105	0x3b873bc7	0.004126999
106	0x3e24ac3a	0.16081324
107	0xbcf47e64	-0.029845424
108	0xbd62dcc6	-0.055386327
109	0xbc8db8be	-0.017300006
110	0x3dba8ad7	0.09108513
111	0x3ca5495d	0.020176584
112	0xbda447aa	-0.08021481
113	0xbdad3d32	-0.08458938
114	0xbdc90c69	-0.0981682
115	0xbd826350	-0.063665986
116	0xbe183e67	-0.14867555
117	0xbd63cfa4	-0.055617943
118	0xbd4bb7e5	-0.049735922
119	0x3e125822	0.14291432
120	0xbe40f5a5	-0.18843706
121	0xbd8d8ac7	-0.06911235
122	0x3a9807a4	0.0011598957
123	0xbd3b1c0c	-0.045681044
124	0xbdcfd723	-0.10148456
125	0xbe53bf69	-0.20678486
126	0x3e3749ff	0.17899321
127	0xbe939883	-0.28827295
128	0xbdea757f	-0.11448192
129	0xbc152b6d	-0.009104592
130	0xbddaf7a3	-0.10691764
131	0xbdfde95f	-0.12398028
132	0xbdbeaaa8	-0.09309894
133	0x3e0855bd	0.13313957
134	0x3e042c0c	0.12907428
135	0x3de862a6	0.11346941
136	0x3dbf2c66	0.0933464
137	0x3d9ef879	0.07762236
138	0x3df403af	0.11914765
139	0x3e499721	0.19686557
140	0xbe1b66a8	-0.15175879
141	0xbd8de7d5	-0.06928984
142	0xbd70d6dd	-0.05879866
143	0xbd45287d	-0.048134316
144	0xbd3fd1b7	-0.04683086
145	0xbe5e0809	-0.21682753
146	0xbd95f698	-0.07322425
147	0x3b718bfc	0.0036857119
148	0xbe56652d	-0.20937033
149	0xbe6949e0	-0.22782087
150	0xbe7b5b2d	-0.245465
151	0x3e2add3a	0.16685954
152	0xbc7d7835	-0.015470554
153	0xbd8e9f67	-0.06963997
154	0xb9d9395b	-0.00041432198
155	0xbe3576b2	-0.1772106
156	0x3d89780b	0.067123495
157	0x3cd11f4f	0.025527624
158	0xbe498b60	-0.19682074
159	0x3e01a693	0.126612
160	0x3e1120f1	0.14172722
161	0xbe98e4d9	-0.29862097
162	0xbc8d8b26	-0.017278265
163	0x3e21000b	0.15722673
164	0x3d85f818	0.06541461
165	0x3e0d7c2f	0.13816904
166	0x3d8f3119	0.069917865
167	0xbd0f00fd	-0.034913052
168	0xba3233d0	-0.0006797882
169	0x3d80189d	0.062546946
170	0x3dd2b069	0.10287554
171	0x3cf4f67c	0.02990269
172	0xbc832c55	-0.01601235
173	0x3d5ed29d	0.054400075
174	0xbd8b09f0	-0.06789005
175	0x3e12e929	0.14346756
176	0xbb834ddd	-0.0040070848
177	0x3d90f047	0.07077079
178	0xbd0d9af2	-0.034571595
179	0x3e2fd80f	0.17172264
180	0x3d044f68	0.03230229
181	0xbe1f819c	-0.15576786
182	0xbc853465	-0.016260335
183	0xbd4f0308	-0.05054
184	0xbe957864	-0.29193413
185	0xbe4fd25b	-0.20295088
186	0xbe228a0e	-0.15872976
187	0xbdc982f4	-0.098394305
188	0xbdc371d9	-0.09543199
189	0xbdd28b4b	-0.10280474
190	0x3db8bf5e	0.090208754
191	0xbdd775a8	-0.10520488
192	0xbd35c00f	-0.044372614
193	0xbe4305e8	-0.19045222
194	0x3cf6accf	0.030111698
195	0xbd132e20	-0.03593266
196	0x3cd9939c	0.026559643
197	0xbd39c755	-0.045356113
198	0x3e13c891	0.14431979
199	0x3df037d4	0.11729398
200	0x3d85ee25	0.06539563
201	0xbb665845	-0.0035147828
202	0x3abf3858	0.0014588935
203	0x3e24c8a2	0.1609216
204	0x3d8eca6e	0.06972204
205	0xbda0bbd9	-0.07848329
206	0xbd45d1af	-0.048295673
207	0xbd57f1bf	-0.05272078
208	0xbd918ee6	-0.07107334
209	0x3c3b6e9f	0.011439948
210	0x3e00669d	0.12539144
211	0xbe0a0569	-0.13478626
212	0xbbd16b8b	-0.006390994
213	0x3dc87701	0.09788323
214	0x3d28764f	0.041128453
215	0x3e1c7b0a	0.1528131
216	0xbdd426a2	-0.10358931
217	0xbe45f64e	-0.19332239
218	0xbe638439	-0.22218408
219	0xbdfcad04	-0.123376876
220	0xbe1d870e	-0.1538355
221	0x3cebbcd7	0.02877657
222	0xbe13600c	-0.14392108
223	0x3e078309	0.1323358
224	0xbcd9f7eb	-0.026607474
225	0xbde73ba4	-0.112906724
226	0xbd290d3a	-0.04127238
227	0xbe829682	-0.25505453
228	0x3dbb2006	0.09136967
229	0x3e54f128	0.20795119
230	0xbcbeb8f1	-0.023281546
231	0xbe2b4bda	-0.16728154
232	0xbdfd1d69	-0.12359125
233	0x3cad23c7	0.021135224
234	0x3d296f91	0.041366164
235	0x3d183b35	0.03716584
236	0xbe482a19	-0.19547309
237	0xbd1e4948	-0.038644105
238	0x3dc1afbb	0.09457346
239	0xb9da6493	-0.00041655134
240	0xbcba1754	-0.022716202
241	0xbe0bd043	-0.13653664
242	0x3d576d32	0.05259437
243	0xbeded943	-0.43525133
244	0xbda7bbd6	-0.08190124
245	0xbca38c2f	-0.019964306
246	0xbda65d64	-0.081232816
247	0x3d8d3489	0.06894786
248	0xbcaaba2d	-0.020840729
249	0xbdc88657	-0.09791248
250	0xbd843ed7	-0.06457298
251	0x3c75622b	0.014977018
252	0xbe05a412	-0.13050869
253	0xbe18ac21	-0.14909412
254	0x3df7fcd9	0.12108774
255	0x3c989659	0.018626379

net.6.bias f4 [64]
0	0x3e316352	0.17323044
1	0x3ded7b71	0.1159581
2	0xbd9ce5f4	-0.076610476
3	0xbde43149	-0.11142213
4	0x3e10f6fa	0.14156714
5	0x3d62fe4b	0.055418294
6	0x3d37dd25	0.044888634
7	0x3d694049	0.056946073
8	0xbd07701d	-0.033065904
9	0xbd8c7cff	-0.068597786
10	0xbbaecac2	-0.005334229
11	0xbdc5cf86	-0.096587226
12	0xbda7a46c	-0.08185658
13	0xbda4dcd8	-0.08049935
14	0x3e0906bc	0.13381475
15	0xbe1e574e	-0.15462992
16	0x3e0800df	0.13281582
17	0xbd3eb9cd	-0.046563912
18	0xbc1cd8c0	-0.009573162
19	0x3b9a0bc1	0.004701108
20	0xbdbf1b06	-0.09331326
21	0xbd930953	-0.07179513
22	0xbdaeec96	-0.08541219
23	0xbd3d75dd	-0.04625498
24	0x3e49c237	0.19702993
25	0xbdb68baf	-0.08913361
26	0x3dfee4e0	0.12445998
27	0xbdc25a82	-0.09489919
28	0xbcf419bd	-0.02979743
29	0x3e243569	0.16036
30	0xbe010e71	-0.12603165
31	0xbd62c916	-0.05536755
32	0x3ddafa5f	0.10692286
33	0xbd3c876f	-0.046027597
34	0x3e1c1373	0.15241794
35	0xb90a83a3	-0.00013209744
36	0x3c75b800	0.014997482
37	0x3e169773	0.14706211
38	0xbdc9b765	-0.09849433
39	0xbc80d46f	-0.015726296
40	0xbcc7db98	-0.024396703
41	0xbe46043b	-0.19337551
42	0x3d21f0c5	0.039536256
43	0xbcaaa251	-0.020829352
44	0x3e0e0b89	0.13871588
45	0x3d2c359a	0.042043306
46	0xbd1943fd	-0.037418354
47	0x3dc07aec	0.093984455
48	0x3d8687c4	0.06568864
49	0xbddd92fa	-0.10819049
50	0x3ded4ed6	0.115873024
51	0xbd097b5d	-0.033564914
52	0xbdf1916e	-0.11795317
53	0xbd0ff506	-0.035145782
54	0xbd153319	-0.036425684
55	0xbc9e0682	-0.019290213
56	0x3ddb9d70	0.10723388
57	0x3d8ef70d	0.06980715
58	0x3ddd5e1f	0.10808968
59	0xbdc3c623	-0.09559276
60	0x3e4c04fa	0.19923773
61	0x3bd5a7f9	0.006520268
62	0xbda1b095	-0.078950085
63	0x3dc4a328	0.09601432

net.8.weight f4 [6, 64]
0	0x3e0f086b	0.13968055
1	0x3e5d06b8	0.21584594
2	0x3df362d7	0.118840866
3	0xbd8e3287	-0.06943231
4	0x3e1bec7a	0.15226927
5	0x3d279c6e	0.040920667
6	0x3d5bd6c6	0.05367162
7	0xbe3d2662	-0.18471673
8	0x3d1a113e	0.0376141
9	0xbe873376	-0.2640645
10	0xbdc1c40a	-0.094612196
11	0x3e29eb6f	0.16593717
12	0x3e2a8490	0.16652131
13	0x3ca28f9f	0.019843874
14	0xbc199594	-0.009374041
15	0xbe3b940b	-0.18318193
16	0xbe1629ac	-0.14664334
17	0x3d1c92ba	0.038225867
18	0xbe4c9366	-0.19978103
19	0xbc9dbff1	-0.019256564
20	0x3d54e639	0.05197737
21	0xbe243524	-0.16035897
22	0xbd39c223	-0.04535116
23	0xbd61c555	-0.05511983
24	0x3d3ce6c6	0.04611852
25	0x3dd2305f	0.10263132
26	0xbe644785	-0.22292908
27	0x3d79ccce	0.060986333
28	0xbdb1aac6	-0.086751506
29	0x3d5ca8eb	0.05387203
30	0xbdd77490	-0.105202794
31	0xbdaf3c23	-0.08556392
32	0x3da94053	0.08264222
33	0xbe2a8519	-0.16652335
34	0xbcd9dde4	-0.026595064
35	0x3e0261ca	0.12732616
36	0x3df6fb46	0.12059645
37	0x3e412fd0	0.18865895
38	0x3e174c2e	0.14775154
39	0xbe6546a5	-0.2239023
40	0xbe4f5e7d	-0.20250888
41	0x3d363011	0.044479433
42	0x3d4eb152	0.050462075
43	0x3dda63f1	0.106635936
44	0x3e2248fc	0.15848154
45	0x3cdf1936	0.027233701
46	0x3d6a5883	0.057213318
47	0x3d97a8db	0.074052535
48	0xbdf15a33	-0.11784782
49	0xbdc1b465	-0.09458236
50	0x3d98a704	0.07453731
51	0xbe29ee33	-0.16594772
52	0xbe750367	-0.23927079
53	0xbe22e441	-0.15907384
54	0x3e2bb9c5	0.16770084
55	0xbd58610a	-0.05282692
56	0x3ce2cba6	0.027684998
57	0xbbf30a25	-0.007416981
58	0xbe0d5f4f	-0.13805889
59	0xbd9d351e	-0.07676147
60	0x3df1399e	0.11778568
61	0x3c809822	0.015697543
62	0xbe5a9ff8	-0.21350086
63	0x3d462d87	0.048383262
64	0x3e1bcc5b	0.15214674
65	0xbbb5da65	-0.0055497163
66	0xbe3501b4	-0.17676431
67	0xbc675ae2	-0.014120789
68	0x3e2f11c9	0.17096628
69	0xbe6fc6ab	-0.2341563
70	0x3c5f66d9	0.013635361
71	0xbd2f2137	-0.042756286
72	0xbe841695	-0.2579848
73	0xbe9f2090	-0.3107953
74	0x3d0eae6d	0.034834314
75	0xbd851580	-0.064982414
76	0xbe8a90ca	-0.2706359
77	0xbe641fa2	-0.22277692
78	0x3d913e46	0.07091956
79	0xbdf571fe	-0.11984633
80	0x3e16f517	0.14741932
81	0xbd9d8819	-0.07691974
82	0xbe2b7649	-0.16744341
83	0x3d21803b	0.03942893
84	0xbe1ffcce	-0.15623781
85	0x3d724897	0.05915126
86	0xbce5b5d3	-0.028040802
87	0x3bdaf2d8	0.0066817813
88	0x3e559986	0.20859346
89	0xbe731d88	-0.23741734
90	0x3e4bc9f4	0.19901258
91	0xbe984110	-0.2973714
92	0x3de30c45	0.110863246
93	0x3e198822	0.14993337
94	0xbe0467b1	-0.1293018
95	0xbe4d4a15	-0.20047791
96	0x3da3c6c2	0.079968944
97	0xbe5cffcb	-0.21581952
98	0x3d89aec3	0.06722786
99	0x3db1de0e	0.08684932
100	0x3e076824	0.1322332
101	0x3da1233d	0.07868049
102	0xbd2b1e47	-0.04177692
103	0xbe96fe25	-0.29490772
104	0x3d22e539	0.039769385
105	0xbe3b8702	-0.1831322
106	0xbc9f2428	-0.01942642
107	0xbdc89acf	-0.097951524
108	0x3d7e4310	0.062075675
109	0xbe5e4ab3	-0.21708183
110	0xbd921acd	-0.07134018
111	0xbcb3051d	-0.021853024
112	0x3d91c2bc	0.07117221
113	0x3c9bebed	0.019033397
114	0x3e383864	0.17990261
115	0xbeb821ac	-0.3596319
116	0xbdb78202	-0.08960344
117	0x3d845a78	0.06462568
118	0x3dc21d58	0.09478253
119	0xbdcfa25b	-0.10138389
120	0xbed7c641	-0.42143443
121	0xbd198f0a	-0.03748993
122	0x3e1ffcf9	0.15623845
123	0xbdb8443e	-0.08997391
124	0x3e02ea1f	0.12784623
125	0xbb2a93dd	-0.0026028075
126	0xbe18b407	-0.14912425
127	0x3e40feb2	0.18847159
128	0xbd460ae8	-0.048350245
129	0xbdfca4b2	-0.12336101
130	0x3dc348b0	0.095353484
131	0xbc8d6316	-0.017259162
132	0xbe92e06f	-0.28686854
133	0xbe668a3e	-0.22513673
134	0xbc622e0e	-0.013804926
135	0xbe1f329a	-0.15546647
136	0x3d3cc5a9	0.04608694
137	0xbe864206	-0.26222247
138	0xbef4b6dd	-0.47795764
139	0xbd51171d	-0.051047433
140	0xbd6cf0ef	-0.05784696
141	0x3ca7e77f	0.020496128
142	0x3c61729c	0.013760235
143	0xbd5cb312	-0.053881712
144	0xbdb479dd	-0.08812306
145	0xbdd96179	-0.106142946
146	0x3d711cd1	0.058865372
147	0x3b7ffbde	0.0039060037
148	0x3d48f679	0.04906318
149	0xbe36ebf7	-0.17863451
150	0x3d5afb0e	0.05346208
151	0xbcd6436d	-0.026155198
152	0x3e146246	0.14490613
153	0xbdd3fadf	-0.10350584
154	0x3dad1cae	0.08452736
155	0xbda4bf46	-0.08044295
156	0xbdb031b4	-0.0860323
157	0x3e3a690a	0.18204132
158	0x3c859f82	0.01631141
159	0x3ae60db1	0.0017551688
160	0x3cfe2bfe	0.031026836
161	0x3ddac4b6	0.10682051
162	0x3de6e244	0.112736255
163	0xbc9fe043	-0.019516116
164	0x3dc9e14f	0.09857427
165	0xbe70e3aa	-0.23524347
166	0x3e02fcde	0.12791774
167	0xbe4d3f7e	-0.20043752
168	0x3e2be654	0.16787082
169	0xbdc590b6	-0.09646742
170	0x3d1e0ac5	0.03858449
171	0x3d94723b	0.0724835
172	0xbea9f032	-0.33191067
173	0xbe501f80	-0.20324516
174	0xbea5cfc5	-0.32385078
175	0xbe7c5b96	-0.24644312
176	0x3e5e6616	0.2171863
177	0x3db0ec36	0.08638804
178	0x3e1012bb	0.14069645
179	0xbe26bba1	-0.16282512
180	0xbe0b061f	-0.13576554
181	0x3d965287	0.073399596
182	0xbe8a50f1	-0.27014878
183	0x3e17971e	0.1480374
184	0x3d19c117	0.03753766
185	0x3da33e90	0.07970917
186	0x3dd7ff38	0.10546726
187	0xbb69923a	-0.0035640136
188	0x3deffe36	0.11718409
189	0x3e00aac3	0.1256514
190	0x3c95849b	0.018251708
191	0xbdc5bd56	-0.096552536
192	0x3dd7d13e	0.10537957
193	0xbc184ea1	-0.00929609
194	0xbb60da55	-0.0034309824
195	0x3ca909b9	0.020634519
196	0xbe42c2fa	-0.1901969
197	0x3db0248f	0.08600723
198	0xbe5dc556	-0.21657309
199	0xbd88eaa3	-0.066853784
200	0x3e4a1389	0.19734015
201	0xbe0131f8	-0.12616718
202	0xbd895862	-0.06706311
203	0x3dc9ec7c	0.09859559
204	0xbd17d83c	-0.03707145
205	0xbe8fd48e	-0.28091854
206	0x3d7d8b28	0.061900288
207	0xbe4fac01	-0.20280458
208	0x3e047e31	0.12938763
209	0xbe577994	-0.21042472
210	0x3d86d27d	0.06583116
211	0xbcc1336d	-0.023584092
212	0xbe1425b2	-0.14467505
213	0xbd747a26	-0.059686802
214	0x3d64e889	0.055885825
215	0x3cadb8e7	0.021206332
216	0xbe402ff4	-0.18768293
217	0xbe275e91	-0.16344668
218	0xbdfa6b5c	-0.122275084
219	0xbdaeb464	-0.085305005
220	0xbe4e6ab6	-0.20157894
221	0x3e16ceea	0.14727369
222	0x3d231c2e	0.039821796
223	0x3dfc8e2f	0.12331807
224	0x3dda9638	0.10673183
225	0x3d8edac2	0.069753185
226	0xbd443103	-0.047898304
227	0xbe10e18e	-0.14148542
228	0xbe7fc262	-0.24976495
229	0x3d874cf6	0.06606476
230	0x3be2c306	0.0069202213
231	0x3e4fb19c	0.20282596
232	0xbd57e3b4	-0.05270739
233	0xbc78fe52	-0.015197353
234	0xbd01bdc4	-0.031675115
235	0x3dd1a1b9	0.10235924
236	0xbe2ee4b1	-0.17079426
237	0x3e426fc1	0.18987943
238	0x3d61df39	0.055144522
239	0xbcc0ca2a	-0.0235339
240	0x3b1f5b6d	0.0024315969
241	0xbe26c28f	-0.16285156
242	0xbd8e44d5	-0.069467224
243	0x3e3f0ca2	0.18657163
244	0x3db48a78	0.08815473
245	0x3d9c7aee	0.076406345
246	0xbe895ee8	-0.2683022
247	0x3e2e1871	0.17001511
248	0x3e3ffa74	0.18747884
249	0x3d1898f6	0.03725525
250	0xbea4de84	-0.32201016
251	0x3d0352df	0.032061454
252	0xbe244d8f	-0.16045211
253	0xbe70838a	-0.23487678
254	0x3d8e05bf	0.0693469
255	0xbe95a579	-0.29227808

net.8.bias f4 [6]
0	0x3bc0a736	0.005879308
1	0x3d86b740	0.06577921
2	0xbd497ace	-0.04918938
3	0x3d361491	0.044453207
4	0xbcb44243	-0.022004252
5	0xbe1a2fbc	-0.15057272
