src/experiments/run_20251004-100813/model.pth (torch, 231793 bytes, 8 tensors)

net.0.weight f4 [256, 60]
0.1902646 0.10266757 -0.057968147 0.11691515 -0.079835504 -0.102649905 0.28560638 -0.100748755
-0.0039671226 0.34054217 -0.05986757 -0.108860396 -0.033426557 0.02630686 0.08827672 -0.06580458
-0.14726888 0.06682218 0.083716415 -0.13839501 0.037364725 0.020960554 0.043651517 0.038078483
0.10348812 -0.10763381 -0.015811639 -0.09410471 -0.0703657 -0.11113355 -0.06678113 0.12676474
0.03469015 0.049079776 0.18428457 0.08443505 0.094328985 0.06306499 -0.0900461 0.09509925
0.0689738 0.02056842 0.024408141 0.09993106 0.026402174 -0.04238434 0.17652684 0.08748354
-0.055793848 -0.17618191 -0.0737413 -0.13983463 -0.0017571556 -0.08952502 -0.043662846 0.020175299
0.10465044 -0.067456074 -0.062104642 0.039002314 0.106052265 0.19744106 -0.03190001 0.010644975
0.17007133 0.057730787 -0.060830586 -0.032736115 -0.106902234 0.12212978 -0.10437987 -0.09728849
0.056724217 0.042688753 0.09346291 -0.06740121 -0.13940236 -0.021537988 -0.01302436 -0.15766656
0.13638917 0.029453468 0.056365818 -0.06290007 0.0570904 0.07214989 -0.10651256 -0.09940059
-0.047080535 -0.1520781 -0.057181288 0.05658817 -0.024350727 -0.015842138 0.056073528 0.1122989
0.07000941 -0.035053473 -0.07817198 -0.0028733702 0.05739943 -0.06607685 0.051343493 0.1682421
-0.04054402 0.06210689 0.22503379 0.073638596 0.05420688 -0.034941815 0.0849306 0.015767345
-0.0012064402 -0.1499815 -0.035760235 0.12900154 0.04837408 0.026013583 0.049597397 0.16418032
0.16284464 0.13590418 -0.16168445 -0.0007279243 0.104413964 -0.09956722 0.065723464 0.22809389
0.026693504 0.22812602 0.26486745 0.0938123 -0.08499164 0.046403147 0.027034448 -0.083035134
0.007518793 -0.10443247 -0.07918177 0.022363625 -0.019838639 -0.01396268 -0.08621699 -0.003838993
0.09118745 0.05088911 0.022986488 -0.09199644 -0.0943734 -0.05895422 0.04373678 -0.0134701505
-0.13895966 0.05757485 0.0726032 0.037268776 -0.049841516 -0.063042566 -0.03525142 0.103043005
-0.007121661 -0.07663441 0.08032418 0.05000046 -0.109892964 -0.1005015 0.02571404 -0.06411476
0.116703585 0.043472163 0.103944145 -0.024871897 -0.1439141 -0.00028036788 -0.08115235 0.003438877
0.007090379 0.043297492 0.16574934 0.082502075 0.055832338 0.19816394 -0.028311135 -0.040051907
0.13132755 -0.061974622 -0.092015184 0.089831844 -0.11319036 -0.018750772 -0.13851653 -0.1230855
-0.027812215 0.04989973 0.045313925 0.12914212 0.041992635 -0.10107296 -0.045313098 0.039995052
-0.08209995 0.06839616 0.013649317 -0.07317771 0.064583674 -0.13148052 -0.0051358156 0.09626395
0.0071081994 -0.05584521 -0.03123425 0.124549605 0.08280413 0.09947045 -0.010947986 -0.10168065
0.023030378 -0.00492542 -0.0052952887 -0.03437948 0.008463547 -0.09705572 -0.10816898 0.103699364
0.106289044 -0.050140377 0.09546853 0.020490905 -0.01564985 0.007459476 -0.105434895 0.024936829
-0.01679853 0.00078890315 -0.09143125 -0.026754798 0.14768091 0.121354826 0.1318232 0.05561344
0.007943371 0.14726992 0.11644084 0.07183497 0.06691455 -0.09597714 -0.09282336 0.06797254
0.05524995 -0.054827314 0.028443156 -0.008213503 0.028608931 -0.08931374 -0.08011383 -0.0065872017
00000000: b9d4 423e 6043 d23d 0270 6dbd 3671 ef3d
00000010: cc80 a3bd 1d3a d2bd 003b 923e 5d55 cebd
00000020: a3fe 81bb 8b5b ae3e b237 75bd 33f2 debd
00000030: 49ea 08bd 7c81 d73c 6dca b43d 8dc4 86bd
00000040: a7cd 16be 11da 883d 8373 ab3d 6cb7 0dbe
00000050: c10b 193d 78b5 ab3c efcb 323d 2ff8 1b3d
00000060: 94f1 d33d 1d6f dcbd 6987 81bc f8b9 c0bd
00000070: e41b 90bd fd99 e3bd 8cc4 88bd 9ece 013e
00000080: 4217 0e3d e007 493d 18b5 3c3e 49ec ac3d
00000090: 8e2f c13d 3828 813d 176a b8bd 65c3 c23d
000000a0: 2342 8d3d 1a7f a83c 95f3 c73c a8a8 cc3d
000000b0: 5f49 d83c 349b 2dbd 74c3 343e 922a b33d
000000c0: 1788 64bd 0869 34be ae05 97bd cf30 0fbe
000000d0: 5c50 e6ba e558 b7bd d0d7 32bd ab46 a53c
000000e0: f852 d63d 6926 8abd 7061 7ebd e4c0 1f3d
000000f0: ee31 d93d fd2d 4a3e 96a9 02bd 4368 2e3c
00000100: 2e27 2e3e 1e77 6c3d 7e29 79bd 4e16 06bd
00000110: 8fef dabd 2e1f fa3d 1dc5 d5bd 303f c7bd
00000120: a757 683d 67da 2e3d 7b69 bf3d a509 8abd
00000130: 7ebf 0ebe 6f70 b0bc 2064 55bc 5873 21be
00000140: 9aa9 0b3e 6648 f13c d8df 663d c0d1 80bd
00000150: a0d7 693d 52c3 933d 4223 dabd 8992 cbbd
00000160: 85d7 40bd 5dba 1bbe ed36 6abd ffc8 673d
00000170: 2d7b c7bc 5fc7 81bc 5bad 653d f7fc e53d
00000180: 1861 8f3d 3b94 0fbd a218 a0bd 274f 3cbb
00000190: aa1b 6b3d 4d53 87bd 8e4d 523d a847 2c3e
000001a0: 7c11 26bd cb63 7e3d 426f 663e d5cf 963d
000001b0: 0908 5e3d 261f 0fbd 18f0 ad3d 852a 813c
000001c0: 6a21 9eba c094 19be 5379 12bd fb18 043e
000001d0: e623 463d 701a d53c a426 4b3d e31e 283e
000001e0: bfc0 263e 772a 0b3e 9c90 25be 2cd2 3eba
000001f0: fdd6 d53d e6e9 cbbd 069a 863d 7291 693e
00000200: 56ac da3c de99 693e b59c 873e aa20 c03d
00000210: 1910 aebd 3a11 3e3d 5977 dd3c 530e aabd
00000220: 3560 f63b b1e0 d5bd 0d2a a2bd ec33 b73c
00000230: a484 a2bc b9c3 64bc 8992 b0bd 9d97 7bbb
00000240: 7cc0 ba3d 1971 503d 294e bc3c a168 bcbd
00000250: d746 c1bd fb79 71bd 5625 333d e8b1 5cbc
00000260: 714b 0ebe 9bd3 6b3d fdb0 943d 25a7 183d
00000270: 9e26 4cbd 761c 81bd cb63 10bd 3608 d33d
00000280: d35c e9bb 80f2 9cbd 0181 a43d 48cd 4c3d
00000290: 900f e1bd bbd3 cdbd 40a6 d23c 994e 83bd
000002a0: 4a02 ef3d de0f 323d abe0 d43d 26c0 cbbc
000002b0: 385e 13be 57fe 92b9 3433 a6bd c85e 613b
000002c0: 6956 e83b b658 313d 32ba 293e d9f6 a83d
000002d0: 73b0 643d 7deb 4a3e c1ec e7bc 780d 24bd
000002e0: bb7a 063e 1ad9 7dbd 7572 bcbd c2f9 b73d
000002f0: 59d0 e7bd 389b 99bc 47d7 0dbe 4014 fcbd
00000300: 71d6 e3bc a963 4c3d 189b 393d d53d 043e
00000310: 7800 2c3d 57ff cebd 3a9a 39bd dad1 233d
00000320: 0524 a8bd 4913 8c3d 63a1 5f3c 32de 95bd
00000330: 7244 843d d4a2 06be 584a a8bb 0926 c53d
00000340: e6eb e83b f2bd 64bd f8de ffbc dd13 ff3d
00000350: 3695 a93d 2ab7 cb3d 2e5f 33bc f23d d0bd
00000360: 34aa bc3c 6b65 a1bb 1a84 adbb 7fd1 0cbd
00000370: b0aa 0a3c 26c5 c6bd b387 ddbd 5560 d43d
00000380: 12ae d93d ff5f 4dbd 0185 c33d 8bdc a73c
00000390: 1d34 80bc 9f6e f43b 40ee d7bd 5248 cc3c
000003a0: 129d 89bc 65ce 4e3a 4f40 bbbd e12c dbbc
000003b0: aa39 173e e188 f83d a9fc 063e ebca 633d
000003c0: ea24 023c edcd 163e 8978 ee3d 361e 933d
000003d0: 7f0a 893d aa8f c4bd 2c1a bebd 3035 8b3d
000003e0: c64d 623d 9b92 60bd 9f01 e93c ee91 06bc
000003f0: 475d ea3c 1fea b6bd b812 a4bd 74d9 d7bb

net.0.bias f4 [256]
0.06011147 -0.07200672 -0.088765755 -0.044336807 -0.020574424 -0.03032865 -0.0033789198 -0.13278952
-0.021699602 -0.063491285 0.01726541 -0.049288794 -0.0247419 -0.124956734 0.1769621 -0.05696549
-0.024604436 -0.08319626 0.09843968 -0.049948607 0.119127564 0.020816213 0.19108231 -0.029195976
0.06498062 0.03245983 0.06132783 0.062737204 0.10194644 -0.17086889 -0.16764073 -0.13250995
0.04923928 0.14777537 -0.09083152 0.005582645 0.21551716 -0.10465261 -0.12983079 -0.034096852
-0.019620966 -0.08735728 -0.039369017 -0.03535772 0.016425386 0.06563428 -0.016412685 -0.015947841
0.14767274 0.11873842 0.1493781 -0.11129562 0.015333721 0.0026494772 0.036525052 -0.07982654
0.0052167345 0.021455513 0.049688015 0.16047086 0.09161722 -0.011529273 0.03422236 0.14609884
-0.03920611 0.024869265 -0.11014637 0.061174255 0.0021759146 -0.08450181 -0.06537794 0.08431866
0.027327478 0.038263742 0.104375795 0.08462677 -0.0064961524 0.030184356 -0.13262627 -0.08265182
0.04290134 0.05029601 -0.026440037 -0.030351205 -0.07535887 0.0018224827 0.13762167 -0.09919689
0.0990564 0.08355452 0.13154024 0.11016422 0.1178801 -0.0544628 0.012613169 -0.033585876
0.12264354 0.064207606 -0.04630599 0.03607497 -0.10588185 0.058622602 -0.111222945 0.03193892
0.06578209 0.17668003 0.07329773 0.21648294 -0.081753165 -0.03952059 -0.008140554 -0.0054223724
-0.010861447 -0.030447545 -0.030869763 -0.09246328 -0.06708308 -0.018677983 -0.019145448 -0.002456615
0.013329051 -0.09362389 -0.07771729 0.07436359 -0.03666322 -0.075288154 -0.01120788 0.028412316
0.08079503 0.102087945 0.1538518 -0.024896143 0.114773236 0.09838103 0.048268545 0.060617954
0.012886416 0.060639665 -0.01096887 -0.02332226 0.11133752 -0.13028759 0.1462148 0.028874055
-0.054299314 0.06761468 0.11195463 -0.120091066 0.006980192 -0.08427268 -0.0677909 -0.06392297
0.0035904127 0.10523028 0.032360915 0.115952365 -0.015851784 -0.011506654 0.052763514 -0.13626851
0.0075987135 0.11848307 0.1740626 -0.014496389 0.054393627 0.0346421 0.15937723 0.066470325
-0.09007678 0.098370194 -0.108859435 -0.036733966 0.043916535 -0.08096464 -0.10506762 0.087533176
0.06131812 -0.006716722 0.1432506 0.15314157 -0.009025358 0.10068799 -0.050465263 0.008994562
-0.08650686 0.1348428 0.05452038 0.17818604 -0.038588956 -0.052289516 -0.034501586 0.10014518
0.029007304 -0.13508795 0.062080476 0.025231777 0.16097775 0.090348445 0.1298702 0.010001872
-0.078736536 0.06723084 0.15126823 -0.09306666 0.13300405 -0.012831221 -0.0631082 -0.10648886
0.039882425 0.10133448 -0.035119876 0.0025480157 -0.04612797 0.17642297 -0.06907762 0.14593649
0.09433674 0.089100495 0.09218745 0.10949169 0.05207884 0.16789241 -0.005027099 0.08413642
0.08022236 -0.10891639 0.06925999 -0.028027145 -0.02548675 -0.06994079 0.099004395 -0.13300961
0.061999705 -0.039222095 -0.11424047 -0.062090784 -0.002416558 0.10413798 -0.07510737 0.08583513
0.13990548 -0.01099893 0.040548347 0.13818206 0.18208185 -0.110884994 0.14100836 -0.0766682
0.0022814705 0.07856561 0.06919014 -0.007918659 -0.044909846 -0.01240042 -0.0010253661 0.116864614
00000000: 7237 763d 4278 93bd d2ca b5bd 839a 35bd
00000010: b28b a8bc ca73 f8bc de70 5dbb faf9 07be
00000020: 5dc3 b1bc b807 82bd 3070 8d3c 0ce3 49bd
00000030: 86af cabc 51e9 ffbd 8e35 353e a554 69bd
00000040: 3e8f c9bc cd62 aabd be9a c93d e996 4cbd
00000050: 27f9 f33d c386 aa3c 15ab 433e 662c efbc
00000060: 8f14 853d 99f4 043d e432 7b3d 5d7c 803d
00000070: 4cc9 d03d 41f8 2ebe 03aa 2bbe b0b0 07be
00000080: 21af 493d 6d52 173e e005 babd 9fee b63b
00000090: 88b0 5c3e 1c54 d6bd 5df2 04be 24a9 0bbd
000000a0: 26bc a0bc 60e8 b2bd 6841 21bd 42d3 10bd
000000b0: 888e 863c 446b 863d e573 86bc 0ca5 82bc
000000c0: 8637 173e 212d f33d 93f6 183e f5ee e3bd
000000d0: 4a3a 7b3c daa2 2d3b 4b9b 153d 197c a3bd
000000e0: 24f1 aa3b 79c3 af3c a985 4b3d 7952 243e
000000f0: cfa1 bb3d 47e5 3cbc bf2c 0c3d ef9a 153e
00000100: 9696 20bd a1ba cb3c 6c94 e1bd db91 7a3d
00000110: ca99 0e3b 490f adbd dfe4 85bd 43af ac3d
00000120: e0dd df3c 71ba 1c3d fac2 d53d cd50 ad3d
00000130: addd d4bb 2f45 f73c 2ecf 07be 5b45 a9bd
00000140: 51b9 2f3d 3003 4e3d c798 d8bc 17a3 f8bc
00000150: c055 9abd 5fe0 ee3a b2ec 0c3e bd27 cbbd
00000160: 15de ca3d a21e ab3d 7cb2 063e c79d e13d
00000170: 1f6b f13d 6314 5fbd 77a7 4e3c 5891 09bd
00000180: 892c fb3d 477f 833d 5aab 3dbd 59c3 133d
00000190: 95d8 d8bd 411e 703d dbc8 e3bd 63d2 023d
000001a0: c3b8 863d 9ceb 343e 1f1d 963d b4ad 5d3e
000001b0: 346e a7bd 58e0 21bd f55f 05bc 28ae b1bb
000001c0: 36f4 31bc 216d f9bc 96e2 fcbc 635d bdbd
000001d0: db62 89bd 9202 99bc ead6 9cbc 29ff 20bb
000001e0: 1862 5a3c e2bd bfbd 3e2a 9fbd f04b 983d
000001f0: 2c2c 16bd ad30 9abd 42a1 37bc f2c0 e83c
00000200: dd77 a53d 7c13 d13d 548b 1d3e fff2 cbbc
00000210: 3b0e eb3d fe7b c93d 3db5 453d 884a 783d
00000220: 8c21 533c 4c61 783d c6b6 33bc 530e bfbc
00000230: ed04 e43d 1c6a 05be 55b9 153e 4889 ec3c
00000240: f568 5ebd 9179 8a3d 7848 e53d 4ef2 f5bd
00000250: 18ba e43b 2897 acbd f5d5 8abd 0cea 82bd
00000260: 214d 6b3b f982 d73d e18c 043d 6f78 ed3d
00000270: 9adb 81bc 6886 3cbc 8e1e 583d f989 0bbe
00000280: a1fe f83b 40a7 f23d 773d 323e 4382 6dbc
00000290: dacb 5e3d e0e4 0d3d c933 233e 9821 883d
000002a0: 2d7a b8bd 5076 c93d b2f1 debd 5b76 16bd
000002b0: d3e1 333d cad0 a5bd b12d d7bd 9844 b33d
000002c0: b628 7b3d f317 dcbb 49b0 123e 25d1 1c3e
000002d0: 18df 13bc 8135 ce3d aab4 4ebd ed5d 133c
000002e0: 822a b1bd 3b14 0a3e c350 5f3d 6776 363e
000002f0: 740f 1ebd 882d 56bd 8951 0dbd eb18 cd3d
00000300: baa0 ed3c 7f54 0abe 1948 7e3d dfb2 ce3c
00000310: 5ad7 243e 9b08 b93d b2fc 043e e4de 233c
00000320: 9f40 a1bd 53b0 893d 0fe6 1a3e bc99 bebd
00000330: 3732 083e 0b3a 52bc df3e 81bd d516 dabd
00000340: c15b 233d 7488 cf3d dcd9 0fbd 9cfc 263b
00000350: aff0 3cbd 39a8 343e 9178 8dbd 6070 153e
00000360: 9f33 c13d 527a b63d c6cc bc3d 2e3d e03d
00000370: 9f50 553d fdeb 2b3e 5dba a4bb b74f ac3d
00000380: 9f4b a43d 8e0f dfbd 2ed8 8d3d 2f99 e5bc
00000390: 97c9 d0bc 1e3d 8fbd d1c2 ca3d ac33 08be
000003a0: 67f3 7d3d 59a7 20bd e8f6 e9bd e852 7ebd
000003b0: 1e5f 1ebb 4b46 d53d e5d1 99bd 54ca af3d
000003c0: 6243 0f3e db34 34bc 0616 263d 997f 0d3e
000003d0: aa73 3a3e ac17 e3bd 7f64 103e 3804 9dbd
000003e0: b984 153b 02e7 a03d 8fb3 8d3d 43bd 01bc
000003f0: 63f3 37bd 222b 4bbc 9465 86ba b756 ef3d

net.3.weight f4 [128, 256]
0.15611131 0.019812277 -0.04831183 0.038269054 0.092602514 -0.00024821522 -0.018579392 0.009528702
0.0009295733 -0.035330445 -0.0027387175 -0.0039743437 -0.050433893 0.09691701 -0.02159312 0.12192979
0.056299217 0.068028726 -0.026719837 -0.119009644 0.019748585 0.06825796 0.072011255 0.033645276
0.049137954 -0.06260015 0.111780494 -0.067213506 -0.010430176 -0.026544305 0.07451374 -0.014652362
0.15616971 -0.04049303 -0.021732248 0.0037520695 -0.034077 0.020523315 0.07985262 0.026718123
-0.045403354 0.06412524 -0.02197516 -0.037188146 -0.042412024 0.08395863 0.0804781 0.044897575
0.09634033 -0.032961532 0.12320826 0.045834612 0.04840291 -0.015471544 0.06885773 -0.0035797332
0.114199236 -0.00044859704 0.00021133563 0.09090842 0.033261843 0.11285268 0.09122774 0.016225573
-0.002454734 -0.03843024 -0.009341572 0.041228127 0.07695894 0.032628905 -0.09862513 0.093550496
-0.05879709 0.0020787946 0.1163168 0.041437805 0.008023212 0.09532381 -0.00410762 -0.0039120233
0.08810774 -0.085438885 -0.066695884 0.032753836 -0.027987333 -0.025887856 0.10572904 0.03550891
0.045989487 0.014104807 0.07020908 0.13050951 -0.010863906 0.0023528892 0.015286586 0.09498965
0.027757028 -0.032951158 0.087715015 0.06370892 0.102874614 -0.031167787 -0.08457929 0.05913309
0.133536 0.05753661 -0.007906513 0.06970437 -0.032985058 0.059946813 0.07133801 0.035806917
-0.052918907 0.058500037 -0.021282874 0.022389399 0.056844037 -0.036179263 -0.0022639167 0.075927004
0.032504078 -0.0047619524 -0.036949802 -0.035717227 -0.01627652 -0.035639673 -0.084051736 0.07214465
0.116413064 0.03424403 -0.11231793 -0.020019757 0.071090035 -0.02058249 -0.029233232 0.062296186
0.0322862 -0.07531978 0.045348413 0.0056372266 -0.04560292 0.051966693 0.03128765 0.041672956
0.09724882 0.057932068 0.117113 0.119558804 0.013832442 0.046214342 0.042483304 -0.052788418
0.017872399 -0.092416264 -0.05594668 -0.004263976 -0.018528624 -0.0007949698 -0.0036482713 -0.049174003
-0.020195791 -0.039706536 0.055437613 -0.03679526 0.046450187 0.005815753 0.09112489 -0.027508738
-0.043398034 0.0790825 0.11898115 0.012602116 0.02987063 -0.019653132 0.0029705695 0.13341764
0.063933305 0.06812712 0.025932176 -0.04228174 0.06597755 -0.0100569045 0.07953607 -0.025455786
0.12466053 0.045927558 0.13466066 0.05687748 0.03748705 -0.061867796 -0.033564534 0.04095603
-0.026028847 0.0100551145 0.014086042 0.008339151 0.06184248 -0.048734006 0.06286137 0.09287347
-0.027469719 0.027685486 0.11591845 -0.03449335 0.059719294 -0.005297199 -0.029276662 -0.02977773
0.07236283 -0.0589568 -0.028847411 -0.0066953334 0.058698136 -0.014266366 -0.03686538 -0.016445393
-0.038095087 0.09695012 0.043454673 -0.030937605 -0.008131357 0.058502387 -0.035188053 0.08046691
-0.06421486 -0.050618295 -0.019902332 0.042407226 -0.011270433 0.024865638 0.014623246 0.07091091
-0.042626724 0.11032975 0.03207348 -0.07556259 0.044590905 -0.05216202 -0.06552847 -0.07811862
-0.05870151 0.04109979 -0.013528556 0.025060158 0.029948587 -0.0069205742 0.0347336 0.022762025
0.027332494 0.005469906 -0.004894633 0.09138258 0.033344757 0.045558233 -0.031554196 -0.08455211
00000000: a5db 1f3e 5b4d a23c a0e2 45bd 03c0 1c3d
00000010: 63a6 bd3d e222 82b9 cf33 98bc 461e 1c3c
00000020: 9cae 733a a8b6 10bd 0e7c 33bb 363b 82bb
00000030: c593 4ebd 6d7c c63d 0ee4 b0bc 53b6 f93d
00000040: 029a 663d a552 8b3d 8fe3 dabc 54bb f3bd
00000050: c9c7 a13c d4ca 8b3d a37a 933d a1cf 093d
00000060: e144 493d 8234 80bd 2ced e43d 3ca7 89bd
00000070: 54e3 2abc 7173 d9bc a99a 983d 7610 70bc
00000080: f4ea 1f3e 05dc 25bd d407 b2bc 48e5 753b
00000090: 5394 0bbd 8320 a83c c589 a33d f7df da3c
000000a0: def8 39bd 1854 833d 4005 b4bc 9952 18bd
000000b0: 3bb8 2dbd 81f2 ab3d b4d1 a43d 85e6 373d
000000c0: 144e c53d ac02 07bd 9d54 fc3d 13bd 3b3d
000000d0: 2142 463d 5c7c 7dbc 4805 8d3d f599 6abb
000000e0: 4ae1 e93d ad31 ebb9 fa99 5d39 322e ba3d
000000f0: 923d 083d 4e1f e73d 9cd5 ba3d 7eeb 843c
00000100: 9adf 20bb 0769 1dbd 650d 19bc d3de 283d
00000110: a69c 9d3d e3a5 053d f9fb c9bd 6797 bf3d
00000120: 38d5 70bd 633c 083b 8137 ee3d b0ba 293d
00000130: ca73 033c 2139 c33d 3799 86bb 6e30 80bb
00000140: d571 b43d 95fa aebd da97 88bd e328 063d
00000150: b145 e5bc c512 d4bc 7888 d83d ca71 113d
00000160: 795f 3c3d d917 673c c7c9 8f3d 49a4 053e
00000170: 86fe 31bc ee32 1a3b 9774 7a3c ef89 c23d
00000180: b562 e33c cbf7 06bd eea3 b33d d279 823d
00000190: edaf d23d 9653 ffbc e837 adbd 8a35 723d
000001a0: a9bd 083e 82ab 6b3d 528a 01bc 2ac1 8e3d
000001b0: 571b 07bd ca8a 753d aa19 923d 46aa 123d
000001c0: 7fc1 58bd bc9d 6f3d 6c59 aebc f969 b73c
000001d0: 4bd5 683d b530 14bd 385e 14bb 9e7f 9b3d
000001e0: ff22 053d 270a 9cbb ad58 17bd 3a4c 12bd
000001f0: 5656 85bc e8fa 11bd 5123 acbd 93c0 933d
00000200: f969 ee3d 7843 0c3d f106 e6bd 7900 a4bc
00000210: a797 913d 9c9c a8bc 887a efbc 492a 7f3d
00000220: 893e 043d 4241 9abd 42bf 393d 7cb8 b83b
00000230: 21ca 3abd 07db 543d 7b27 003d 43b1 2a3d
00000240: 642a c73d 2d4a 6d3d f1d8 ef3d 3fdb f43d
00000250: 78a1 623c 404b 3d3d f902 2e3d ab38 58bd
00000260: 2369 923c bd44 bdbd 5928 65bd d3b8 8bbb
00000270: 57c9 97bc 8565 50ba d617 6fbb ae6a 49bd
00000280: a571 a5bc 52a3 22bd 8d12 633d a0b6 16bd
00000290: 8d42 3e3d 1292 be3b b09f ba3d 015a e1bc
000002a0: 23c2 31bd 01f6 a13d 64ac f33d 1b79 4e3c
000002b0: 40b3 f43c 9bff a0bc e3ad 423b a29e 083e
000002c0: 77ef 823d 3b86 8b3d b76f d43c 9e2f 2dbd
000002d0: 3d1f 873d b7c5 24bc cfe3 a23d a788 d0bc
000002e0: 054e ff3d 891e 3c3d 7ce4 093e 5cf8 683d
000002f0: 058c 193d 1669 7dbd f77a 09bd 83c1 273d
00000300: 733a d5bc 35be 243c 24c9 663c efa0 083c
00000310: 8a4e 7d3d 4f9d 47bd 76bd 803d 7234 be3d
00000320: 2d08 e1bc accc e23c a766 ed3d e648 0dbd
00000330: 389c 743d 2094 adbb 9cd5 efbc 6df0 f3bc
00000340: f732 943d af7c 71bd 6851 ecbc 8764 dbbb
00000350: 756d 703d 7abd 69bc 2700 17bd 7db8 86bc
00000360: 9809 1cbd c98d c63d 87fd 313d dc70 fdbc
00000370: 6239 05bc 33a0 6f3d 5921 10bd d6cb a43d
00000380: 1583 83bd 2155 4fbd 370a a3bc 33b3 2d3d
00000390: 9fa7 38bc 06b3 cb3c 5796 6f3c bd39 913d
000003a0: 5c99 2ebd 90f4 e13d 7b5f 033d 8fc0 9abd
000003b0: f4a4 363d d8a7 55bd ca33 86bd a8fc 9fbd
000003c0: ff70 70bd 4158 283d e0a6 5dbc f64a cd3c
000003d0: bd56 f53c fcc5 e2bb d244 0e3d 6d77 ba3c
000003e0: 65e8 df3c e63c b33b 2863 a0bb ca26 bb3d
000003f0: 8394 083d 459b 3a3d f93e 01bd a829 adbd

net.3.bias f4 [128]
0.059145126 0.0053329165 0.033461116 -0.050833143 0.049468137 0.035644263 -0.014256718 0.07714904
0.08964584 -0.01235774 0.0893618 -0.035687868 0.115460366 0.044080827 -0.068375535 0.04569647
0.0053147813 0.007772567 0.043415476 0.036833037 0.047208067 -0.011632152 0.06527534 0.062173303
0.0470945 -0.005956414 0.019043464 0.07670785 0.00279584 -0.0039317315 0.07422589 0.06239055
0.042861428 -0.039030477 0.04328618 0.02700188 -0.035446353 -0.010269694 -0.015137561 0.038870975
0.017171718 -0.053056825 -0.0038965167 0.054719303 0.061306477 0.07714661 0.011092247 -0.04993387
0.015368573 0.05062638 0.049349956 -0.030307604 0.03691099 0.06063712 0.014348939 0.006883358
0.040206052 0.022862406 0.057669852 0.05150096 0.011109384 -0.00999301 0.044817403 -0.01902846
0.014744763 -0.0060194735 0.03848434 0.016629444 0.042748366 0.008388907 -0.00047093676 0.050132286
0.08479078 0.027806653 0.087529816 -0.02147702 -0.019867605 0.037728608 -0.04436974 0.041909393
0.017483119 0.066990435 0.046531063 0.010191177 0.072692096 -0.02012651 0.06398039 0.0049483245
0.01632357 -0.010362618 0.02412292 0.09779226 -0.010986443 0.006255453 -0.018462269 0.099464536
0.010744424 0.04136086 -0.002882457 0.008550355 0.0048777466 0.05235752 -0.03844548 -0.026248867
0.11805697 0.04008489 -0.050622277 -0.047351744 -0.021436516 0.018683823 0.026258122 -0.0068616783
0.05398888 -0.0054243384 0.0019637307 0.09207966 -0.033003103 0.02819505 0.0096156625 -0.03392285
0.008948016 0.022544442 0.040333264 0.055383585 -0.06341215 -0.0076543987 0.0035951969 0.010521438
00000000: 2942 723d bfbf ae3b 860e 093d 6a36 50bd
00000010: 1a9f 4a3d b8ff 113d 0295 69bc 5100 9e3d
00000020: 3d98 b73d 1e78 4abc 5203 b73d 712d 12bd
00000030: 7c76 ec3d 198e 343d 7908 8cbd 392c 3b3d
00000040: 9e27 ae3b 05b1 fe3b 6dd4 313d 3dde 163d
00000050: 3f5d 413d c894 3ebc 14af 853d 6fa9 7e3d
00000060: 2ae6 403d 062e c3bb 0a01 9c3c 0119 9d3d
00000070: 693a 373b c1d5 80bb be03 983d 3c8d 7f3d
00000080: 778f 2f3d 6cde 1fbd d94c 313d 0c33 dd3c
00000090: 3230 11bd 3842 28bc 8803 78bc 2c37 1f3d
000000a0: b4ab 8c3c 1d52 59bd b45c 7fbb 5921 603d
000000b0: 801c 7b3d 0bff 9d3d 42bc 353c 7587 4cbd
000000c0: 78cc 7b3c 9b5d 4f3d 2e23 4a3d a747 f8bc
000000d0: fa2f 173d a15e 783d d017 6b3c cb8d e13b
000000e0: 1aaf 243d f149 bb3c 3937 6c3d acf2 523d
000000f0: 2204 363c b9b9 23bc 7492 373d 93e1 9bbc
00000100: 0594 713c 013f c5bb c1a1 1d3d 793a 883c
00000110: e918 2f3d a071 093c 10e8 f6b9 8357 4d3d
00000120: caa6 ad3d c7ca e33c d542 b33d 93f0 afbc
00000130: 63c1 a2bc 5089 1a3d 0bbd 35bd 2fa9 2b3d
00000140: c238 8f3c 4832 893d 5b97 3e3d e5f8 263c
00000150: 98df 943d 5ae0 a4bc 2708 833d 8e25 a23b
00000160: 02b9 853c f8c7 29bc 6e9d c53c 4f47 c83d
00000170: 7b00 34bc 8bfa cc3b 2f3e 97bc 10b4 cb3d
00000180: 6109 303c 016a 293d 9be7 3cbb ca16 0c3c
00000190: 81d5 9f3b d774 563d 0279 1dbd dd07 d7bc
000001a0: dac7 f13d 0e30 243d 4e59 4fbd e7f3 41bd
000001b0: a29b afbc d10e 993c 461b d73c eed7 e0bb
000001c0: 7223 5d3d a6be b1bb efb1 003b 4394 bc3d
000001d0: 432e 07bd 4ef9 e63c 038b 1d3c b0f2 0abd
000001e0: b39a 123c 1faf b83c 7e34 253d e6d9 623d
000001f0: 3bde 81bd c0d1 fabb 659d 6b3b 1c62 2c3c

net.6.weight f4 [64, 128]
0.082574815 -0.011054106 -0.12467796 -0.042584717 -0.07196282 -0.026395997 -0.10356265 0.05748178
-0.028564567 0.006026885 0.06570654 0.023929387 0.10858291 0.05322932 -0.0024709564 0.11462583
-0.021797854 0.036214028 0.05580632 -0.02011384 0.063052185 -0.014547411 0.03699505 -0.051101953
-0.13089544 0.037523 -0.08547583 -0.010586436 -0.020330112 -0.087666705 0.057398126 -0.031280875
0.044147953 0.007012394 0.0012244715 -0.06993862 0.031672053 -0.13001747 -0.0007552541 -0.116456196
0.044614848 -0.060756866 -0.020777106 0.045815762 0.0019135115 0.042979896 -0.05616834 -0.06558821
-0.08403465 0.029579172 0.04915634 0.04475635 -0.12262499 0.0076420438 -0.020034792 -0.13832502
-0.18549438 0.006940683 -0.005460941 0.05000785 -0.11634648 -0.08132993 -0.14738615 -0.064067446
0.1379781 0.089516096 0.008315348 -0.13267262 0.043472983 0.11804213 -0.058399577 0.072298124
0.12816045 0.018047787 0.09851966 -0.077230655 -0.04939216 -0.06360799 0.06389328 0.06737295
-0.12860334 0.031760234 -0.080752455 0.03151866 -0.05506588 -0.06390732 -0.06274131 -0.049332686
-0.024218444 0.043628387 -0.04331397 -0.04137253 -0.15078874 -0.0137809655 0.026215607 -0.028014794
-0.10997025 0.0722702 -0.09383109 0.018547015 -0.09424163 0.0658188 -0.039705675 -0.03305623
0.06275066 0.061256994 0.11253443 -0.062197737 -0.14130516 8.769639e-05 0.020472305 -0.037151895
-0.023514116 -0.066749305 0.03159557 0.061132908 0.021823298 0.031426843 -0.012154556 -0.053050652
-0.03701638 0.06280451 -0.033048857 0.06026933 0.05892739 0.009253088 -0.08370421 -0.004691552
0.064115524 0.00096840714 0.10128903 -0.057229407 0.064785175 -0.10582893 0.08131184 -0.01912949
-0.039158955 0.11394032 0.015455228 0.09102541 -0.0011756731 0.0073414487 0.10819403 -0.005421741
0.0664875 0.094379485 0.11878554 -0.13869397 0.013159095 -0.07231047 0.08323425 0.033057407
-0.060251314 0.049738776 -0.14849964 -0.018933617 0.11640974 -0.18966454 -0.001147075 -0.03763272
-0.12933125 0.07520889 0.0170907 0.097230226 -0.011515737 0.055403244 0.002300723 -0.035206337
0.069322325 0.07639281 -0.018906621 0.11798823 0.034998327 0.08751639 -0.050430913 0.049579866
-0.021462437 0.04302005 0.04741719 0.10886483 -0.107951336 -0.058490932 -0.06725016 0.09077106
-0.014980703 -0.013602411 0.076517664 -0.027941603 0.061006088 0.07163522 -0.051591456 -0.06686467
0.038874283 0.03914041 0.10992176 0.03537775 -0.1261886 0.07065386 0.14911371 -0.075752765
-0.0071515995 -0.118202254 0.07989992 0.11112959 -0.010809773 -0.037081037 0.0043513793 0.07135563
0.006646623 0.0039734826 0.10501505 0.09118232 -0.016081112 0.008094755 -0.072871506 -0.0064644073
-0.011832773 0.053160056 -0.03340391 0.059228234 -0.054650214 -0.037814777 0.015224278 0.077363506
0.07648516 -0.033699624 0.033636037 -0.02120318 0.1137517 0.09703046 0.06604756 0.11333815
0.050503906 -0.026822928 0.09765604 0.10595564 -0.029986877 0.079946645 0.08514634 0.056341946
-0.08986027 -0.06383826 0.11288548 -0.13167238 0.14325874 -0.10114868 -0.058250815 0.12393335
-0.050177567 0.104681514 -0.03878792 0.027969168 0.062303357 0.019012757 0.0038849404 0.021706033
00000000: fc1c a93d 481c 35bc 2957 ffbd 506d 2ebd
00000010: 3e61 93bd 6b3c d8bc a818 d4bd 0472 6b3d
00000020: 3d00 eabc 2d7d c53b 2791 863d 9007 c43c
00000030: b760 de3d fd06 5a3d c5ef 21bb f2c0 ea3d
00000040: 6a91 b2bc 2955 143d 2b95 643d c8c5 a4bc
00000050: 8121 813d 4458 6ebc 1f88 173d 4850 51bd
00000060: 7409 06be b8b1 193d f40d afbd bb72 2dbc
00000070: 568b a6bc 9a8a b3bd 4c1a 6b3d 6020 00bd
00000080: 7cd4 343d 39c8 e53b 727e a03a fb3b 8fbd
00000090: 8eba 013d 4d23 05be 3ffc 45ba 9680 eebd
000000a0: 0fbe 363d 31dc 78bd c034 aabc 4fa9 3b3d
000000b0: cbce fa3a b00b 303d c610 66bd 1d53 86bd
000000c0: 5c1a acbd 0550 f23c 2958 493d 6f52 373d
000000d0: d022 fbbd 1c6a fa3b 0120 a4bc 13a5 0dbe
000000e0: 3df2 3dbe ab6e e33b b2f1 b2bb 08d5 4c3d
000000f0: 1047 eebd 4e90 a6bd 65ec 16be cb35 83bd
00000100: 224a 0d3e 3754 b73d 193d 083c 55db 07be
00000110: ba10 323d 12c0 f13d 6534 6fbd 0a11 943d
00000120: 7e3c 033e f4d8 933c adc4 c93d 1b2b 9ebd
00000130: 6f4f 4abd e844 82bd 7bda 823d d4fa 893d
00000140: 98b0 03be 0517 023d 8b61 a5bd b619 013d
00000150: c38c 61bd d7e1 82bd 847e 80bd 1211 4abd
00000160: c265 c6bc aeb3 323d fd69 31bd 3e76 29bd
00000170: 5d68 1abe 8fc9 61bc 1dc2 d63c 487f e5bc
00000180: 1538 e1bd 6602 943d 842a c0bd e9ef 973c
00000190: c101 c1bd 02cc 863d 6ba2 22bd f865 07bd
000001a0: 6b83 803d 9de8 7a3d 7478 e63d 0ec3 7ebd
000001b0: 4db2 10be a4e9 b738 89b5 a73c 962c 18bd
000001c0: ada0 c0bc dcb3 88bd 5b6a 013d 8066 7a3d
000001d0: c6c6 b23c 6fb9 003d e723 47bc a44b 59bd
000001e0: 7d9e 17bd a79f 803d 3d5e 07bd f9dc 763d
000001f0: d95d 713d 449a 173c 1d6d abbd 97bb 99bb
00000200: 004f 833d b4dc 7d3a 9f70 cf3d 6269 6abd
00000210: 17ae 843d d7bc d8bd d286 a63d 73b5 9cbc
00000220: 2465 20bd 8b59 e93d ed37 7d3c 886b ba3d
00000230: 0b19 9aba 8990 f03b d594 dd3d dca8 b1bb
00000240: 992a 883d 084a c13d d545 f33d cb05 0ebe
00000250: 3f99 573c 8317 94bd b876 aa3d 3467 073d
00000260: 15ca 76bd e3ba 4b3d 4a10 18be ac1a 9bbc
00000270: 3b68 ee3d 6c37 42be 7359 96ba c424 1abd
00000280: 696f 04be 1e07 9a3d cc01 8c3c a420 c73d
00000290: 80ac 3cbc 83ee 623d bac7 163b 8534 10bd
000002a0: ddf8 8d3d d573 9c3d 0fe2 9abc d0a3 f13d
000002b0: 685a 0f3d cb3b b33d a590 4ebd 4214 4b3d
000002c0: fed1 afbc cb35 303d 8738 423d 86f4 de3d
000002d0: 9715 ddbd 3094 6fbd 74ba 89bd 2de6 b93d
000002e0: 9f71 75bc a6dc 5ebc 4bb5 9c3d cae5 e4bc
000002f0: 85e1 793d 7cb5 923d 9051 53bd 58f0 88bd
00000300: a43a 1f3d b251 203d a91e e13d 42e8 103d
00000310: 9637 01be f9b2 903d 44b1 183e 4424 9bbd
00000320: f757 eabb 0614 f2bd 92a2 a33d e997 e33d
00000330: 791b 31bc 49e2 17bd 0496 8e3b e722 923d
00000340: eacb d93b fd33 823b 2112 d73d ccbd ba3d
00000350: 89bc 83bc dd9f 043c a83d 95bd 61d3 d3bb
00000360: 3fde 41bc 5cbe 593d 8ad2 08bd 4e99 723d
00000370: e7d8 5fbd abe3 1abd 406f 793c c270 9e3d
00000380: 40a4 9c3d 9e08 0abd f1c5 093d 4bb2 adbc
00000390: a7f6 e83d e8b7 c63d f143 873d d51d e83d
000003a0: 2fdd 4e3d c2bb dbbc e4ff c73d 45ff d83d
000003b0: 0aa7 f5bc 11bb a33d 3461 ae3d d0c6 663d
000003c0: a908 b8bd a2bd 82bd 8130 e73d 20d5 06be
000003d0: 6bb2 123e 0a27 cfbd 6898 6ebd c5d0 fd3d
000003e0: fe86 4dbd 4363 d63d 15e0 1ebd 991f e53c
000003f0: ce31 7f3d a4c0 9b3c 7c9a 7e3b dad0 b13c

net.6.bias f4 [64]
-0.026278323 -0.07869843 0.047448225 0.061683882 0.08038004 0.033910446 -0.03410009 0.09276638
0.0021114368 -0.094072215 -0.08347754 0.08239848 0.069391474 0.059883736 0.08100796 -0.048877057
-0.09125735 -0.015678875 0.016240647 -0.0691646 -0.05891115 0.10986014 -0.0385915 0.08793536
-0.03398647 0.024493298 0.016479248 -0.039560817 -0.027371898 -0.05158558 -0.07066612 -0.08085296
0.053441074 0.031062897 0.015370752 0.09456427 0.01493723 -0.041830182 0.08269399 0.09677999
-0.04464174 0.086604975 -0.063749135 -0.057580262 0.023561554 0.0335428 -0.070770234 0.03966679
-0.03178548 -0.048767902 0.049550932 0.054368462 0.060893252 -0.07224212 0.10830818 0.086476356
0.010303187 0.0054259296 -0.08355966 0.07425796 0.052022673 0.08047744 0.07792892 0.10069965
00000000: a345 d7bc a42c a1bd 1259 423d 3da8 7c3d
00000010: 4a9e a43d aee5 0a3d 89ac 0bbd 4dfc bd3d
00000020: 0860 0a3b efa8 c0bd 46f6 aabd 89c0 a83d
00000030: 1e1d 8e3d a648 753d 80e7 a53d 4f33 48bd
00000040: 22e5 babd fc70 80bc 1b0b 853c 2ba6 8dbd
00000050: d14c 71bd 5afe e03d 1f12 1ebd 7417 b43d
00000060: 6635 0bbd 2ba6 c83c 7dff 863c 860a 22bd
00000070: 083b e0bc 674b 53bd 66b9 90bd 3d96 a5bd
00000080: 07e5 5a3d 9e77 fe3c 9bd5 7b3c e9aa c13d
00000090: 49bb 743c 2056 2bbd 775b a93d 9634 c63d
000000a0: 42da 36bd f35d b13d e88e 82bd 48d9 6bbd
000000b0: 2904 c13c 2d64 093d fcef 90bd a579 223d
000000c0: 7e31 02bd dac0 47bd ebf5 4a3d 77b1 5e3d
000000d0: 346b 793d adf3 93bd aed0 dd3d 841a b13d
000000e0: b3ce 283c ffcb b13b 5421 abbd 8f14 983d
000000f0: ba15 553d 5bd1 a43d 3399 9f3d 9e3b ce3d

net.8.weight f4 [6, 64]
0.07099654 -0.061214387 0.16624418 -0.18180075 -0.1411262 0.16886218 -0.090384506 0.12575299
-0.14448933 -0.062265974 -0.09115342 -0.18400803 0.13764156 0.09227143 -0.033793457 -0.018580815
-0.0074413675 0.15038672 -0.069375284 -0.14185207 -0.05109749 0.096414104 -0.08993647 0.14101999
-0.034044374 0.08489281 -0.1775771 -0.05758892 0.10948866 0.015852096 0.04868585 0.035653867
0.14583114 0.16376485 0.1073273 0.13506578 -0.18576929 0.090645835 -0.042879913 0.08877745
-0.11257473 0.100640565 0.077060685 -0.1563839 -0.10450377 -0.052943308 -0.10754415 0.11036521
0.056591175 0.1457581 -0.15377839 0.16266058 -0.016980544 0.017567968 -0.066127054 -0.12630871
-0.059318397 0.05405053 0.00071552675 -0.103267185 0.09645027 -0.085254565 -0.1832793 -0.16567157
-0.089972176 -0.018368306 -0.08842834 -0.04664623 0.03269348 -0.1148411 0.03640635 -0.1969331
-0.06772885 -0.059771344 0.004793755 -0.05127435 0.030504439 0.12928768 0.11570158 -0.06970927
-0.04288503 0.13832155 0.09255462 0.011304232 -0.0326539 0.14372939 0.09947068 -0.16272199
-0.078700975 -0.06854361 -0.15391923 -0.1906434 -0.14706852 -0.17928474 -0.08170317 0.017233789
0.1655816 0.14220051 -0.037259635 -0.031955317 -0.09981581 -0.18514268 -0.17216462 0.15205936
0.025070485 -0.17657204 -0.16709119 -0.0088734515 0.075041786 0.0022628368 0.038477868 0.052298825
0.09837231 0.15748446 0.15942204 0.117285125 -0.20527387 -0.05502155 -0.20445701 -0.21353821
-0.020853683 -0.03747547 -0.09645928 0.001445144 -2.5450592e-05 -0.05641211 0.08228939 0.09419786
0.04499424 -0.14013378 -0.15101199 0.08267225 0.14107934 -0.0112712 -0.10636049 0.030430011
0.0402474 -0.14425221 0.09809149 0.08582496 0.11620302 -0.06662875 0.0123358825 0.12876153
-0.037030492 -0.0040389188 0.15706319 -0.17790025 -0.1044416 0.008240321 0.052000865 -0.046638303
-0.15364715 -0.08316989 0.07023686 0.13012071 -0.20818028 -0.12492826 0.09737407 -0.16092008
0.042564034 -0.20025516 -0.15804662 -0.15840721 -0.03573759 -0.14391959 0.06302403 -0.088957645
-0.007919583 -0.14683211 -0.114726655 -0.16523278 0.17990842 0.015730014 0.12471967 -0.09883633
0.13793358 -0.10104728 -0.11399888 -0.18993002 0.060323317 -0.13204186 -0.11601097 0.0922352
-0.08438026 0.0752789 -0.118396275 0.17218149 -0.09344737 -0.07655175 -0.064303935 0.16449152
-0.058493294 -0.086204715 0.0001977835 0.099700786 -0.05762629 0.054950103 -0.014493449 -0.056810886
-0.019121824 0.110746 0.018529154 0.08090358 -0.18047899 0.025552643 0.10593272 -0.20260938
-0.08024833 -0.10930078 0.16686581 -0.070666336 0.029229341 -0.13235767 0.013999576 -0.049569927
0.050787024 0.045228753 0.098841354 0.09774753 -0.099420235 0.1441924 -0.12367161 -0.082305655
0.055959586 0.009731292 0.1806646 0.1317103 0.037323568 0.11803182 0.1585449 -0.21351138
0.06710044 0.026851697 -0.11319214 0.114597775 -0.17315076 -0.062965155 -0.009336323 -0.06272585
-0.13808326 -0.21291767 -0.13746 -0.12253235 0.17828147 0.07249553 0.16271448 0.026025213
-0.11856659 0.17485446 -0.17005447 -0.051596522 -0.15295431 0.078179896 -0.17455553 0.100289196
00000000: a266 913d f0bb 7abd ea3b 2a3e fa29 3abe
00000010: 6383 10be 35ea 2c3e 831b b9bd 64c5 003e
00000020: 03f5 13be 9b0a 7fbd a5ae babd 9a6c 3cbe
00000030: e9f1 0c3e cef8 bc3d 026b 0abd cb36 98bc
00000040: b7d6 f3bb fafe 193e a114 8ebd ab41 11be
00000050: 9a4b 51bd c274 c53d 9d30 b8bd 8b67 103e
00000060: 1d72 0bbd 48dc ad3d c5d6 35be 5ce2 6bbd
00000070: 973b e03d 41dc 813c d06a 473d ca09 123d
00000080: c254 153e f9b1 273e 6ace db3d af4e 0a3e
00000090: 4e3a 3ebe 86a4 b93d d9a2 2fbd f4d0 b53d
000000a0: 948d e6bd a41c ce3d fed1 9d3d 1a23 20be
000000b0: 1306 d6bd 15db 58bd 1b40 dcbd 2807 e23d
000000c0: 26cc 673d 9d41 153e 1578 1dbe 7f90 263e
000000d0: c81a 8bbc b3ea 8f3c 9f6d 87bd 1257 01be
000000e0: d9f7 72bd 1764 5d3d 3092 3b3a bf7d d3bd
000000f0: b887 c53d f299 aebd 92ad 3bbe cfa5 29be
00000100: 5543 b8bd 2179 96bc eb19 b5bd 1e10 3fbd
00000110: 99e9 053d d031 ebbd d31e 153d d5a8 49be
00000120: 6cb5 8abd ccd2 74bd ee14 9d3b 0e05 52bd
00000130: 72e4 f93c fd63 043e f3f4 ec3d bcc3 8ebd
00000140: 37a8 2fbd 2aa4 0d3e 478d bd3d 6335 393c
00000150: 19c0 05bd cc2d 133e 49b7 cb3d 98a0 26be
00000160: fa2d a1bd 9860 8cbd 019d 1dbe 0638 43be
00000170: 2199 16be 6b96 37be fe53 a7bd e02d 8d3c
00000180: 398e 293e 039d 113e 8f9d 18bd 94e3 02bd
00000190: 3b6c ccbd 0b96 3dbe ec4b 30be 73b5 1b3e
000001a0: 9e60 cd3c 4dcf 34be f419 2bbe f461 11bc
000001b0: 82af 993d 1a4c 143b f89a 1d3d 4b37 563d
000001c0: 6c77 c93d 9b43 213e 883f 233e 2f33 f03d
000001d0: 5033 52be 475e 61bd 2e5d 51be c3a9 5abe
000001e0: 58d5 aabc e17f 19bd 718c c5bd fc6a bd3a
000001f0: bb7e d5b7 6210 67bd 5787 a83d cfea c03d
00000200: e14b 383d 3b7f 0fbe e3a2 1abe 1250 a93d
00000210: 1a77 103e d7aa 38bc 87d3 d9bd 5c48 f93c
00000220: 75da 243d dab6 13be 31e4 c83d ffc4 af3d
00000230: d9fb ed3d a774 88bd 711c 4a3c 10da 033e
00000240: 49ad 17bd e858 84bb 2cd5 203e 7c2b 36be
00000250: 7ae5 d5bd 6902 073c dcfe 543d ce07 3fbd
00000260: ae55 1dbe fa54 aabd 58d8 8f3d 5d3e 053e
00000270: 362d 55be 63da ffbd 0e6c c73d 3cc8 24be
00000280: a057 2e3d b00f 4dbe f9d6 21be 8035 22be
00000290: 9461 12bd a85f 13be be12 813d 6d2f b6bd
000002a0: 23c1 01bc 285b 16be cff5 eabd c832 29be
000002b0: ea39 383e 3bdc 803c 076d ff3d b46a cabd
000002c0: 763e 0d3e e0f1 cebd 3f78 e9bd 047d 42be
000002d0: 9515 773d fb35 07be 2997 edbd cfe5 bc3d
000002e0: 8fcf acbd d32b 9a3d bf79 f2bd 5850 303e
000002f0: 5661 bfbd 2ac7 9cbd c8b1 83bd 7770 283e
00000300: aa96 6fbd 198c b0bd 1b64 4f39 ed2f cc3d
00000310: 8b09 6cbd 5c13 613d ee75 6dbc 88b2 68bd
00000320: 5fa5 9cbc cdce e23d 74ca 973c c7b0 a53d
00000330: 7ccf 38be c753 d13c 41f3 d83d d578 4fbe
00000340: 3d59 a4bd 16d9 dfbd dfde 2a3e 83b9 90bd
00000350: 5f72 ef3c c588 07be 7a5e 653c d609 4bbd
00000360: 0e06 503d c941 393d 566d ca3d db2f c83d
00000370: d69c cbbd 2ca7 133e 8b47 fdbd de8f a8bd
00000380: e135 653d ff6f 1f3c 2400 393e 11df 063e
00000390: 99e0 183d abba f13d 9859 223e baa2 5abe
000003a0: f56b 893d 17f8 db3c 48d1 e7bd 3db2 ea3d
000003b0: 6f4e 31be e0f3 80bd 60f7 18bc 6976 80bd
000003c0: b365 0dbe 1707 5abe 50c2 0cbe 3ef2 fabd
000003d0: 6b8f 363e 8978 943d a09e 263e d432 d53c
000003e0: 0ad3 f2bd 0c0d 333e c222 2ebe e056 53bd
000003f0: 0ea0 1cbe c81c a03d afbe 32be 6c64 cd3d

net.8.bias f4 [6]
-0.093171544 0.038170114 -0.04256125 -0.017270608 -0.1294303 -0.0012789444
00000000: b9d0 bebd 4458 1c3d b554 2ebd 177b 8dbc
00000010: 6089 04be 41a2 a7ba
