src/experiments/hand_gesture_model.pth (torch, 232423 bytes, 8 tensors)

net.0.weight f4 [256, 60]
000000 b1 aa 04 be 0c a7 d7 bd 90 ac 52 3d fc ab 22 be
       -0.12955739 -0.105299085 0.0514341 -0.1588592
000010 0d ab f0 3c e5 f1 c5 3c f6 08 11 3e 0f ea ad bc
       0.029378438 0.024163196 0.14163575 -0.021229772
000020 7f e2 11 bc d3 cb 00 3e 9d db ba 3d 64 70 05 3e
       -0.0089040985 0.12577753 0.09123919 0.13031155
000030 dd f2 c0 3c 83 e2 f4 3d 57 8b 63 3c 75 d6 d3 bd
       0.023553306 0.11957266 0.013888202 -0.10343639
000040 02 2e b4 3d 14 8f 86 3c 46 bf 86 3c d9 bf fa 3d
       0.08797838 0.016425647 0.016448628 0.12243623
000050 d4 b3 66 3d 01 e8 6e 3d 19 ac 24 bd d1 83 37 3d
       0.05632384 0.058326725 -0.040203188 0.044803444
000060 53 11 1e bd 71 5d d4 bd 5f 11 0a bd 76 43 75 bd
       -0.03859074 -0.10369385 -0.033707973 -0.05987879
000070 cd 0d d0 3b 04 c4 5a 3e dc a1 62 be f8 07 ac 3c
       0.0063493014 0.21363837 -0.22132057 0.020999894
000080 4f 2a 57 3d cf 6b 9c be c4 1c 03 be eb 51 89 3c
       0.052530583 -0.30551 -0.12803942 0.016762694
000090 8a 01 14 3e ef 98 05 3e 62 29 1e bd 0a 9e 0a 3e
       0.14453712 0.13046621 -0.038613684 0.1353685
0000a0 4a 0f 6e 3d e6 68 8c 3b 13 f3 91 be 9e c2 81 be
       0.05812005 0.004284966 -0.28505763 -0.25343794
0000b0 8b be b4 3d ca 73 c5 be a5 4d 8b be 1b 1f 81 bd
       0.08825406 -0.38564903 -0.27207676 -0.06304761
0000c0 12 80 a5 39 5d 7d f0 3d 42 ba 86 3d a2 0a 11 3e
       0.00031566672 0.11742661 0.065784946 0.14164212
0000d0 ed 43 81 3c 9f 08 d5 3c 0a 7d bc 3d 2a 06 d6 bd
       0.01577946 0.026005087 0.09203537 -0.104503945
0000e0 5e e9 e0 bd 68 c0 41 be 37 d7 60 be 10 5e 02 3c
       -0.10982011 -0.18921053 -0.21957098 0.007956997
0000f0 64 76 12 be 8b 98 04 be a1 24 8f bd 91 e0 90 bd
       -0.14302975 -0.12948816 -0.06989408 -0.07074083
000100 79 ad 3e be 36 11 ab bd 90 71 8e bd 2c 2a 93 be
       -0.18620862 -0.08352892 -0.06955254 -0.28743112
000110 53 22 da 3d c2 b5 f0 3d c9 d5 64 be 61 16 f1 3d
       0.10651078 0.117534176 -0.22347178 0.117718466
000120 4a f9 47 bd ee c8 44 3e a5 58 d4 3d 3d d0 57 3c
       -0.048821725 0.19217274 0.1036847 0.0131722065
000130 85 7d 97 3e f5 0a e0 bc e0 25 17 3e 8e 60 49 3e
       0.2958795 -0.027348975 0.14760542 0.19665739
000140 12 af 6a 3d cd 9b 5b 3e a6 1a dd 3d f9 ad e1 bc
       0.057295866 0.21446152 0.107960984 -0.027548777
000150 8b a1 90 3d ef 04 38 3d 8b 26 42 bc 66 c9 9a bc
       0.07062062 0.04492658 -0.01185001 -0.018894862
000160 b0 92 73 3e 9b 2d 89 3a 09 78 b5 3d ab ad 87 3d
       0.23786426 0.0010465862 0.088607855 0.066249214
000170 ea 7b 29 bd d5 66 33 3d 10 26 35 3e d8 6c 2e bd
       -0.04137794 0.04379924 0.17690301 -0.04258427
000180 2b 40 ba 3d 7c ad 6c 3d 9b 55 54 3d f6 d7 0b 3d
       0.0909427 0.057782635 0.051839452 0.034141503
000190 35 50 12 3d 24 e4 d5 3d b1 45 ec 3d 11 79 35 be
       0.035721023 0.10443905 0.1153673 -0.17721964
0001a0 56 35 ad bd 26 52 09 3e 43 58 c3 bc 59 19 40 bd
       -0.08457439 0.13410243 -0.023845797 -0.046899173
0001b0 51 fa 12 be f7 bd 9a 3d ef d4 3a ba c3 bd 3a 3d
       -0.143533 0.07555764 -0.00071270665 0.045591127
0001c0 41 25 20 be cf b8 71 bc 0f 41 24 be e5 a5 58 be
       -0.15639211 -0.014753534 -0.16040443 -0.21157034
0001d0 7c 12 e6 bc d9 8e 40 be 87 88 4e bd 91 a4 08 be
       -0.028084986 -0.18804492 -0.05042317 -0.13344027
0001e0 2b 28 68 3c 91 f3 1a bd db 3d a6 3d fb b4 36 3e
       0.014169733 -0.03782994 0.08117267 0.17842476
0001f0 e3 03 e4 3d 5e 9e 14 3b 13 75 85 3e 54 b0 7f 3e
       0.11133554 0.0022677402 0.26065883 0.24969608
000200 49 49 c5 bd 4b b0 b9 3e c1 bc 5d 3e ff d6 9a bd
       -0.09633119 0.36267313 0.21654035 -0.075605385
000210 a1 74 01 be 07 3e e2 bd 0e c4 24 3e 3d 9e dc bd
       -0.12642147 -0.11046987 0.16090414 -0.10772369
000220 45 bb 91 ba 2d 9d 9e 3d cc ca 9d bd 62 eb 85 bb
       -0.0011118433 0.07744823 -0.07704696 -0.0040868977
000230 70 d2 df bc 8c 64 ef bd ec 0a d6 bd 9b 2b ff 3c
       -0.027322024 -0.116891 -0.10451302 0.031148722
000240 16 54 fb bd c5 4b 92 3d 76 89 de 3d a0 0e 47 3d
       -0.122718975 0.07143358 0.10866062 0.04859793
000250 35 6e 3a be 29 45 31 be 10 71 91 bb 7a a0 9f 3d
       -0.18206103 -0.17311539 -0.004438527 0.0779428
000260 83 c1 a1 bd e1 0e 59 3d 4e 35 ed 3c 06 63 b6 3c
       -0.078982376 0.052992705 0.028956082 0.022264015
000270 a7 d4 20 3d 28 5b ab bd 07 86 35 3d d1 56 27 be
       0.0392653 -0.08366996 0.04431727 -0.16341712
000280 06 da 23 be cc 7e 2a 3d e0 6b 49 3d a3 22 ce 3c
       -0.16001138 0.04162483 0.049175143 0.025163
000290 66 26 bf bc b7 46 07 3d ea 98 c1 3d 09 95 2a 3e
       -0.02333374 0.033026423 0.09452994 0.16658415
0002a0 7c a1 6a 3c 93 39 8c bd 68 0c c3 bd 34 3f 14 be
       0.014320727 -0.06846919 -0.09523851 -0.14477235
0002b0 23 6e 20 be 4a b8 8e bd c9 32 e7 bd 70 8e f2 bd
       -0.15667014 -0.06968744 -0.112889834 -0.11843574
0002c0 d6 b3 1a 3e ca 33 38 be 41 c3 0c be 5f 8e 54 bd
       0.15107664 -0.17988506 -0.13746358 -0.05189359
0002d0 eb 90 90 3b db e7 85 bb 67 0c d8 bd 7a 00 a4 bb
       0.004411807 -0.004086477 -0.105492406 -0.0050049396
0002e0 9c 5c 42 3c b9 9f 04 3d 9d 0d 8c bd df e3 f8 bd
       0.0118629 0.032378886 -0.06838534 -0.12152838
0002f0 d6 86 35 be 98 98 c5 bd 5f 3f 04 3e 85 12 2a be
       -0.17727217 -0.096482456 0.12914799 -0.16608627
000300 c3 f4 14 3e f0 a8 b2 3d d6 07 21 3e 9f bd 31 3e
       0.14546494 0.087236285 0.15725645 0.17357491
000310 1c b7 08 3e dc 31 eb 3c 67 53 26 3e 5b f5 88 3d
       0.133511 0.028710298 0.16242753 0.06687423
000320 3b cc 22 be 60 6e 4f 3e f7 97 7b bd dc fe 17 be
       -0.1589822 0.20256948 -0.06142422 -0.14843315
000330 ba 5a 19 3e e8 98 48 3c 14 44 4a bd 71 ce d4 bc
       0.14976016 0.012243487 -0.04938133 -0.025977345
000340 67 fa ed bd ea a4 3f bd 49 26 46 3d 16 44 73 be
       -0.11620026 -0.046788134 0.048376355 -0.23756441
000350 4b e6 f6 bd 5b 04 1a be ac 32 67 be aa 56 aa bd
       -0.12055644 -0.15040724 -0.22577924 -0.08317311
000360 73 bb c3 3d 07 44 7a 3d 0d 7b 22 bd f8 fe cb bd
       0.095572375 0.061100032 -0.03966813 -0.09960741
000370 e1 0e d3 3d f2 50 20 be 5b ca b5 3c 7b 6c a1 3b
       0.10305572 -0.15655878 0.022191217 0.004926262
000380 f9 13 12 3e cb ad 8f bd 76 c1 2a 3d 4d 2d a2 3e
       0.14265431 -0.0701557 0.041688405 0.31675187
000390 01 c2 6d 3b 9a 42 96 bd 94 2b 92 bd e9 28 c2 bd
       0.0036278965 -0.07336922 -0.07137218 -0.09480459
0003a0 25 d0 72 bc 69 88 e6 bd c3 ad 04 be 23 bc e9 bd
       -0.014820133 -0.11256487 -0.1295691 -0.11412837
0003b0 11 f7 90 3c 3b 3c 29 be af b1 0b ba 1d 6b 09 3e
       0.017695935 -0.16526882 -0.0005328906 0.13419767
0003c0 48 4c 71 3d db 29 94 3d 1b 78 54 3d 96 f3 77 3e
       0.058910638 0.07234546 0.051872354 0.24214014
0003d0 a3 f2 48 3c 7d b3 5d 3e 74 3c 31 3e 83 b7 b0 3d
       0.01226488 0.216505 0.17308217 0.08628752
0003e0 c4 21 5a 3e 26 2f df bd 1c ad 98 3d c5 1b 7c 3e
       0.21301943 -0.10897665 0.07454893 0.24619968
0003f0 c5 01 64 3d de e1 05 be 4a dd 00 3e 5d 50 c7 bc
       0.05566575 -0.13074443 0.12584415 -0.024330312

net.0.bias f4 [256]
000000 c2 bf 30 3c 3f 34 5b be 77 c9 b3 bd c4 48 8c bd
       0.010787906 -0.21406649 -0.08778661 -0.068498164
000010 7e ac 3c bd 38 d6 d4 bd 1d 79 05 bd 23 51 04 3e
       -0.04606294 -0.103924215 -0.032586206 0.12921576
000020 5c e5 e5 bd 52 79 81 bd f7 fb e5 bd 5a 0b cc bd
       -0.112253875 -0.06321968 -0.11229699 -0.09963103
000030 28 81 09 be 66 2e 85 bd ee 45 a7 bd c7 dd 71 be
       -0.13428175 -0.065029904 -0.08167635 -0.23619758
000040 79 4b 5d be f2 47 2a 3d e7 12 35 be 4b d5 d3 3c
       -0.21610822 0.04157252 -0.17682992 0.025858542
000050 8d c8 76 be 31 ff 21 be 02 39 00 3e 19 1c 90 bc
       -0.24099942 -0.15820004 0.12521747 -0.017591523
000060 47 23 2e bd 66 f1 39 be 3a e1 eb bd 0e 31 fe 3b
       -0.04251411 -0.18158492 -0.11517568 0.0077573126
000070 aa c3 fe 3d 18 44 3f be c1 be 31 be d4 d0 d3 be
       0.12439664 -0.1867832 -0.17357923 -0.4137026
000080 9b b9 60 be de 19 47 be de e0 44 be 7e f1 d7 bc
       -0.21945803 -0.19443461 -0.19226405 -0.02636027
000090 fb 14 eb bb 0d 2c cd 3a 5c a0 6a 3c cc 7c 74 bd
       -0.007174132 0.0015653387 0.014320459 -0.059689328
0000a0 19 5c 14 be 14 66 52 bd 58 5b 8f 3c 26 35 56 be
       -0.14488257 -0.05136688 0.01749961 -0.20918712
0000b0 2c 2a 14 be 3f d1 d4 be ae 85 46 be f2 3e 65 be
       -0.14469212 -0.41565892 -0.19386932 -0.22387293
0000c0 db 80 62 bd 46 d7 4e be 90 d6 e7 3b cf cc 10 be
       -0.055298667 -0.20199308 0.0070751384 -0.14140628
0000d0 51 37 c0 bd 50 8f 14 be 32 a0 8b bd 49 c0 9a 3c
       -0.09385551 -0.14507794 -0.06817664 0.018890517
0000e0 1f 4b 86 3c 98 4b 7b be 9a e5 48 be 90 74 1f be
       0.016393242 -0.24540555 -0.19618836 -0.15571809
0000f0 39 e6 14 be 7a 39 b6 be 1d 7b 06 bd c9 9f 92 bd
       -0.14540948 -0.35590726 -0.032832254 -0.07159383
000100 64 0a b7 bd 34 d1 95 bd 88 40 d2 bd 47 96 4a 3d
       -0.08937529 -0.07315293 -0.102662146 0.049459722
000110 93 6b 0c bd 47 40 67 be 5c 4e 16 be 72 9a 75 be
       -0.03428228 -0.22583114 -0.14678329 -0.23984697
000120 ff f7 52 be 69 8c 9e bd 27 e2 f3 bd 66 cc 16 bd
       -0.20602416 -0.07741625 -0.119083695 -0.036816023
000130 06 9c ff bb 39 ea 9a be 0c 52 cb bb f7 ab fb bc
       -0.007800582 -0.30256823 -0.006204849 -0.030721648
000140 30 0c b2 bd 9f ca bb bd 0f 37 d4 3c 39 2d 6b be
       -0.08693731 -0.09169506 0.02590516 -0.2296647
000150 35 cc b9 bd 9c 0f ef bd 8c 37 e6 3d 7f 85 62 bd
       -0.090721525 -0.11672899 0.112410635 -0.055303093
000160 69 a9 16 be 33 47 62 be e1 84 01 be a1 e5 7d be
       -0.14713062 -0.22097473 -0.12648346 -0.24794628
000170 ad 0c 2d bd 40 27 10 3e c0 c7 90 3d 4f fb e3 3c
       -0.042248417 0.14077473 0.07069349 0.027829794
000180 ca 1b 18 bd 16 cf bb bd 2e d4 b5 bd 30 81 53 be
       -0.037135877 -0.09170358 -0.08878361 -0.2065475
000190 32 6d b9 bd 7a bb ce bd 63 d8 02 be c5 15 91 be
       -0.090540305 -0.10094352 -0.12777857 -0.2833692
0001a0 81 a0 94 3d b6 8c 5b bd dd 53 63 bd 10 93 8b bd
       0.07257176 -0.05360099 -0.0554999 -0.06815159
0001b0 48 14 fd bd 4a 2e 25 be 53 8a ba be 1f 5a 94 be
       -0.12357384 -0.16130939 -0.36433658 -0.28975007
0001c0 1c 75 82 be 9e a4 22 be 4b 70 d4 bd ae e5 c9 3c
       -0.25479972 -0.15883109 -0.10372981 0.024645653
0001d0 73 99 0f be 27 16 f1 3d 77 99 43 3c c6 2e c4 bd
       -0.1402338 0.11771803 0.011938444 -0.09579234
0001e0 d3 24 00 be 72 bf bf bd 92 33 3e bb 7e ef 8b be
       -0.12514047 -0.09362687 -0.0029022438 -0.27331156
0001f0 a7 10 23 bd 99 cd 6d be dd 64 95 bd dc 13 fd bd
       -0.039810803 -0.2322296 -0.07294629 -0.123573035
000200 73 cb 33 be 11 1a 2f be 5e d8 51 be 10 80 74 be
       -0.17558078 -0.17099787 -0.20492694 -0.23876977
000210 8f 15 9e bd f4 7f 93 be 5b c5 39 be 26 f6 80 be
       -0.07718956 -0.28808558 -0.18141691 -0.25187796
000220 2b 38 b1 bb a1 22 9c bd cc f1 dc 3d 05 5c df bd
       -0.005408307 -0.076237924 0.107883066 -0.10906223
000230 e7 50 80 be e9 a3 10 be 43 a2 57 bd f9 58 1d be
       -0.25061724 -0.14125027 -0.05264498 -0.15365972
000240 eb 35 8f 3d 3b 87 9b be 9e 08 dd bd 9f 6d 74 3d
       0.06992706 -0.3037661 -0.10792659 0.059674855
000250 74 21 1d 3c 8f f7 58 bd 59 ef 99 be 51 88 f9 bd
       0.009590495 -0.052970465 -0.3006542 -0.121842034
000260 ce a3 4c bd 23 a6 47 bd 02 47 36 be fd 89 53 bd
       -0.049960904 -0.048742425 -0.17800525 -0.051645268
000270 ba ae 07 bd 96 30 43 be bc 43 85 be 45 26 89 bd
       -0.033125617 -0.19061503 -0.2602824 -0.066967525
000280 ae ef d8 bd 63 5f 87 be ed e9 9f be ba c5 34 3c
       -0.1059259 -0.26439962 -0.3123316 0.01103347
000290 63 e0 4d bc 03 a6 19 be 74 9a c9 bd 89 90 0a 3e
       -0.012565705 -0.15004735 -0.09843913 0.13531698
0002a0 42 69 31 bd 79 6d 15 be 06 c4 27 be b8 24 8a bd
       -0.043313272 -0.14592542 -0.16383371 -0.06745285
0002b0 58 50 84 3b db ad da bd d7 3b 56 be 14 9b 5a be
       0.004037898 -0.106776915 -0.20921265 -0.2134822
0002c0 4b 96 2e bc 1b d9 3c be d8 4e 36 be 96 3a 13 be
       -0.01065595 -0.18442194 -0.17803514 -0.14377818
0002d0 5f 4e a9 bd 49 7c 3f 3d db 4a 62 bd a4 ab 74 be
       -0.08266901 0.046749387 -0.05524717 -0.238936
0002e0 28 b9 7b be f7 c9 6c be 4a 7a 36 3d 93 fd 2a be
       -0.2458235 -0.23123918 0.044550218 -0.16698293
0002f0 10 d9 9c bd 5d 44 08 be 7d e5 7b be 82 38 5c bd
       -0.07658589 -0.13307329 -0.24599262 -0.053764828
000300 f2 0e 16 be 89 a9 4d be be 06 68 be c8 08 3b 3c
       -0.14654139 -0.20084204 -0.22658822 0.011415668
000310 81 a9 57 bd 16 66 43 bd ef 0c 4c be c8 af 9e bd
       -0.052651886 -0.04770478 -0.19926809 -0.07748371
000320 b6 94 b7 bc 1f 3f 55 be 54 09 30 be bd 3a 71 3d
       -0.022409778 -0.2082486 -0.17191058 0.058893908
000330 4f 16 0c bd ea a0 86 bd c2 bb 9e bd 73 46 67 be
       -0.034200963 -0.06573661 -0.07750656 -0.22585468
000340 71 ad b5 bd 35 b4 7a be a9 49 ba 3b 9c 0f 21 3e
       -0.08870972 -0.24482806 0.0056850505 0.15728611
000350 a1 75 4d be 39 8f 91 be 56 08 6f 39 cc a3 95 be
       -0.20064403 -0.28429583 0.00022795922 -0.2922653
000360 e1 68 45 be ee 6e 2a be 5e 80 1d be 01 a4 7b bd
       -0.1927829 -0.16643879 -0.15381 -0.061435703
000370 42 07 07 3d 20 1c a4 be a3 ca 5b be 7e 1a 8c be
       0.032965906 -0.32052708 -0.21464019 -0.27363962
000380 4e 50 f5 bd a2 d6 d7 3d 76 6e a9 3c 08 35 91 be
       -0.119782075 0.10538985 0.020682555 -0.28360772
000390 ed 1d 7d bd ab 13 e2 bd a9 27 38 be bd 19 27 be
       -0.061796118 -0.110389076 -0.17983879 -0.16318412
0003a0 b1 c0 f6 3c 64 3e 6d bd 0d 23 9b bd 6a 4f 1f be
       0.03012118 -0.05792083 -0.07575045 -0.15557638
0003b0 a6 c7 b9 be ab d9 88 be 04 a4 ed bd f5 4c b1 3b
       -0.36285132 -0.26728567 -0.11603549 0.0054107853
0003c0 d5 9e d7 bb 12 37 7b bd 4a 38 ca bd cc ec 5b be
       -0.0065802136 -0.061331816 -0.098740175 -0.2147705
0003d0 cd 39 99 bd c3 36 31 be 4e 33 43 be 51 56 df 3d
       -0.07481728 -0.17306046 -0.1906254 0.109051354
0003e0 6e aa 6b bd c2 f6 91 bd 25 b1 0e be 09 dd 7c be
       -0.05753558 -0.071271434 -0.13934763 -0.24693693
0003f0 09 45 86 3d e0 cd 82 bd 49 bf ab 3d 81 84 41 bd
       0.06556136 -0.06386924 0.08386094 -0.047245506

net.3.weight f4 [128, 256]
000000 7f 06 33 bd 1d b4 2c bd ab 57 d5 bd 1c 0b 9f bc
       -0.043707367 -0.042163957 -0.10417112 -0.019414477
000010 d9 90 24 3c 3b 55 b0 bd 1c 8b 40 3d 67 a2 b1 3d
       0.0100443 -0.086100064 0.047007665 0.08673554
000020 ac 2c c3 bd 75 f4 33 3d e9 b4 85 3d 97 d0 2b bc
       -0.09530005 0.043934304 0.065286465 -0.010486743
000030 64 45 2d be 7f ab 57 ba 6d 79 88 bc e6 70 87 3c
       -0.16921002 -0.0008227154 -0.016659463 0.016533326
000040 8f b3 b1 3d d9 e5 df 3d 3a 86 6c bd 42 37 7f 3d
       0.08676826 0.10932512 -0.057745196 0.062308557
000050 98 c3 f1 3d 15 a9 d8 bc 5b a3 0d 3d bd 33 3a bd
       0.11804885 -0.026447812 0.034579616 -0.045459498
000060 52 97 c5 bd 4d 69 2f be 54 f1 ae 3d bc 74 4a 3d
       -0.09648003 -0.17130013 0.085421234 0.049427733
000070 54 b5 05 bd 6f a4 7f bd fd 52 35 be d1 44 9d bd
       -0.03264363 -0.062412675 -0.17707439 -0.07679141
000080 16 8d 06 be 10 2a 26 be cc 75 be bd 5e 7a 4d 3c
       -0.13139758 -0.16226983 -0.09299812 0.012541382
000090 1f 67 d3 3c 12 32 39 bd 73 77 93 3d c7 13 15 3e
       0.025806008 -0.045213766 0.072005175 0.14558326
0000a0 5a 34 37 be 43 92 83 be 5a 1d 8d 3d e8 ef 32 bd
       -0.17891064 -0.25697526 0.06890364 -0.043685824
0000b0 7a 43 22 bd 9f 06 ff bd 41 dc 72 3d 9f a7 85 3b
       -0.039615132 -0.12452435 0.05929208 0.00407882
0000c0 a9 48 4e bd bf 03 0f be 67 66 c3 bd 55 af 73 bd
       -0.050362263 -0.13966273 -0.09541016 -0.05949338
0000d0 a7 24 84 bd 1a 46 25 bc 4e 9c 12 be 0f 0b 09 3d
       -0.064523034 -0.010087514 -0.14317438 0.033457812
0000e0 f0 91 35 bd 41 9e b9 3d 7d 51 19 3d 99 51 d9 bd
       -0.04432863 0.09063388 0.03743123 -0.10611267
0000f0 bd 13 b8 bd 3a ba cc bd f6 1e c8 3c 6d 13 1f 3e
       -0.0898814 -0.099964574 0.024428826 0.15534754
000100 fe 59 4b bd a6 1b 02 bd ab b8 34 be 6a 8d ae bc
       -0.04964637 -0.03176465 -0.1764857 -0.021307666
000110 4d b9 20 3d d9 02 04 3d 0e 0d 9a bd 65 0e c5 bd
       0.039239217 0.03222928 -0.07522021 -0.09621886
000120 6a a2 c9 bd f6 cb f9 3c 16 bc 2c 3d 91 b0 a7 bc
       -0.09845431 0.030492764 0.04217156 -0.020469936
000130 9b 69 cd 3b 2d 6e c9 3c c5 d5 b4 3c f8 fa 96 bd
       0.0062686927 0.024588669 0.02207459 -0.07372087
000140 d5 b8 d2 3d 7f 97 59 bd e2 d7 94 3d 3f 90 4c 3d
       0.1028916 -0.053122994 0.07267739 0.04994225
000150 4a 74 40 3e e9 ca 81 3c c9 5e 93 3d 75 ad 10 3c
       0.18794361 0.015843825 0.07195813 0.008830418
000160 8d e0 0a 3d 85 18 1f bd 14 7f f7 3d 63 aa 24 be
       0.033905555 -0.038841743 0.12084785 -0.16080622
000170 4d 30 f9 3c 4d a5 d0 3c 98 89 bc 3b 32 26 29 bb
       0.03041854 0.025469447 0.005753707 -0.002581012
000180 ff 29 fe 3c 67 86 95 3d 9e 04 ea 3d ec ed fe bd
       0.031025885 0.07301026 0.11426662 -0.12447724
000190 99 a8 83 3d 10 b6 8c bd ef 15 01 be 56 9b 0a be
       0.06428642 -0.06870663 -0.12606023 -0.13535818
0001a0 cf f0 7e bd e9 bd 12 bd 22 25 e0 3a a6 f0 b6 3d
       -0.06224137 -0.035825644 0.001710091 0.08932619
0001b0 d8 b5 32 3e b7 5b 25 3d 0d 75 54 bd d8 ee 2c 3d
       0.1745218 0.04037067 -0.05186944 0.042219967
0001c0 1c d2 94 bd 53 37 37 3d 98 aa 1b 3d ad bd b8 3b
       -0.07266638 0.044730496 0.038004488 0.0056378455
0001d0 b1 43 50 bd b6 a0 05 3e ed a7 ae 3d 29 f5 a2 3d
       -0.050845806 0.13049588 0.08528123 0.07956917
0001e0 06 2d 8f bb b1 8f e9 bd 88 0d 04 3b 0f 76 13 be
       -0.004369381 -0.1140436 0.0020149667 -0.14400505
0001f0 21 39 44 3c 0a 5d d1 3c df 40 a5 bc e7 5c 01 3c
       0.011976511 0.02555706 -0.020172535 0.007895685
000200 95 fd 93 bd ce 38 7d 3d bb fc a5 3d 34 b4 5c bd
       -0.07226101 0.06182175 0.08104845 -0.053882793
000210 84 4c a9 3d b6 25 65 bd db 69 09 bd e0 32 28 3e
       0.08266547 -0.055944167 -0.033548217 0.16425657
000220 bc c6 2c 3d f2 50 20 3d ed 34 a7 3d 1f 59 3c 3e
       0.042181715 0.039139695 0.08164392 0.18393372
000230 90 b8 11 3e 86 4f 85 bc b5 96 6c bd d9 eb b7 bd
       0.14230561 -0.016273271 -0.057760913 -0.08980531
000240 4f f4 2b 3e 1f 53 1e be 17 f4 69 bd 07 6b 0b 3e
       0.16792415 -0.15461396 -0.057117548 0.13615046
000250 87 70 a4 bd 59 c5 44 3c 08 95 be 3d ec d6 3c 3d
       -0.080292754 0.012009942 0.09305769 0.046103403
000260 61 8b 0b 3e 5b 0c 2a 3d d3 69 4b bd 47 13 20 3d
       0.13627388 0.04151569 -0.04966147 0.039080884
000270 10 b7 b9 bd fc 1d 21 be 37 b6 8a bd e5 ce 83 bd
       -0.090681195 -0.15734094 -0.06773036 -0.064359464
000280 b0 a9 17 be 17 9c 89 bd 2e 9c d8 bd 72 cc 0a be
       -0.14810824 -0.06719225 -0.10576664 -0.13554552
000290 7c 1e df 3c 3e be bc bd a7 67 09 be e2 3d 9c 3d
       0.027236216 -0.09215973 -0.13418446 0.07628991
0002a0 5e b5 af bc b6 85 34 be c5 ce ca 3d a4 e2 11 3e
       -0.021448787 -0.17629132 0.099027194 0.14246613
0002b0 52 c1 c8 bd ff 63 e1 3d 2f 15 f9 3d 67 77 d7 3b
       -0.09802498 0.11005401 0.121622436 0.006575513
0002c0 eb a0 c1 3d 85 ba 8c be db 94 21 be 2d 29 aa bc
       0.09454521 -0.27486053 -0.1577944 -0.020771587
0002d0 ad 3c c1 bc 3c e0 a6 3c 76 20 83 bd 48 c3 8c 3c
       -0.023588503 0.020370595 -0.06402676 0.017182961
0002e0 29 f4 a8 be 2e 96 8f 3c 83 f4 01 3e 0f 69 39 be
       -0.3299878 0.017527666 0.1269093 -0.18106483
0002f0 dc 91 b1 bd 54 ea bc 3b a3 50 18 bd d3 90 c0 bd
       -0.086703986 0.005765239 -0.037186276 -0.09402623
000300 f9 aa 8d bd 2d 86 82 3c e3 69 fe bd 3e 74 23 bd
       -0.06917376 0.01593312 -0.1242254 -0.03990578
000310 f1 6a 17 bd 95 51 f0 3b 13 e7 12 be 03 03 10 3e
       -0.03696722 0.007333944 -0.1434596 0.14063649
000320 0d fa 62 3d 39 56 5a bd eb 7b 2e bc 05 fe 00 3d
       0.05541425 -0.053304885 -0.0106496615 0.031492252
000330 14 90 42 3d 38 10 c8 bd ce 81 9e 3d 0c d5 13 be
       0.047500685 -0.097687185 0.07739602 -0.1443674
000340 4e ea 4e 3d fc 4b 6a 3d 33 76 c2 bc 38 75 ce bc
       0.05051642 0.05720137 -0.023738002 -0.025202379
000350 01 34 a5 bd 6d ba e1 bd bc e3 26 3d af 89 ce bd
       -0.080665596 -0.11021886 0.04074453 -0.10084855
000360 06 41 68 3d b8 86 c1 bc 9b f1 50 3c f0 f3 5f 3d
       0.056702636 -0.02362381 0.012752916 0.054675996
000370 93 18 bd 3d 46 bf c6 bb 97 09 d2 bd 2f 45 6d bd
       0.09233203 -0.006065282 -0.10255735 -0.057927307
000380 76 69 0f 3e 14 14 39 3d ab 6f 36 bd fb 4c 21 be
       0.14005074 0.045185164 -0.04454009 -0.15752022
000390 ce d3 a0 3c 0e f9 72 3d 2c 2e 19 3d bc c0 33 be
       0.019632246 0.05931955 0.03739755 -0.17553991
0003a0 47 d8 fe 3d 3a 57 2f bc ba 7b 39 3d d9 94 c0 bd
       0.124435954 -0.010701949 0.04528401 -0.094033904
0003b0 38 1e 3e 3d c1 10 00 be 76 c6 55 3b 3c ba 07 3c
       0.046415538 -0.12506391 0.0032619513 0.008284148
0003c0 97 af 5c bd fd d8 77 3d b9 8a ac 3d c4 20 c7 bd
       -0.053878393 0.06050967 0.08424897 -0.097230464
0003d0 e3 76 84 3d 58 c3 09 3e 3f de ab 3c c1 fe c6 3d
       0.06467988 0.13453424 0.020979999 0.09716559
0003e0 69 a8 bf 3d 30 67 2c 3e 76 0a eb bc f9 56 55 3d
       0.093582936 0.16836238 -0.028691512 0.052084897
0003f0 9c 59 7c 3d 86 1a 14 3d 10 ec 74 3d 34 01 ed 3d
       0.061608896 0.036158107 0.05979544 0.11572495

net.3.bias f4 [128]
000000 19 54 14 3e 96 55 61 3e 98 e0 05 3e 1f c5 ce 3c
       0.14485206 0.22005305 0.13073957 0.025240479
000010 ee bd 5c bd 12 d8 05 3e e5 a0 8a 3c 20 b0 ac bd
       -0.05389207 0.13070706 0.016922424 -0.08432031
000020 b6 f7 8f bc 74 0e c3 bd 2c 83 7f bc 47 62 a6 3d
       -0.017574172 -0.09524241 -0.015595239 0.08124214
000030 da 3c 33 bc c9 8a 3c 3d e2 6a da 3c bf 08 d5 bd
       -0.010939801 0.046030793 0.026662294 -0.10402059
000040 25 43 5b bc 1f af 46 be 95 c2 49 3d 59 b8 08 bd
       -0.013382708 -0.19402741 0.049257834 -0.033378933
000050 e5 37 ac bd 34 e2 86 3b 8a 8c 32 bd 25 85 84 3d
       -0.084090985 0.004116321 -0.04359106 0.06470708
000060 fb e8 e0 bd 6c 6e cd bc fa fa ed 3d eb 0e c7 3d
       -0.109819375 -0.025077067 0.116201356 0.09719642
000070 13 2e 11 bd 2b f7 77 bd 62 9c 49 3d 05 26 15 bd
       -0.03544433 -0.060538452 0.049221404 -0.03641321
000080 11 96 ba bd 3d bd 4f 3e 0b aa b9 3c 58 9a 50 be
       -0.09110654 0.20287032 0.02266409 -0.20371377
000090 92 27 1e bd f3 28 06 bd 3b 80 7b bb eb 3f 52 3d
       -0.038611956 -0.032753896 -0.0038375992 0.05133049
0000a0 27 0a 80 bd a4 81 91 3d a1 c9 4b 3c 41 2c a6 bd
       -0.062519364 0.07104805 0.012438209 -0.081139095
0000b0 c9 35 b9 bd 97 0e 01 3e 21 7f d9 3d 6a 0c 38 3d
       -0.09043462 0.12603222 0.10619951 0.044933714
0000c0 7e 0a cc bd e7 f8 06 be 8c 7f e0 3b d3 71 c0 3c
       -0.09962939 -0.13180886 0.0068511423 0.023491776
0000d0 7d e1 3e 3d a4 bf cb bd eb a6 74 3d ba 1b 71 bd
       0.04660176 -0.09948662 0.059729498 -0.058864333
0000e0 d2 c8 29 bd a3 cb 1c 3d 10 34 a8 bd b5 31 d0 bd
       -0.041451283 0.03828014 -0.08213055 -0.10165731
0000f0 f5 ba b5 bd fe f6 e7 bd dd 7c a5 bc f3 90 46 be
       -0.0887355 -0.11326407 -0.020201141 -0.19391231
000100 e6 6e 1f 3d 03 e0 0a 3e 70 1a 50 bd 39 98 8c 3c
       0.03892412 0.13562016 -0.050806463 0.01716243
000110 e1 39 ca 3b c4 7d d9 bd 13 40 ff bd 4e 32 24 be
       0.0061714505 -0.10619691 -0.12463393 -0.16034815
000120 43 8e 21 3b cf da df bd 88 99 f8 3d 39 05 20 3d
       0.0024651445 -0.10930406 0.12138659 0.03906748
000130 cd 69 e5 bd 1c 71 f6 3d c1 41 1e 3e a7 7b b0 3d
       -0.112018205 0.12033293 0.1545477 0.08617335
000140 c4 e0 a2 bd e1 9f 04 3e 21 ef 25 bd c8 95 e3 bd
       -0.07953027 0.12951614 -0.040511254 -0.11112553
000150 6d 7f 19 be fc e3 06 3d 67 04 a5 3c bb 96 cd bd
       -0.14990015 0.032932267 0.0201437 -0.10038515
000160 97 a5 bd 3c bf 37 12 be 0e 19 c0 bc 5a e9 08 be
       0.023150248 -0.14279078 -0.023449447 -0.13370267
000170 cb 71 01 3e 62 e5 3c bd 81 bb ea bd a0 7b 84 bc
       0.12641065 -0.046117194 -0.11461545 -0.01617223
000180 b0 ec a0 bd 37 54 2f 3c 1b 4e bb bd c0 ff 31 3d
       -0.078576446 0.010701231 -0.09145757 0.043456793
000190 e6 c2 42 3d 56 28 f1 3d 27 bc a9 bd c2 e0 40 3d
       0.04754915 0.117752716 -0.0828784 0.047089346
0001a0 5f f8 f2 3c 47 e8 67 3d 59 b4 1a be 7f e8 51 3d
       0.029659448 0.056618 -0.1510786 0.051247116
0001b0 ed 67 00 3e 47 e3 c7 bd 7a 18 a2 3c 6f 8b 07 3e
       0.12539645 -0.097601466 0.019787062 0.13236783
0001c0 2b a7 65 bb 9b 38 0b bd 58 c3 e3 3d 92 d9 dd bd
       -0.0035042267 -0.03398953 0.11121243 -0.10832514
0001d0 03 88 71 3d 8d bc a6 3c 5d 21 4c 3c 97 c7 aa bc
       0.0589676 0.02035358 0.012459126 -0.020847125
0001e0 75 ad 4f be 23 8c 2e 3e 70 c7 7b bd 7c 80 b7 3d
       -0.20281012 0.17045645 -0.061469495 0.08960053
0001f0 46 7e a6 3d fe 16 a3 bd 8f 7e c1 bd fc 6a 52 3d
       0.081295535 -0.0796337 -0.09447967 0.05137156

net.6.weight f4 [64, 128]
000000 7d 93 02 3e aa 20 d8 bd 07 40 2f 3e 6a 79 8f 3c
       0.12751575 -0.10553105 0.17114268 0.01751395
000010 b8 0f 13 be 25 25 e0 3d 86 00 58 3d 07 e5 35 3d
       -0.14361465 0.10944585 0.052734874 0.04440787
000020 23 11 65 bc 58 78 5c 3d 69 15 d0 3d 6c 0c 3a 3e
       -0.0139811365 0.053825706 0.10160334 0.18168801
000030 a7 d6 54 3d 5c ff 5c 3e 80 1e b5 3e 32 b6 81 3d
       0.05196252 0.21581787 0.35374832 0.06333579
000040 b8 dd 9f 3c 37 53 03 be ce 6f 1d bc 37 94 84 bd
       0.019514903 -0.12824713 -0.009609176 -0.06473582
000050 68 6b 98 bc e3 08 02 bf 96 2b 15 3e e0 30 7d be
       -0.018605903 -0.5079481 0.14567408 -0.24725676
000060 d4 c1 8a bb a0 a4 de bc 40 7e 06 3e be 28 0a 3d
       -0.004234532 -0.027178109 0.13134098 0.03373026
000070 22 b9 e3 3c 5a 71 9d 3d 95 13 d7 3d ce 8b 93 3d
       0.02779824 0.07687636 0.10501782 0.072044
000080 5f 88 46 be d4 52 0d bb 6b d9 eb bd 82 94 c4 bd
       -0.19387959 -0.0021564262 -0.115160786 -0.09598638
000090 2c 41 1f bd d6 f6 91 3d 7c 0d 1b bc d1 cc a5 3c
       -0.038880512 0.07127158 -0.009463664 0.020239266
0000a0 5f c5 3e 3d 74 c5 e3 bc fd fb 02 3d 26 b3 ea bd
       0.046574946 -0.027804114 0.031978596 -0.11459951
0000b0 1c bc 96 bc 84 a4 64 3e 6d e6 7b bc b5 95 dc 3d
       -0.018400244 0.22328383 -0.015374762 0.10770742
0000c0 ba 0b db 3c 43 32 04 be 1d 37 3d 3e 49 60 da 3d
       0.02673899 -0.12909798 0.18478055 0.10662896
0000d0 5d 0b 5a bd c8 6f 08 be 27 0a 4b 3e 33 5b 59 bc
       -0.053233493 -0.13323891 0.19828092 -0.0132663725
0000e0 16 df 40 be 4e bf 85 bd db 72 54 bd 6f e3 1e be
       -0.188351 -0.06530629 -0.051867347 -0.15516447
0000f0 36 6b b3 bd b3 dd b7 3d 6f 1e 1f bd 85 75 aa bd
       -0.08760683 0.08977833 -0.038847383 -0.08323196
000100 9d 8f 09 3e 62 25 49 3d 30 c1 e3 bd 78 0d 1a 3e
       0.1343369 0.049107917 -0.11120832 0.150442
000110 12 0e b1 bc 7f ad 86 bd 0e df 2c bd 81 cd 0e be
       -0.021613155 -0.065760605 -0.04220491 -0.13945581
000120 e0 1e 16 bd b6 15 2a 3d f3 ff e3 3b eb d5 8a 3d
       -0.03665054 0.04152461 0.0069580018 0.06779083
000130 5f f1 b7 bc 1f ac 67 3d 56 f4 d9 3d a1 21 ec 3c
       -0.022453962 0.05656063 0.106423065 0.02882463
000140 a1 84 04 be 64 c1 9c bb 79 3c e9 3d 0c 10 03 3a
       -0.12941219 -0.004783796 0.11388487 0.00049996446
000150 48 5b 9f bd 58 6e 86 bd 00 d0 3b 3e a5 83 d9 bc
       -0.077810824 -0.06564015 0.18341064 -0.02655203
000160 ab 1e d8 3d 77 85 3e bd b0 cc 8f 3b d0 e3 a9 bc
       0.105527245 -0.046514 0.0043884143 -0.020738512
000170 42 40 3f 3d 35 6a 8b bd b4 34 c2 bd 79 00 cd be
       0.04669214 -0.06807367 -0.094827086 -0.40039423
000180 e3 48 a7 bd d0 67 a2 3d 60 04 dc bd 11 dd 21 3e
       -0.08168199 0.07929957 -0.10743022 0.15806986
000190 c1 3f d4 3c d1 69 b0 bd 73 96 6a be a0 1b 32 3e
       0.025909306 -0.08613933 -0.22908954 0.1739335
0001a0 2e d7 c1 3d 6b 7f d2 bd 77 e6 cb bc 7c 5b 56 3b
       0.094648704 -0.10278209 -0.024890168 0.0032708338
0001b0 ee 6d 95 bb e1 d3 0e bd 18 3e a7 bd e3 7d d9 3d
       -0.004560224 -0.034870032 -0.0816614 0.10619714
0001c0 4c 2a 94 bd eb 29 d0 bd b0 7f e0 bc 56 67 ec bd
       -0.0723463 -0.10164245 -0.027404636 -0.11543147
0001d0 8e 6e 85 3c 39 f9 15 3e 90 ab c3 bd e3 a4 90 3d
       0.016288068 0.14645852 -0.09554207 0.070627
0001e0 4b 45 c4 bd 72 34 ae 3d 6a d6 d5 3b 65 71 c8 3d
       -0.09583529 0.08506097 0.0065258043 0.09787253
0001f0 15 13 c6 bc 00 5a 13 bd 94 c6 e1 bd 37 a0 0b be
       -0.02417902 -0.035974503 -0.11024204 -0.13635336
000200 a5 a6 8c 3d 03 5a 31 be f7 b5 d2 bc 9d 65 38 bd
       0.068677224 -0.17319493 -0.025721533 -0.04501878
000210 13 ec ad 3b 47 de 20 bd 4d 9b 43 3d d9 92 55 bb
       0.0053076833 -0.03927448 0.04775553 -0.0032588749
000220 19 7b c7 3d 3c cd 92 3b b0 31 b2 3d 23 2d 0e be
       0.09740276 0.0044800323 0.087008834 -0.13884406
000230 ae ad 13 bd ab 7e 22 bd 8b 75 19 be cf 6f af bd
       -0.036054306 -0.03967158 -0.14986245 -0.08566248
000240 9b ca c4 bb a7 eb 61 3e a9 5c 14 be d1 c0 fd 3d
       -0.0060055978 0.2206255 -0.14488472 0.123902924
000250 a7 ab 3e 3b 84 3b c7 be be 49 93 bd b2 08 9b bd
       0.0029094012 -0.38912594 -0.071917996 -0.07570018
000260 07 76 cf 3c 5c 5e 60 be c9 a6 fb bc 99 7d 2c bd
       0.025324835 -0.21910995 -0.030719178 -0.042111967
000270 ab 83 8f 3d 35 67 f5 bd 3c 61 a0 bd 9f b0 b7 3d
       0.070075355 -0.11982576 -0.07831046 0.08969235
000280 db 9a 41 3d 30 cc 61 bc 2d 70 8a bc 1b 5c 88 bc
       0.047266822 -0.013781592 -0.016899193 -0.016645482
000290 fd 12 89 3a 2a 36 a7 bc aa e2 55 3e d9 b9 5d bd
       0.001045793 -0.02041157 0.20887247 -0.054132316
0002a0 9b a9 9a bd ea 14 90 bd a4 9a 92 3e 6d 31 be bb
       -0.07551881 -0.07035239 0.28633606 -0.005804232
0002b0 8a ed 1f bd 7d c0 df bb 7f 4c 6d 3d a4 b7 98 3d
       -0.039044894 -0.0068283663 0.05793428 0.07456902
0002c0 76 c6 6e 3e 65 4c b9 3e 2a c8 ab bd 18 c2 c9 3d
       0.23317894 0.36191097 -0.08387788 0.098514736
0002d0 44 13 97 bd 4f 18 e2 3c 57 46 57 bd ba c8 b4 3b
       -0.073767215 0.027599482 -0.052557316 0.0055170925
0002e0 f6 37 0e be 2d 59 9f 3d 5c 8a 51 bd 5a 0c de 3d
       -0.13888535 0.07780681 -0.05115734 0.108421996
0002f0 e5 65 a6 bd f0 0b 3c bd 1b 56 50 be 84 c7 44 3c
       -0.081249036 -0.045909822 -0.20345347 0.012010459
000300 11 e8 75 3d a6 cb 92 3d 4c be 49 3e ec bf e2 3d
       0.06003577 0.07167749 0.19701499 0.110717624
000310 f5 47 30 3d c7 8e e8 3d d8 d3 c4 3c 18 0f 3a bd
       0.043037374 0.113553576 0.024026796 -0.04542455
000320 8f 4f 87 3d 6d 82 d2 bd ba 50 d5 bd 49 95 b7 bd
       0.066069715 -0.10278783 -0.10415788 -0.08964021
000330 60 07 9d 3d 9b df 38 bc bf 5e 36 3d ea 15 e6 3d
       0.07667422 -0.01128378 0.04452395 0.112346485
000340 f6 d4 89 ba 2c 60 fd 3d 3c 56 e5 3c 18 8a 7d bd
       -0.0010515738 0.12371859 0.027995221 -0.061899275
000350 55 c3 04 3e cf 16 8e 3d 17 97 c7 bb 5a b7 ef 3d
       0.12965138 0.06937944 -0.0060910094 0.117048934
000360 75 06 e0 3c c6 66 83 3d 95 f4 69 3c 47 9e 7a bc
       0.027346829 0.06416087 0.014279504 -0.015296525
000370 ae 1a d0 3d 91 28 27 3d d7 4a 24 bd c1 61 3d be
       0.10161339 0.04081017 -0.040110435 -0.18494321
000380 88 ec ea bd 3b 84 c5 bc 57 8b d2 3d 31 7f b9 bd
       -0.11470896 -0.024110904 0.10280483 -0.09057463
000390 7e e5 16 be 17 b9 52 3d f4 43 90 3e c4 21 62 3c
       -0.14735982 0.051446047 0.28176844 0.013801996
0003a0 1f 3c 11 3e 88 6a 35 3e 97 ea 89 3d 29 a3 6e bd
       0.1418309 0.1771642 0.067341976 -0.05826107
0003b0 32 f4 67 bd bc 8d 73 3d 01 00 8a 3e 90 a3 9b 3b
       -0.056629367 0.05946134 0.26953128 0.004749723
0003c0 3d f0 10 bd 9b ee 01 be bb ca 35 3d b2 c6 57 3d
       -0.03538536 -0.12688677 0.044382792 0.052679725
0003d0 2b c7 c6 3d 61 50 21 bd 8e 60 07 be d8 74 bb 3d
       0.09705957 -0.039383296 -0.13220426 0.091531456
0003e0 f9 7c 3b 3d e9 6f 75 3c bc e7 c0 3d e3 52 38 3e
       0.04577348 0.014980295 0.094192 0.18000369
0003f0 28 7d e2 bd 4d 56 b0 3d 58 b4 06 3e 6d 7e 97 3d
       -0.11059028 0.086102106 0.13154733 0.07397161

net.6.bias f4 [64]
000000 1c 68 7b 3e a9 69 87 bd ab 33 0a be 87 f8 29 3e
       0.24551433 -0.0661195 -0.13496272 0.16598712
000010 1e 9c ce bd 9f f7 1f bd 84 57 9f bc 3d 98 92 bd
       -0.10088371 -0.03905451 -0.01945091 -0.071579434
000020 00 53 81 3d 2f d0 e9 3d a6 29 3e bd bf 5e b0 bd
       0.06314659 0.11416661 -0.046426438 -0.086118214
000030 65 ec d0 3b 87 d4 db 3d 54 90 ab 3d b2 a6 8f bd
       0.0063758367 0.10733896 0.08377138 -0.070142165
000040 14 84 e1 bd ff e2 7a be 7b f3 50 be e6 e9 fd 3d
       -0.1101152 -0.24500655 -0.2040538 0.12398128
000050 b0 2f 80 bd 4d bc 09 be 68 0e 02 3e c5 b3 7a 3d
       -0.06259096 -0.13450737 0.12700808 0.061206598
000060 71 8a 12 3e 55 24 3a 3e 38 29 44 bd 85 a0 ac 3d
       0.14310624 0.18177922 -0.04789087 0.08429054
000070 91 25 93 3d db 60 6f bc 37 2c fa 3c db c8 88 3d
       0.071848996 -0.0146104945 0.030538661 0.06678935
000080 2b 54 04 3e 58 50 bb bd a7 64 25 3d b1 5e 8b 3d
       0.12922733 -0.09146184 0.040379193 0.0680517
000090 09 6d d5 bd d2 35 82 bd 2b 6a 45 bd 73 e0 9c bd
       -0.104211874 -0.06357922 -0.048196953 -0.07659998
0000a0 f7 9a 52 be d6 35 c7 bd af f5 f8 3d 76 f2 28 3d
       -0.20566927 -0.09727065 0.121562354 0.041246854
0000b0 aa 2d 9d bd be a6 73 3d 57 ad e1 3d 9d 48 d4 bb
       -0.07674725 0.05948519 0.1101939 -0.0064783827
0000c0 4e b8 7b bc b2 2c 32 be 9e 14 c5 bc c3 a1 cd 3d
       -0.015363766 -0.17399862 -0.024057683 0.10040619
0000d0 80 27 05 bc e5 40 a9 bc 98 38 fc 3d 97 9d 50 bd
       -0.008127093 -0.020660827 0.12315482 -0.05093154
0000e0 7e 3c 8c bd 4f e6 1c 3e d1 4f 1d 3d 3d f1 07 bd
       -0.068474755 0.15322231 0.038406197 -0.033189047
0000f0 90 a0 17 be 57 0e c0 bd b8 b0 d8 bd 00 47 6d be
       -0.14807343 -0.09377735 -0.105805814 -0.23171616

net.8.weight f4 [6, 64]
000000 a8 b4 48 3e 96 9b 87 3d 35 af 91 bd 2a a4 11 3e
       0.19600165 0.066214725 -0.07113496 0.1422278
000010 c6 41 99 bd c9 af dc bd 36 5e 51 be bd 2c d5 3d
       -0.074832484 -0.10775716 -0.20446095 0.10408924
000020 d8 7a 7d 3d 63 e9 ca 3b 62 3a 97 3d a4 48 ce 3d
       0.06188473 0.0061923726 0.073841825 0.10072449
000030 aa 6d da 3c aa 88 9d 3d 15 2b 72 be bb e0 28 bd
       0.02666362 0.07692082 -0.23649247 -0.041229945
000040 0b 3e 6d be d7 69 51 3d b0 d9 8f be ff a6 cf 3d
       -0.23168199 0.051126327 -0.2809577 0.10139274
000050 db 43 0f 3e 5d a1 8c 3d bc 6c 60 3d fb 4a b4 bd
       0.13990729 0.06866715 0.054791197 -0.08803364
000060 99 b1 3e be cc b7 03 3e e5 f5 17 be b4 1a fa 3d
       -0.18622436 0.12863082 -0.14839895 0.122121245
000070 f6 91 14 3e 17 f0 57 3e 30 15 ce 3d f4 01 78 be
       0.14508805 0.21087681 0.10062635 -0.24219495
000080 39 82 d8 3d 08 a7 f0 bd e4 17 f2 3c 6b f8 cc be
       0.10571713 -0.11750609 0.029552408 -0.40033278
000090 1b 72 82 be 1f f5 ac 3c 77 14 5e be 87 8e 94 be
       -0.2547768 0.021112977 -0.21687494 -0.2901499
0000a0 8c cc 55 3d d3 d2 73 3b 7c dc 01 3e 88 64 6f be
       0.052197024 0.0037204518 0.12681764 -0.23378193
0000b0 8c 8f 29 bd df 7f 3d 3e 48 07 3d 3e 4b 80 b3 3d
       -0.041396663 0.1850581 0.18459809 0.08764704
0000c0 e7 db 09 3e 7c 67 2e bd ff 61 9f bd db 5f 89 3d
       0.13462792 -0.04257916 -0.07782363 0.06707736
0000d0 d8 c1 1e be 2f 0a b4 be 99 c3 0c 3e d0 f3 59 bd
       -0.15503633 -0.3516402 0.1374649 -0.053211033
0000e0 9b fc 86 bd 08 09 98 bd 87 36 09 be b7 e3 24 3c
       -0.065911494 -0.074235976 -0.13399707 0.010064057
0000f0 78 a1 86 be 97 e6 2b bd 52 a6 93 3c da 31 8f be
       -0.26295066 -0.041967954 0.018023644 -0.2796772
000100 68 25 0f 3e 38 d2 99 3d 74 2c 51 be 03 a8 97 3c
       0.13979113 0.07510799 -0.20427114 0.018512731
000110 5e 2f 18 be 5e 15 fa bd e1 92 a7 bd a0 8c 11 3e
       -0.14861819 -0.12211107 -0.08182312 0.142138
000120 e5 0d c3 be f4 be 75 be b8 c9 80 bc fc 50 74 be
       -0.38096538 -0.23998624 -0.015721187 -0.23859018
000130 f2 f6 be 3d 75 48 1a 3e 99 ee c8 bd d8 39 86 bc
       0.09324445 0.15066703 -0.09811134 -0.016385004
000140 a2 4c 0f be c9 67 cd bd 25 98 23 bd a5 8a 54 be
       -0.13994077 -0.10029561 -0.03994002 -0.20756014
000150 80 13 93 be 82 1d 8b be 80 12 9e 3d 52 ae fc 3d
       -0.28725815 -0.2717095 0.07718372 0.123379365
000160 91 0e 0a 3e 10 84 73 3d d5 04 59 bd 51 96 ef 3c
       0.13482119 0.059452116 -0.052983124 0.029246481
000170 5f 79 64 3d 5f 9d 51 be 6b e3 9b bd 33 33 38 3e
       0.05577981 -0.20470189 -0.07611736 0.17988281
000180 2b 19 b0 3d 3c e4 eb be 02 cc b4 bc 7b 17 66 3e
       0.085985504 -0.46072567 -0.022069935 0.22469895
000190 b3 fd 1d bd 5b c0 8b 3d 38 58 08 be 7e 94 37 be
       -0.038572025 0.06823798 -0.13314903 -0.17927739
0001a0 06 90 8a bc 91 0a 25 be 17 fc 1c 3e 7a 61 ba bc
       -0.016914379 -0.16117312 0.1533054 -0.022751559
0001b0 e5 67 c9 3c ed b8 a8 bd 07 bc b0 3d 48 7f d6 bd
       0.024585674 -0.08238397 0.08629613 -0.10473496
0001c0 37 0e ce bd da 70 50 be a3 12 a2 3d 30 12 e7 3d
       -0.10061305 -0.2035555 0.07913711 0.11282766
0001d0 7e dd 17 bc de 12 60 3e 05 8e ad 3d 96 3c d2 3c
       -0.009269116 0.21882197 0.08474354 0.025663655
0001e0 b6 e9 4f bd 13 58 48 be a8 08 92 be c9 f5 52 3d
       -0.050759993 -0.19564848 -0.2852223 0.05150393
0001f0 67 b7 3f be 4c 02 8d be 65 1f f3 3d a3 01 f8 bd
       -0.18722306 -0.27540815 0.118712224 -0.12109687
000200 7f f5 cb 3d 3d 1b d0 3d c8 92 60 be 7f f7 9e be
       0.09958934 0.10161445 -0.21930993 -0.310482
000210 b6 53 2a bd 7b 3c 84 3d 23 51 21 3e 10 7d 84 3c
       -0.04158374 0.06456848 0.15753607 0.016172916
000220 c2 6b a9 bd 55 c7 58 be 83 e5 cc bd 92 d0 23 3e
       -0.08272506 -0.21169789 -0.100047134 0.15997532
000230 b9 fe c7 3d 4c 6b 29 3e 09 5e 02 3e 9b 0b d6 bd
       0.09765381 0.16544837 0.12731184 -0.10451432
000240 aa c6 bf 3d 6f 71 a6 be 8a b1 31 bd dd 2c 60 bb
       0.09364064 -0.32508418 -0.043382205 -0.0034206428
000250 6a fb 43 bd 52 9f 4f 3d c1 93 92 be db 26 6f 3e
       -0.04784719 0.05068905 -0.28628352 0.23354666
000260 31 3d 44 3e c5 6d cc 3c 82 95 a0 bd bd b8 08 3d
       0.19163968 0.024954686 -0.07841016 0.033379305
000270 99 4b 98 bd 51 2c 96 be 84 50 d6 3d 7c 96 4c 3e
       -0.07436294 -0.29330686 0.10464576 0.1997928
000280 b5 2c b8 be a9 4f de be 1b c2 5c 3c 20 b2 f8 3d
       -0.3597161 -0.4342015 0.013474013 0.1214335
000290 3d be 98 3d d9 46 fc 3c 80 6c f5 bd 47 0e c8 be
       0.0745816 0.030795502 -0.11983585 -0.39073393
0002a0 30 9a 9a be 2e dd 1b be 17 cf 8d 3d 7a 6c 5e 3e
       -0.3019576 -0.15221092 0.06924265 0.21721068
0002b0 46 3d 23 be fc ef 4c be db b4 3e bd c2 17 86 bd
       -0.15941343 -0.20013422 -0.046559196 -0.065475
0002c0 f4 2e f1 3d 90 bb 0f be e7 0b 96 be fe f4 03 3e
       0.11776534 -0.14036393 -0.29305956 0.12886426
0002d0 df cf c3 3d 6c 51 11 3c 65 ce 2d be e5 e9 03 be
       0.09561133 0.00886951 -0.16973265 -0.12882192
0002e0 d0 16 46 3e e8 79 1d 3e c7 77 22 3d 43 43 6c bc
       0.1934464 0.15378535 0.03966501 -0.014420333
0002f0 72 09 4c be 9f ca 1f 3e e5 c5 20 be e1 32 84 3d
       -0.19925478 0.15604638 -0.15700491 0.06455017
000300 8a 1f 44 3d 53 cc 5a be 57 48 83 bd a2 cc f1 3c
       0.04788164 -0.21367006 -0.06410282 0.029516522
000310 1c 2e 23 3e 2c 0a 7b bd 7d f1 00 3d fe 7c 70 bd
       0.15935558 -0.061288998 0.0314803 -0.05871295
000320 b6 d8 44 3e 18 ec 3c 3e 6e 33 ac bd 25 d3 70 be
       0.19223294 0.18449438 -0.08408247 -0.23518045
000330 ae 6b 8d 3d ab 01 cd be 80 ad db 3d 18 54 ba 3d
       0.06905304 -0.40040335 0.10726452 0.09098071
000340 15 97 93 3d 1d 97 57 bd 74 fb 14 be 3e 74 70 3d
       0.07206551 -0.052634347 -0.14549047 0.058704607
000350 f8 f2 5a 3d d1 9a c3 3d 2e 77 fe bc a6 4f be bd
       0.05345437 0.09551013 -0.031062689 -0.092925355
000360 8e 32 3d 3c c7 4e 2b be 95 5b 08 bd 11 c4 3c be
       0.011547698 -0.1672927 -0.033290464 -0.18434168
000370 68 b3 4d be e4 2e b5 bd 38 d4 10 be d0 bf 97 3d
       -0.2008797 -0.08846834 -0.14143455 0.07409632
000380 34 6f 88 bd f8 1a a2 3c f6 ee 54 3e df 7d 95 3d
       -0.06661835 0.01978825 0.20794281 0.07299399
000390 17 85 b6 3d ed 0b c6 bd 6e 92 c4 3d fd 65 24 3e
       0.089121036 -0.096702434 0.09598242 0.1605453
0003a0 b2 88 3c be 9c fa 41 bc d8 ab 8f be 6e 20 bc bd
       -0.1841152 -0.011839535 -0.28060794 -0.09185873
0003b0 03 7a 6c be 38 a5 0c be ae ce d6 3d 2c c1 4c be
       -0.23093419 -0.13734901 0.1048864 -0.19995564
0003c0 f6 d6 84 ba f2 be d4 3d f8 3d 3b be 42 a5 e4 bd
       -0.0010134864 0.103879824 -0.18285358 -0.11164333
0003d0 62 93 1b 3e a5 02 b5 3d bd e1 9d be 33 9b c2 3d
       0.15192941 0.08838395 -0.30836287 0.09502258
0003e0 e9 9c eb 3d 9d 2f cd 3d 89 f1 2a 3e a2 d6 ab 3c
       0.115045376 0.10018847 0.16693701 0.020976368
0003f0 15 ec cf bd 9d 7f f0 3c 8f e8 b5 bd f1 77 96 bd
       -0.10152451 0.029357726 -0.08882248 -0.07347096

net.8.bias f4 [6]
000000 9f 12 90 3d 4a 14 fc 3d a3 aa f8 bb 80 2c c7 bc
       0.07034802 0.12308557 -0.007588701 -0.024313211
000010 e4 77 5c be 0c 32 75 be
       -0.2153011 -0.23944873
