src/models/model.pth (torch, 231793 bytes, 8 tensors)

net.0.weight f4 [256, 60]
-0.11206455 -0.06995932 0.11102394 0.025823377 -0.14211132 0.13875468 -0.023929168 -0.14355229
0.117212854 0.0017603561 0.0015853888 -0.01661012 0.073913164 0.054288466 0.04306564 0.090371795
0.030486414 0.08548657 -0.08671287 0.0170968 -0.14140145 0.0016016958 -0.13458323 0.09396211
-0.09480265 0.12776072 0.053665414 -0.056351792 0.022347583 -0.077278644 0.11374291 -0.13072196
0.096252866 0.021635562 -0.157023 -0.13471682 -0.07018685 0.034832776 -0.045002658 0.043619797
-0.0637236 -0.06708759 0.07430551 -0.16470595 0.08103452 0.0155753 -0.19067758 -0.12066878
-0.14128543 0.14009793 -0.08735821 -0.048334353 0.14567019 -0.1149781 0.039555546 -0.20055439
0.02513793 -0.011142149 -0.2107194 -0.030689249 0.022022448 0.024504896 0.12500001 0.088541076
0.15332764 -0.09462271 -0.09286349 -0.04376467 0.09529444 -0.036093548 -0.16565712 -0.044459693
0.08954446 0.0626453 -0.13079885 -0.07487477 0.10988711 -0.059869837 -0.110107265 -0.18749833
-0.07802711 -0.18717739 -0.16096747 -0.043077216 -0.042644784 -0.13769835 -0.047172442 0.10820546
-0.1519794 -0.09709414 -0.07548901 -0.091583915 0.11743518 -0.07184443 -0.028434904 0.06552882
-0.14774708 -0.10667931 -0.036003467 0.13744424 -0.108518556 0.10963106 0.07425442 0.15412095
-0.026744656 -0.02897946 0.014428872 0.12757707 -0.06106179 0.0554864 -0.030637907 0.08764068
-0.049732424 -0.12238732 -0.08733866 0.068719335 0.048283223 -0.115875565 -0.11292003 0.074320234
0.024485515 -0.0652686 -0.011912924 0.22024648 -0.017156038 0.065172054 0.1407542 -0.10021435
-0.1632683 0.32548112 -0.058009803 -0.14832723 0.13762456 -0.03216344 0.12157403 -0.059916187
-0.11592182 -0.06890389 0.12627287 -0.14067636 0.106922336 0.124181025 -0.112727836 -0.014532863
0.12048891 0.1255034 -0.029357467 0.020999353 -0.08029525 -0.1210122 -0.08627144 -0.0020464829
-0.090615235 0.07749847 0.117508 -0.10324852 0.02913365 -0.021136 0.030266447 -0.047420017
-0.051787306 -0.039434846 -0.10588739 0.0063472614 0.14780994 -0.18458839 0.21965535 0.10823654
-0.028646844 -0.010791447 0.033020366 -0.1439485 0.024149172 0.08081084 -0.26071623 -0.17854348
-0.04401583 -0.35465214 -0.22712776 0.106708385 -0.09422321 -0.11620129 0.020400275 -0.11438335
-0.09743171 0.12605116 0.053401787 -0.0678749 0.048242457 -0.045084495 -0.15569048 -0.033410173
-0.09167229 -0.04040104 0.058131557 -0.1196773 0.10998961 -0.043635197 0.0024697059 0.34924227
-0.07672181 0.085263796 0.32589665 -0.088457145 -0.0019264872 -0.015683793 -0.13338113 0.09337044
-0.017034728 0.003834755 0.016604155 0.16421005 0.05268983 0.108183734 0.15030567 -0.0069837426
0.08076643 -0.16114494 0.05672469 -0.014300486 -0.17403208 -0.1148259 -0.10592433 0.030874282
-0.013657637 0.019064514 -0.12264813 0.140087 0.062412865 -0.09605369 -0.0008654496 -0.06909126
-0.043354854 0.08641372 -0.093512654 0.08202356 -0.0205107 -0.12519854 0.120159075 0.04654622
0.044147164 0.08942957 -0.08548669 0.07029538 0.07936775 -0.07774629 0.15748768 0.24964422
0.049515124 0.2810988 0.2312226 -0.12560768 0.08977427 0.03540656 0.16718362 -0.018517729
00000000: 1982 e5bd d546 8fbd 8560 e33d 8c8b d33c
00000010: a185 11be b515 0e3e 1a07 c4bc 5fff 12be
00000020: 4b0d f03d c0bb e63a d2cc cf3a f211 88bc
00000030: c95f 973d 955d 5e3d 9965 303d d914 b93d
00000040: a5be f93c 9513 af3d 8496 b1bd 970e 8c3c
00000050: 8bcb 10be feef d13a 30d0 09be 356f c03d
00000060: e427 c2bd b5d3 023e 44d0 5b3d 23d1 66bd
00000070: 4712 b73c 4444 9ebd 0bf2 e83d fadb 05be
00000080: 3920 c53d 103d b13c a3ca 20be 35f3 09be
00000090: 20be 8fbd d0ac 0e3d b554 38bd acaa 323d
000000a0: 8581 82bd 3865 89bd 7d2d 983d ada8 28be
000000b0: 6df5 a53d 8b2f 7f3c fc40 43be 3121 f7bd
000000c0: 21ad 10be d575 0f3e dce8 b2bd 3efa 45bd
000000d0: 912a 153e a379 ebbd ff04 223d 215e 4dbe
000000e0: 0fee cd3c 8f8d 36bc d4c6 57be 0568 fbbc
000000f0: 6c68 b43c 7ebe c83c 0100 003e 0655 b53d
00000100: ec01 1d3e 8dc9 c1bd 372f bebd 9542 33bd
00000110: bb29 c33d d4d6 13bd 05a2 29be 5e1b 36bd
00000120: 1663 b73d 2e4c 803d 22f0 05be f257 99bd
00000130: 7e0c e13d 133a 75bd eb7f e1bd 90ff 3fbe
00000140: adcc 9fbd 6eab 3fbe a8d4 24be bc71 30bd
00000150: 4cac 2ebd cc00 0dbe e437 41bd d39a dd3d
00000160: 7da0 1bbe 4bd9 c6bd fb99 9abd 5990 bbbd
00000170: db81 f03d 2c23 93bd 51f0 e8bc f933 863d
00000180: 034b 17be af7a dabd 5f78 13bd 2fbe 0c3e
00000190: fa3e debd 4086 e03d b412 983d e2d1 1d3e
000001a0: 9c17 dbbc 5566 edbc 1367 6c3c 90a3 023e
000001b0: ed1b 7abd b545 633d 59fc fabc f57c b33d
000001c0: 3ab4 4bbd 34a6 fabd 9dde b2bd b9bc 8c3d
000001d0: a1c4 453d 2b50 edbd 9e42 e7bd 3535 983d
000001e0: d995 c83c 8bab 85bd 6d2e 43bc 4b88 613e
000001f0: d28a 8cbc ed78 853d de21 103e 2e3d cdbd
00000200: ce2f 27be 76a5 a63e b09b 6dbd 18e3 17be
00000210: 74ed 0c3e d0bd 03bd cefb f83d ad6a 75bd
00000220: 6b68 edbd 7c1d 8dbd ad4d 013e 770d 10be
00000230: 19fa da3d 9f52 fe3d dadd e6bd 3f1b 6ebc
00000240: e4c2 f63d f783 003e 127f f0bc d606 ac3c
00000250: d671 a4bd 3fd5 f7bd 15af b0bd 491e 06bb
00000260: 7b94 b9bd 85b7 9e3d 09a8 f03d f673 d3bd
00000270: b1a9 ee3c 6825 adbc 57f1 f73c 7e3b 42bd
00000280: ed1e 54bd 6f86 21bd 7ddb d8bd b0fc cf3b
00000290: 7d5b 173e bd04 3dbe 55ed 603e 1eab dd3d
000002a0: c9ac eabc 9cce 30bc 5d40 073d 3c67 13be
000002b0: 7cd4 c53c 2780 a53d 997c 85be 1ad4 36be
000002c0: f149 34bd f794 b5be 2e94 68be ed89 da3d
000002d0: 19f8 c0bd f1fa edbd 7a1e a73c d141 eabd
000002e0: 478a c7bd 8e13 013e d5bb 5a3d ff01 8bbd
000002f0: e299 453d 85aa 38bd 536d 1fbe 1bd9 08bd
00000300: aebe bbbd 907b 25bd 5b1b 6e3d 5f19 f5bd
00000310: 3c42 e13d d2ba 32bd cada 213b e2cf b23e
00000320: 5320 9dbd c99e ae3d eddb a63e 0529 b5bd
00000330: 2f82 fcba 4c7b 80bc 1095 08be 0039 bf3d
00000340: 6a8c 8bbc 8350 7b3b 7005 883c ae26 283e
00000350: 4bd1 573d 6f8f dd3d bbe9 193e e1d7 e4bb
00000360: df68 a53d 2e03 25be 2658 683d 964c 6abc
00000370: 7735 32be d729 ebbd dbee d8bd 10ec fc3c
00000380: 48c4 5fbc 2f2d 9c3c f12e fbbd f772 0f3e
00000390: a2a4 7f3d ccb7 c4bd 57df 62ba b87f 8dbd
000003a0: dc94 31bd adf9 b03d 9083 bfbd f8fb a73d
000003b0: 0e06 a8bc 0c34 00be f615 f63d 40a7 3e3d
000003c0: a8d3 343d da26 b73d a513 afbd 06f7 8f3d
000003d0: 8f8b a23d 7239 9fbd 7344 213e bca2 7f3e
000003e0: 5fd0 4a3d 2fec 8f3e 9ec5 6c3e 4d9f 00be
000003f0: 93db b73d 7806 113d 2f32 2b3e 7eb2 97bc

net.0.bias f4 [256]
-0.0022924526 0.05948659 0.049769092 0.0255565 0.13705803 0.046240065 0.16881272 0.11803871
-0.01139223 -0.0523916 0.09999888 -0.08974717 -0.19311957 -0.12201947 -0.13342412 -0.16862923
-0.061573826 0.0974269 0.014518558 0.04133388 -0.12928303 0.09651866 0.14922786 -0.04688242
-0.043909013 0.14467372 0.03924459 -0.012907936 0.009051217 -0.13305342 0.036435045 -0.09872816
0.19519012 -0.015119553 0.14554067 -0.06582138 0.017161835 -0.10200603 0.028077502 -0.098184146
-0.22934042 0.21104027 0.1664771 -0.06893919 -0.11471889 0.031449344 0.017125532 -0.0029397497
-0.17706138 0.0931381 0.06095747 -0.17671001 0.058616586 -0.19099906 -0.11140633 -0.10825206
-0.060872532 0.07887181 0.042022888 -0.010035572 -0.0035224492 0.02448426 0.21576941 0.06298412
0.017457997 -0.05951721 -0.06807405 0.027275424 0.16852161 -0.03186859 -0.086033925 -0.106497444
-0.06350341 0.011530338 -0.0059992224 0.023286022 0.20428659 -0.03137403 0.040745225 0.044188544
0.007872586 0.116689175 -0.06040104 -0.09734748 0.049222555 -0.07163554 -0.083591715 0.05768488
-0.022729365 -0.069833234 -0.14100651 -0.0032847396 -0.015146713 0.053879015 -0.15427537 -0.16117632
-0.08601522 0.07062133 -0.05462992 0.032831162 -0.12453044 0.13238086 0.13300177 0.007009988
0.15510051 -0.0020895032 0.042775262 -0.078649856 0.1686643 -0.03687522 0.0074805995 0.033537537
0.10790786 -0.023578456 -0.060903084 -0.15502642 0.10176984 -0.111549065 0.034943894 0.0015113031
0.16901755 0.09663057 0.062062666 -0.14605835 -0.06737529 -0.009313163 0.24762404 -0.04783765
0.20732358 0.07591467 -0.16120827 0.20217417 0.008727786 0.05455701 0.21044838 0.008733624
0.023848426 0.19191831 -0.09145526 0.05681918 -0.07918872 -0.096127324 -0.03176618 -0.079202496
0.121909015 0.060446475 -0.07770178 -0.0087338025 -0.0963741 -0.071349554 0.19881442 -0.27467147
-0.0025226977 -0.16374995 -0.0069721406 -0.044788398 -0.019463165 0.21405885 -0.031039894 -0.14913552
0.17567733 -0.05242453 -0.030854845 0.14325146 0.028897341 0.094627105 -0.10743796 -0.072855584
-0.021402668 -0.07658997 0.091169395 -0.022805367 -0.06826717 0.11304939 0.014614524 -0.1568231
0.039908506 0.03742452 -0.08465319 0.038903996 0.0669574 -0.096017666 -0.14800593 -0.032239016
-0.033841807 -0.19015771 -0.012136147 0.020009207 0.06140249 0.16969241 -0.03382262 -0.118970186
-0.07818745 0.004573833 -0.15511684 0.025319653 -0.0022895632 -0.056046374 0.22951911 0.08212352
-0.023906423 -0.0042159585 -0.010477679 0.10528727 -0.10118042 -0.12632462 0.12938698 -0.11855895
0.0015733258 -0.004027142 -0.11759169 -0.118347324 0.03218037 -0.1110994 -0.014605066 -0.024830045
0.07997268 -0.07312902 -0.00014072967 -0.011085546 -0.15299639 0.16676426 -0.051616997 -0.094721556
0.10001514 -0.12579884 0.07119341 0.13987723 0.119522326 0.16361368 0.008922284 -0.17918585
-0.09327744 -0.08642739 -0.12914698 -0.103500046 -0.12752876 -0.048502833 -0.023785027 0.0040858155
0.19906871 0.016265366 -0.03869455 0.090386316 0.017817117 0.10544456 -0.047830302 0.11187199
-0.123139635 -0.15379713 0.17404531 0.07245613 0.00040502823 -0.18151133 -0.0009918789 -0.14858225
00000000: f93c 16bb 36a8 733d adda 4b3d dd5b d13c
00000010: f158 0c3e 3966 3d3d 3edd 2c3e 47be f13d
00000020: 7aa6 3abc 9398 56bd 36cc cc3d 5dcd b7bd
00000030: 23c1 45be 58e5 f9bd 55a0 08be 24ad 2cbe
00000040: d634 7cbd c187 c73d 3fdf 6d3c b74d 293d
00000050: c562 04be 93ab c53d 30cf 183e c807 40bd
00000060: f0d9 33bd 5925 143e efbe 203d cf7b 53bc
00000070: 8e4b 143c 283f 08be ea3c 153d fd31 cabd
00000080: ebdf 473e 00b8 77bc 9d08 153e 5ccd 86bd
00000090: fa96 8c3c 8ae8 d0bd ca02 e63c c514 c9bd
000000a0: 37d8 6abe f11a 583e f978 2a3e fd2f 8dbd
000000b0: bdf1 eabd 07d1 003d d84a 8c3c d1a8 40bb
000000c0: 944f 35be 30bf be3d 8aae 793d 78f3 34be
000000d0: f217 703d 4295 43be 0029 e4bd 42b3 ddbd
000000e0: 7a55 79bd 8b87 a13d 3120 2c3d 3d6c 24bc
000000f0: e4d8 66bb 3793 c83c a8f2 5c3e d1fd 803d
00000100: 1304 8f3c 51c8 73bd 686a 8bbd b670 df3c
00000110: ee90 2c3e a388 02bd 8e32 b0bd 551b dabd
00000120: 130e 82bd bee9 3c3c 2095 c4bb 54c2 be3c
00000130: 8130 513e 0e82 00bd 77e4 263d 0cff 343d
00000140: 05fc 003c bcfa ee3d 1567 77bd 1e5e c7bd
00000150: 979d 493d a7b5 92bd 2232 abbd fb46 6c3d
00000160: ef32 babc ba04 8fbd 0364 10be c944 57bb
00000170: eb29 78bc 3eb0 5c3d 5dfa 1dbe 680b 25be
00000180: bf28 b0bd eaa1 903d 9fc3 5fbd f879 063d
00000190: d109 ffbd d98e 073e 9e31 083e 0bb4 e53b
000001a0: abd2 1e3e 0cf0 08bb 1d35 2f3d 2d13 a1bd
000001b0: 56b6 2c3e 780a 17bd d11f f53b a85e 093d
000001c0: ccfe dc3d 9b27 c1bc 8375 79bd 3fbf 1ebe
000001d0: b56c d03d d673 e4bd 5421 0f3d eb16 c63a
000001e0: f012 2d3e 40e6 c53d 6c35 7e3d 5290 15be
000001f0: 0efc 89bd 3d96 18bc 2891 7d3e 69f1 43bd
00000200: a24c 543e 2779 9b3d c813 25be bf06 4f3e
00000210: fdfe 0e3c 2c77 5f3d c87f 573e 7917 0f3c
00000220: c65d c33c 3c86 443e e54c bbbd 3abb 683d
00000230: b22d a2bd 67de c4bd 411d 02bd eb34 a2bd
00000240: 6fab f93d b996 773d 1c22 9fbd 3918 0fbc
00000250: c95f c5bd b71f 92bd 0296 4b3e bda1 8cbe
00000260: d853 25bb 11ae 27be 8e76 e4bb 0a74 37bd
00000270: 3771 9fbc 3e32 5b3e 6047 febc fbb6 18be
00000280: c2e4 333e 1bbb 56bd 4dc3 fcbc 83b0 123e
00000290: 1eba ec3c dbcb c13d 6f08 dcbd 4f35 95bd
000002a0: a654 afbc 34db 9cbd 05b7 ba3d 52d2 babc
000002b0: a8cf 8bbd 7086 e73d c271 6f3c 3c96 20be
000002c0: 1a77 233d 744a 193d a75e adbd cc59 1f3d
000002d0: f620 893d e9a4 c4bd de8e 17be 0f0d 04bd
000002e0: b59d 0abd b4b8 42be b1d6 46bc 59ea a33c
000002f0: 2d81 7b3d d9c3 2d3e 9689 0abd a4a6 f3bd
00000300: be20 a0bd 18e0 953b f3d6 1ebe 296b cf3c
00000310: 7f0c 16bb e290 65bd 0f07 6b3e 6030 a83d
00000320: 67d7 c3bc 0626 8abb 92aa 2bbc daa0 d73d
00000330: ae37 cfbd 3e5b 01be 057e 043e 09cf f2bd
00000340: 0e38 ce3a 1ef6 83bb e9d3 f0bd 1560 f2bd
00000350: 90cf 033d 1588 e3bd 164a 6fbc 6168 cbbc
00000360: b7c8 a33d abc4 95bd d590 13b9 26a0 35bc
00000370: 16ab 1cbe 40c4 2a3e 586c 53bd 60fd c1bd
00000380: bdd4 cc3d 69d1 00be dacd 913d fa3b 0f3e
00000390: 1fc8 f43d 588a 273e c52e 123c 7f7c 37be
000003a0: 3e08 bfbd d800 b1bd 1b3f 04be d5f7 d3bd
000003b0: e696 02be e8aa 46bd d1d8 c2bc 4ee2 853b
000003c0: abd8 4b3e f23e 853c 2d7e 1ebd 761c b93d
000003d0: 34f5 913c 51f3 d73d b5e9 43bd 241d e53d
000003e0: a230 fcbd ff7c 1dbe ef38 323e e163 943d
000003f0: f859 d439 1bde 39be ef01 82ba f225 18be

net.3.weight f4 [128, 256]
-0.10200579 0.006303806 0.0630817 -0.12396419 0.03720064 0.018617226 -0.050965954 -0.0356757
0.043392025 0.048860658 0.055911366 0.14049129 -0.07109125 -0.00039683285 0.110197686 -0.10253615
-0.09314407 0.05950845 -0.03278757 0.0027773948 -0.097646944 0.004335532 0.11120727 0.028766407
-0.058566105 -0.0071309437 0.0044717873 -0.0018316974 -0.023026008 -0.09154662 0.051109865 0.10327999
0.0076666735 0.08835859 -0.0030868405 -0.03868853 0.0037155263 0.048652884 0.13002732 -0.0776373
-0.06225633 -0.1030049 0.004282256 0.052117996 0.12711906 -0.082366265 -0.053091407 0.009958906
-0.0090464605 0.056756176 -0.14323604 -0.036546223 0.024003584 -0.0025868374 -0.06483171 -0.021433445
0.026864316 -0.06792034 -0.06630641 0.004766442 0.027745623 -0.021719785 0.026040878 -0.023306314
0.0027602972 -0.04622225 0.07144049 -0.005471995 -0.03907963 -0.025626691 0.008721465 0.021602355
-0.033318594 -0.07469825 -0.018380785 -0.09255858 0.09491829 0.06023781 0.0048484737 -0.031935185
-0.14287944 0.019351576 -0.13680601 -0.019590357 0.005942305 -0.0038343105 0.032908898 -0.09694287
-0.096431226 -0.07427862 0.0074047106 0.034480914 -0.10433511 0.028277827 -0.046688262 0.024204157
0.105500385 0.07151144 -0.040765602 -0.013341683 0.011469903 0.07238423 -0.1778995 0.097520515
0.047006838 -0.10322763 -0.0149643775 -0.021898508 -0.1319713 -0.021160088 -0.092059664 0.048329934
0.041518662 0.02857998 0.03156829 0.01400609 -0.039450206 -0.054629218 -0.012790146 0.009804932
0.06986888 0.01674275 0.058782574 -0.026691422 0.022918137 0.095720306 0.0116298925 0.045377593
0.09498953 -0.0029854637 -0.097282596 0.026588028 0.016292099 -0.012883829 -0.084864825 -0.0036892106
-0.04963205 0.0011266742 0.024531266 0.12934196 0.033962432 -0.061608184 0.019481841 -0.09293362
0.11048003 -0.00388861 -0.07408203 0.039131742 0.003273925 -0.042941466 0.084635966 0.034091193
-0.064912006 -0.15934919 -0.0027648667 0.056996673 -0.0014670762 -0.060466822 -0.092027165 0.009507875
0.119833805 -0.03968025 0.00671394 0.06898734 -0.05883377 0.05265131 -0.045835264 -0.035810463
-0.09094096 -0.09677248 0.00056299206 0.004021223 0.04869083 -0.0559213 0.009565936 -0.07156607
-0.033198204 -0.0487578 0.008422447 -0.074626066 -0.09343564 -0.0031473364 -0.029696917 -0.007865408
-0.103997044 0.030363696 -0.10048837 -0.035529003 -0.037779126 -0.037497822 -0.003347554 0.13022208
-0.0822194 -0.037885323 -0.003999569 0.043187313 -0.011189279 -0.0942854 -0.0049202265 -0.06217396
-0.06845698 0.01366548 0.03137229 0.03523642 -0.120019235 -0.039895218 0.13472024 0.021529177
-0.022440113 -0.006225955 -0.02101333 -0.0468627 -0.13434105 -0.015786335 0.009176624 -0.035758168
-0.12358281 -0.098796606 -0.12656534 -0.10866916 -0.12096552 -0.086865455 -0.18277311 -0.036373995
-0.13159734 0.024444297 -0.0090113925 0.049178418 -0.103167325 0.044943538 -0.025803741 0.031561106
0.056832056 0.0019325472 0.07828639 -0.13091622 -0.097204626 -0.14837116 0.06273114 0.13579082
-0.08333341 -0.031179413 -0.15336724 0.1146592 -0.09577544 -0.025237508 -0.081666 0.05963759
0.031152692 -0.079208165 -0.031293552 0.015275866 -0.0686218 -0.020746514 -0.028065465 0.0061874813
00000000: 69e8 d0bd 2890 ce3b fa30 813d f0e0 fdbd
00000010: b35f 183d 2783 983c adc1 50bd af20 12bd
00000020: d6bb 313d 1d22 483d 5103 653d f3dc 0f3e
00000030: 4a98 91bd 010e d0b9 53af e13d 79fe d1bd
00000040: 51c2 bebd 22bf 733d 424c 06bd f404 363b
00000050: 1ffb c7bd 1411 8e3b a3c0 e33d 87a7 eb3c
00000060: 03e3 6fbd b1aa e9bb 1288 923b 9115 f0ba
00000070: 0aa1 bcbc cb7c bbbd 9458 513d 7684 d33d
00000080: b838 fb3b 59f5 b43d 974c 4abb dd77 1ebd
00000090: 3080 733b 3f48 473d e225 053e 4e00 9fbd
000000a0: 7e00 7fbd 3cf4 d2bd 2b52 8c3b ae79 553d
000000b0: 802b 023e a5af a8bd 6076 59bd ae2a 233c
000000c0: 9b37 14bc 2a79 683d 78ac 12be 7eb1 15bd
000000d0: 2aa3 c43c ee87 29bb 7dc6 84bd 3195 afbc
000000e0: 8e12 dc3c d219 8bbd a8cb 87bd d02f 9c3b
000000f0: ca4a e33c b1ed b1bc ae53 d53c e2ec bebc
00000100: 1ae6 343b 8b53 3dbd 644f 923d 6c4e b3bb
00000110: f611 20bd 11ef d1bc 7ae4 0e3c 6cf7 b03c
00000120: 1479 08bd 65fb 98bd 4d93 96bc 5a8f bdbd
00000130: 8564 c23d ecbb 763d f2df 9e3b 78ce 02bd
00000140: fd4e 12be 3287 9e3c e016 0cbe f57b a0bc
00000150: abb7 c23b 0e49 7bbb 7bcb 063d fc89 c6bd
00000160: bc7d c5bd 641f 98bd 37a3 f23b dc3b 0d3d
00000170: a5ad d5bd e7a6 e73c 313c 3fbd cc47 c63c
00000180: 9610 d83d 9774 923d d5f9 26bd 1397 5abc
00000190: 43ec 3b3c 2f3e 943d 492b 36be d6b8 c73d
000001a0: 3e8a 403d 0269 d3bd 262d 75bc 8064 b3bc
000001b0: 7c23 07be ec57 adbc c789 bcbd 9cf5 453d
000001c0: 790f 2a3d 9020 ea3c c04d 013d cd79 653c
000001d0: 8a96 21bd e3c2 5fbd c38d 51bc dea4 203c
000001e0: 6a17 8f3d 1728 893c ffc5 703d f8a7 dabc
000001f0: d1be bb3c 0209 c43d 4e8b 3e3c dbdd 393d
00000200: df89 c23d c5a7 43bb 193c c7bd 23cf d93c
00000210: 0277 853c b216 53bc 9ccd adbd afc6 71bb
00000220: fa4a 4bbd eaac 933a cbf5 c83c 3872 043e
00000230: 311c 0b3d dd58 7cbd 6298 9f3c fb53 bebd
00000240: 5b43 e23d 0dd8 7ebb 52b8 97bd 9b48 203d
00000250: 598f 563b 64e3 2fbd 9f55 ad3d 35a3 0b3d
00000260: 96f0 84bd 6f2c 23be c432 35bb 5875 693d
00000270: e94a c0ba 0fac 77bd bd78 bcbd ebc6 1b3c
00000280: 6d6b f53d c287 22bd 9c00 dc3b 3c49 8d3d
00000290: aefb 70bd e6a8 573d c2bd 3bbd fead 12bd
000002a0: 413f babd a630 c6bd c295 133a 77c4 833b
000002b0: 0970 473d bc0d 65bd 72ba 1c3c 3b91 92bd
000002c0: d7fa 07bd 42b6 47bd 4efe 093c 8dd5 98bd
000002d0: 2f5b bfbd 8b43 4ebb f346 f3bc eadd 00bc
000002e0: 67fc d4bd 49bd f83c d9cc cdbd dc86 11bd
000002f0: 49be 1abd 5197 19bd a362 5bbb f058 053e
00000300: a562 a8bd a42d 1bbd d10e 83bb 2ee5 303d
00000310: 3d53 37bc b418 c1bd da39 a1bb 1faa 7ebd
00000320: 2c33 8cbd 2de5 5f3c 3b80 003d 1054 103d
00000330: a5cc f5bd 2b69 23bd 1af4 093e f55d b03c
00000340: 54d4 b7bc 1903 ccbb 2624 acbc 1af3 3fbd
00000350: b390 09be 5852 81bc 8d59 163c 2877 12bd
00000360: fc18 fdbd e055 cabd 589a 01be f08d debd
00000370: c5bc f7bd 84e6 b1bd e028 3bbe e6fc 14bd
00000380: 74c1 06be 683f c83c 85a4 13bc 4f6f 493d
00000390: 6449 d3bd b716 383d 5e62 d3bc 3846 013d
000003a0: bbc8 683d 864d fd3a 9d54 a03d e70e 06be
000003b0: 3813 c7bd 9cee 17be 2f79 803d c00c 0b3e
000003c0: b5aa aabd f86b ffbc 4d0c 1dbe 71d2 ea3d
000003d0: ea25 c4bd e4be cebc 8140 a7bd 8c46 743d
000003e0: ee33 ff3c e437 a2bd ab2d 00bd a047 7a3c
000003f0: 9689 8cbd 98f4 a9bc 8ce9 e5bc 5bc0 ca3b

net.3.bias f4 [128]
0.06923324 -0.068091065 0.034186143 -0.050967716 0.035405297 0.04764546 0.034976274 0.052378457
-0.045420777 0.0013704327 0.099231675 0.121400476 0.061228234 0.029094778 0.02010856 -0.10874945
0.08044683 0.06435144 0.13274236 0.04741932 0.03688889 0.04570457 -0.02050401 0.10762874
0.018401843 0.10665474 -0.10934944 0.09927207 0.065778576 -0.0051223086 0.019698443 0.09104364
0.069547005 0.03861525 -0.049087346 0.077275015 0.089345016 -0.032110367 0.026824433 0.05292305
-0.0120111 -0.09560625 0.0007699845 0.050296415 -0.021526791 0.0058020125 -0.02512874 0.10954833
-0.11430363 0.1308525 -0.0680646 0.10608635 -0.015211776 0.13230048 -0.059415072 0.027727658
0.022468038 0.056481335 -0.0802741 0.10522838 0.00863325 -0.0262955 -0.11219795 0.028271561
-0.013432194 0.06796205 0.04544383 0.05386789 0.06542935 -0.0189175 0.064684995 0.021675102
0.04379325 0.08981438 0.076275416 -0.0720487 0.03579215 0.0026131824 -0.078624114 -0.108377285
-0.025844961 0.09257107 0.12370045 0.1078277 0.10324272 0.08101887 -0.12810937 -0.02747228
0.015392668 0.116462804 0.014851668 0.0438173 0.09996495 0.098143235 -0.008628233 -0.07689837
0.0006518192 0.08442375 0.085789986 -0.04478519 0.03290405 -0.09076857 0.042057633 -0.050549664
0.03621216 0.0141287455 0.03778922 0.08455591 -0.030273346 -0.014954623 0.14691645 -0.0749116
0.06407992 0.0057762144 -0.083655395 -0.08780458 0.035287026 -0.039848637 -0.023793466 -0.081730776
-0.0031212869 0.010691605 -0.08812287 0.047898863 0.019615894 -0.054958157 0.045708332 -0.019384064
00000000: 28ca 8d3d 5473 8bbd c506 0c3d 86c3 50bd
00000010: 2505 113d e327 433d 4843 0f3d cb8a 563d
00000020: 230b 3abd 17a0 b33a fa39 cb3d d0a0 f83d
00000030: 75ca 7a3d 2c58 ee3c b5ba a43c 08b8 debd
00000040: 4fc1 a43d b0ca 833d 9ded 073e c33a 423d
00000050: ce18 173d b734 3b3d 07f8 a7bc 756c dc3d
00000060: 76bf 963c cd6d da3d 99f2 dfbd 284f cb3d
00000070: ebb6 863d 0ad9 a7bb a15e a13c 1775 ba3d
00000080: a96e 8e3d 062b 1e3d d00f 49bd 5d42 9e3d
00000090: 85fa b63d 2986 03bd eabe db3c d7c5 583d
000000a0: 34ca 44bc 36cd c3bd c9d8 493a 9d03 4e3d
000000b0: f458 b0bc cf1e be3b cada cdbc e05a e03d
000000c0: 0618 eabd 33fe 053e 7465 8bbd cd43 d93d
000000d0: d03a 79bc c779 073e 385d 73bd 1d25 e33c
000000e0: e40e b83c f958 673d bf66 a4bd fa81 d73d
000000f0: 7a72 0d3c a969 d7bc 0ac8 e5bd c399 e73c
00000100: b412 5cbc b02f 8b3d 4f23 3a3d 94a4 5c3d
00000110: d3ff 853d dff8 9abc 9179 843d fc8f b13c
00000120: 8d60 333d 9af0 b73d 4936 9c3d 458e 93bd
00000130: ca9a 123d ed41 2b3b ae05 a1bd e9f4 ddbd
00000140: d0b8 d3bc e795 bd3d a956 fd3d c5d4 dc3d
00000150: eb70 d33d 39ed a53d 1a2f 03be 8c0d e1bc
00000160: 8731 7c3c 0d84 ee3d 6954 733c c579 333d
00000170: 6cba cc3d 52ff c83d 6f5d 0dbc e57c 9dbd
00000180: d9de 2a3a 5ce6 ac3d a9b2 af3d ad70 37bd
00000190: 66c6 063d dfe4 b9bd a044 2c3d 2a0d 4fbd
000001a0: 3453 143d 417c 673c dfc8 1a3d a62b ad3d
000001b0: cfff f7bc 3c04 75bc 4471 163e 416b 99bd
000001c0: 553c 833d 6646 bd3b 8553 abbd e3d2 b3bd
000001d0: 2189 103d 5338 23bd 84ea c2bc 7762 a7bd
000001e0: 818e 4cbb d72b 2f3c c379 b4bd 9931 443d
000001f0: 83b1 a03c ce1b 61bd a938 3b3d 54cb 9ebc

net.6.weight f4 [64, 128]
-0.0871646 -0.057783335 -0.12157468 -0.009318225 -0.13673592 0.11896986 0.11996531 -0.0972288
0.08383761 -0.0467089 0.1498341 0.010239157 -0.13791007 -0.08048878 0.054338235 -0.0875376
0.10177033 0.07192364 0.11142199 0.007519403 -0.13696314 0.012851062 -0.05638319 -0.11033815
0.04376937 0.025497211 -0.09304086 0.044415165 0.12636146 -0.16754276 -0.08095814 -0.031605735
0.09527605 -0.022483513 -0.068701856 0.022953523 -0.10511183 -0.01963417 -0.041140974 -0.13211197
-0.12132318 -0.24061498 0.10995579 0.066762805 -0.02265962 -0.1791691 0.012951932 -0.006263836
-0.110218525 0.03886662 -0.13350661 -0.054740407 0.123956084 -0.03981142 0.017287668 0.059304494
0.13303357 0.008381219 -0.05430491 -0.0372049 0.07067062 -0.036144473 0.05621225 -0.052649613
-0.033510696 -0.038830295 -0.050864298 -0.02493965 0.0681616 -0.07526444 0.09466315 -0.10842932
0.0027077417 0.15421887 -0.08585796 0.050260425 0.01190607 -0.054667056 0.060914267 -0.018552588
-0.039643604 -0.0809079 -0.07683929 0.09827132 0.017938357 -0.029269487 -0.111097984 0.09632148
0.07174539 -0.0552975 -0.05533405 -0.16961312 0.06615453 -0.043628827 -0.023887232 -0.010268985
-0.09678122 0.11267466 0.10155426 0.01735822 0.030281428 -0.08991332 -0.042915147 -0.08023872
0.088400744 0.0515741 0.116620876 0.008643264 -0.01860065 0.12671423 0.07190483 0.018760178
0.10587947 -0.091193676 -0.03469184 -0.17902093 -0.006031385 -0.043867577 0.09062244 -0.1050846
-0.049405668 0.09222842 -0.05140968 0.0663008 0.025120324 0.020948384 0.002783899 -0.045903336
0.13526867 0.08812106 0.0072020073 -0.12144134 0.08035614 -0.13649204 -0.10760191 0.062475972
0.06944694 0.08466006 -0.0011130413 0.009866523 0.089622505 0.0044118827 0.10611956 0.20341232
-0.08044105 0.014858265 -0.19164166 -0.124910474 -0.03680196 -0.088672884 -0.03926319 0.10462723
0.018691277 0.086479 0.11738996 -0.023792766 -0.19052711 0.07580885 0.082635194 0.035043474
0.019484857 -0.038702168 0.013472237 -0.13845685 0.16217974 0.15303245 0.08633784 0.1419947
0.0014571763 0.15553537 0.064227134 -0.13055357 0.1146246 -0.053975184 0.06266856 0.034935765
0.074849725 0.041793656 -0.031299513 -0.091476195 -0.10147395 -0.053436074 -0.05085775 -0.032816555
-0.05588538 -0.021738451 -0.016684573 -0.12915528 -0.06667985 0.08937772 0.042788133 0.111875474
0.0342668 -0.06646225 0.038735975 0.06833266 -0.045057237 0.103730716 -0.11467859 -0.014204228
-0.0040607713 -0.10455834 0.058495045 -0.059654262 0.07931462 0.026090866 -0.042212334 0.053792216
-0.035884306 0.024613535 -0.049585827 0.0018852471 0.05205503 -0.007926715 0.22289842 0.020870365
-0.070932314 -0.043516085 -0.08128311 0.122838914 -0.04622451 -0.05975429 -0.034288526 0.019412996
-0.07504612 -0.14299513 0.044656586 -0.2396889 -0.02320775 0.08716219 0.02252839 0.08837468
-0.07606571 0.023863528 0.034051258 -0.12112952 0.027474588 -0.008475797 0.005094275 -0.06653466
-0.04762032 -0.03322945 0.044170104 0.2176768 0.0012703146 0.08971643 0.002436582 -0.009023
0.07760137 0.04369212 0.08148391 -0.006281087 0.114555925 -0.04170787 0.08505105 -0.0054926025
00000000: 5b83 b2bd 38ae 6cbd 25fc f8bd 78ab 18bc
00000010: 8004 0cbe 78a6 f33d 5fb0 f53d e51f c7bd
00000020: 0eb3 ab3d d551 3fbd 1c6e 193e 23c2 273c
00000030: 4c38 0dbe 4dd7 a4bd c591 5e3d ea46 b3bd
00000040: f66c d03d b44c 933d 3631 e43d 5365 f63b
00000050: 1140 0cbe 438d 523c 0ff2 66bd f8f8 e1bd
00000060: 8347 333d 87df d03c 358c bebd adec 353d
00000070: e664 013e 5490 2bbe 62cd a5bd 0475 01bd
00000080: 1720 c33d 582f b8bc 8fb3 8cbd 0709 bc3c
00000090: df44 d7bd d7d7 a0bc 7083 28bd 5c48 07be
000000a0: 4a78 f8bd c663 76be 8030 e13d f0ba 883d
000000b0: aba0 b9bc 1b78 37be 5734 543c dd40 cdbb
000000c0: 40ba e1bd 9b32 1f3d f5b5 08be 7a37 60bd
000000d0: b0dc fd3d 4d11 23bd de9e 8d3c 45e9 723d
000000e0: f439 083e 6151 093c d36e 5ebd 2a64 18bd
000000f0: c2bb 903d 3a0c 14bd d13e 663d 1fa7 57bd
00000100: 8342 09bd 840c 1fbd 1557 50bd 3d4e ccbc
00000110: 4f98 8b3d 3e24 9abd c1de c13d 3110 debd
00000120: 5e74 313b 8deb 1d3e 4cd6 afbd e0dd 4d3d
00000130: ad11 433c 90ea 5fbd 3d81 793d 99fb 97bc
00000140: 5561 22bd 0bb3 a5bd eb5d 9dbd 7942 c93d
00000150: 76f3 923c 90c6 efbc 5787 e3bd 3244 c53d
00000160: 3fef 923d a27f 62bd f5a5 62bd 10af 2dbe
00000170: 077c 873d 24b4 32bd 28af c3bc 3f3f 28bc
00000180: 3b35 c6bd f9c1 e63d aefb cf3d d332 8e3c
00000190: c210 f83c 7a24 b8bd cbc7 2fbd 3354 a4bd
000001a0: 730b b53d 5d3f 533d edd6 ee3d 7a9c 0d3c
000001b0: 6460 98bc 60c1 013e d742 933d f2ae 993c
000001c0: 56d7 d83d c0c3 babd 0819 0ebd 4351 37be
000001d0: eda2 c5bb 7dae 33bd 4298 b93d 9836 d7bd
000001e0: 995d 4abd 41e2 bc3d f592 52bd b7c8 873d
000001f0: 23c9 cd3c f29b ab3c 1372 363b 2305 3cbd
00000200: df83 0a3e d078 b43d d1fe eb3b 3db6 f8bd
00000210: c391 a43d 92c4 0bbe 645e dcbd cee6 7f3d
00000220: 333a 8e3d 4162 ad3d 78e3 91ba 32a7 213c
00000230: 018c b73d 8e91 903b 3655 d93d 524b 503e
00000240: 47be a4bd 1570 733c b63d 44be 10d1 ffbd
00000250: a7bd 16bd 219a b5bd 70d2 20bd cd46 d63d
00000260: 731e 993c e71b b13d 266a f03d 0ce9 c2bc
00000270: 8a19 43be ac41 9b3d a43c a93d bf89 0f3d
00000280: b59e 9f3c 2a86 1ebd a8ba 5c3c a2c7 0dbe
00000290: 7212 263e 8ab4 1c3e e5d1 b03d 0f67 113e
000002a0: b9fe be3a aa44 1f3e 8489 833d d6af 05be
000002b0: 4dc0 ea3d 1515 5dbd 6058 803d ce18 0f3d
000002c0: d04a 993d d32f 2b3d eb33 00bd df57 bbbd
000002d0: 93d1 cfbd c9df 5abd 3750 50bd a76a 06bd
000002e0: 11e8 64bd d614 b2bc 16ae 88bc 4841 04be
000002f0: 728f 88bd ab0b b73d 9c42 2f3d f81e e53d
00000300: 585b 0c3d 5c1d 88bd 9da9 1e3d fef1 8b3d
00000310: f08d 38bd c570 d43d 9cdc eabd dab8 68bc
00000320: 3810 85bb af22 d6bd 8098 6f3d 0758 74bd
00000330: b46f a23d 83bc d53c d7e6 2cbd 3a55 5c3d
00000340: 6cfb 12bd 53a2 c93c 821a 4bbd 651a f73a
00000350: a837 553d 0ddf 01bc 7c3f 643e 54f8 aa3c
00000360: f644 91bd ec3d 32bd c277 a6bd f892 fb3d
00000370: e955 3dbd eac0 74bd 2072 0cbd 0108 9f3c
00000380: c8b1 99bd 516d 12be d3e9 363d 0271 75be
00000390: 2e1e bebc 1782 b23d 758d b83c c9fd b43d
000003a0: 57c8 9bbd 727d c33c 5579 0b3d c112 f8bd
000003b0: 6312 e13c 12de 0abc e0ed a63b 5343 88bd
000003c0: 860d 43bd 9b1b 08bd b6eb 343d abe6 5e3e
000003d0: af80 a63a 3fbd b73d 10af 1f3b 34d5 13bc
000003e0: 78ed 9e3d 82f6 323d 09e1 a63d 94d1 cdbb
000003f0: 4c9c ea3d dfd5 2abd 3f2f ae3d 4afb b3bb

net.6.bias f4 [64]
-0.0345777 -0.061952814 -0.0040829196 -0.061448947 -0.087491676 -0.105594024 0.055978324 -0.03466846
-0.014995618 -0.024056941 0.012896379 0.06049896 0.04692199 0.032788757 0.009305696 -0.04429503
-0.02837534 0.10141015 0.1290147 -0.004566353 0.04541713 0.024041617 -0.063436806 -0.12235629
-0.065629356 0.070879355 -0.0053466773 0.012730987 0.08251968 0.06073599 -0.111903906 0.0024342095
-0.042242743 0.085344 0.08449245 0.12904163 0.092492335 -0.035753813 0.021294951 0.033731394
-0.034804456 -0.08629224 0.10917188 0.041284762 0.14479494 -0.048639614 -0.12591559 0.07347365
0.040082976 0.02660238 0.16191803 0.04624449 -0.06777209 0.1123039 0.015414307 0.105359636
-0.009171141 -0.074411415 0.024177566 -0.0068792384 0.100137845 0.014843299 -0.06648448 -0.032813042
00000000: 59a1 0dbd 3cc2 7dbd 03ca 85bb e4b1 7bbd
00000010: d62e b3bd ae41 d8bd 8749 653d 8400 0ebd
00000020: 2eb0 75bc 1013 c5bc 564b 533c c2cd 773d
00000030: 4631 403d 814d 063d eb76 183c b56e 35bd
00000040: 6773 e8bc 20b0 cf3d 6e1c 043e 58a1 95bb
00000050: 5007 3a3d edf2 c43c 28eb 81bd ef95 fabd
00000060: af68 86bd 3229 913d 2e33 afbb a195 503c
00000070: 1400 a93d 4dc6 783d e02d e5bd 4287 1f3b
00000080: ba06 2dbd d6c8 ae3d 610a ad3d 7d23 043e
00000090: 9f6c bd3d 9772 12bd c072 ae3c ee29 0a3d
000000a0: 1e8f 0ebd fcb9 b0bd 8295 df3d 361a 293d
000000b0: 2045 143e 553a 47bd 04f0 00be 5a79 963d
000000c0: 0c2e 243d 3ced d93c d7cd 253e dd6a 3d3d
000000d0: 18cc 8abd 96ff e53d 4a8c 7c3c cbc6 d73d
000000e0: 8e42 16bc 0365 98bd 0810 c63c 3c6b e1bb
000000f0: 1215 cd3d 4f31 733c 0429 88bd f866 06bd

net.8.weight f4 [6, 64]
-0.17826203 0.1295984 -0.03737205 0.03670117 -0.18390445 0.048990645 -0.13371807 0.15960242
-0.12674306 0.13583411 0.114424184 0.114815876 0.16504161 -0.06843487 0.04106439 -0.16662353
-0.007324912 0.1718837 -0.13888675 0.12872903 0.17151144 -0.19467124 -0.023665216 -0.12831195
-0.05976788 -0.11813085 -0.1069683 -0.122744784 0.047241323 -0.063497394 -0.13309526 -0.089668944
0.16114417 0.17900194 -0.1583266 0.15238631 -0.015265112 -0.081882015 0.072325446 0.06919903
-0.18527843 0.04616972 -0.006389835 0.023885757 0.14192665 0.07463149 -0.03349497 -0.13030182
-0.08887896 -0.18134373 -0.19967604 0.059408702 0.112241946 0.15683477 -0.13903867 0.14892845
-0.042308256 0.16153291 -0.09738119 -0.04098243 -0.20539203 0.032110516 -0.07285184 -0.14761773
0.11254596 -0.14394897 0.15990523 -0.044677895 -0.07783549 0.0006477321 -0.016863404 0.088735856
-0.12611824 -0.06517198 -0.04020008 0.05296034 -0.11486194 -0.024367586 0.022077778 -0.06830188
-0.23781699 0.14990035 0.14063281 -0.044571582 0.11136182 0.034401357 -0.060443047 -0.13979448
-0.23082876 0.13072741 -0.19765031 -0.07073236 0.16462177 0.102212824 -0.23979345 0.03455302
-0.113787726 -0.14848629 -0.18905266 0.15288511 -0.06826157 -0.009917565 -0.14004293 -0.12108073
-0.035599712 -0.09347316 0.041980278 0.07909858 0.17673819 -0.132512 0.044060174 -0.21510501
-0.19507919 0.12197806 0.06768691 -0.12952673 0.104927205 0.07622278 -0.13819101 0.12797159
0.08479649 -0.026675219 0.15445729 -0.038378123 0.16589454 0.06712604 -0.16115679 0.05346948
0.14153792 -0.22632922 0.042783238 -0.0056593097 0.021187695 -0.06917346 -0.010939424 -0.05773465
-0.019293036 -0.10900846 -0.03375624 0.1349724 -0.24379274 -0.041442476 0.10234415 -0.14037578
-0.024672067 -0.102253295 0.064368665 -0.16690645 -0.06440564 -0.026322883 -0.05521006 -0.057138056
-0.07706504 -0.16921435 0.09235496 0.11065855 0.004289826 0.043529347 0.052612796 -0.1465115
-0.0016105381 -0.14579341 0.115146756 -0.16934662 0.16095522 -0.044417392 0.11861397 -0.06436165
0.1407774 -0.19304325 0.03263604 -0.21713361 0.10012871 -0.10623133 -0.15896292 0.1008835
-0.15679716 0.02693603 0.14739498 0.027016014 0.103808865 -0.08727077 -0.035709783 0.05994605
0.12555788 -0.047824394 0.10029783 0.06268781 0.19065188 0.116296925 -0.035427276 0.03554542
0.02146932 0.111516505 -0.14938076 0.02446166 0.022816276 0.103562154 -0.030454632 0.031569358
-0.007853188 -0.26917776 -0.14917113 0.14210753 -0.10154846 -0.1452465 -0.043102544 0.050611626
0.04992335 0.07126253 -0.06500193 0.13898417 -0.1409076 -0.006495165 -0.005618274 0.03659354
0.1490054 -0.13809153 0.12451316 0.012473913 0.11315408 0.046866335 0.14465025 0.08638536
-0.21898657 -0.015815271 0.10547418 0.013403607 -0.06202568 -0.34331533 0.01873983 0.10253304
0.0946651 -0.20703006 -0.13246776 -0.026911478 0.033850618 0.106831074 -0.029371096 0.14347792
0.1454772 -0.04292179 -0.07829221 -0.052164156 -0.030875375 -0.18272088 -0.16705213 0.017150277
0.15166402 -0.20824088 0.046323396 0.12789474 0.032330327 -0.149167 0.13861309 0.15519191
00000000: 528a 36be 71b5 043e 6f13 19bd f753 163d
00000010: 7351 3cbe 6aaa 483d 64ed 08be d16e 233e
00000020: efc8 01be 1918 0b3e 3a57 ea3d 9624 eb3d
00000030: ab00 293e 9527 8cbd 2233 283d 5c9f 2abe
00000040: d105 f0bb 4802 303e 5438 0ebe 8bd1 033e
00000050: b2a0 2f3e e657 47be 8edd c1bc 3564 03be
00000060: 2acf 74bd 96ee f1bd 3212 dbbd 9e61 fbbd
00000070: 1e80 413d ec0a 82bd 204a 08be 5aa4 b7bd
00000080: fa02 253e 494c 373e 5e20 22be 280b 1c3e
00000090: 851a 7abc c2b1 a7bd 5d1f 943d 39b8 8d3d
000000a0: a1b9 3dbe 761c 3d3d d261 d1bb 10ac c33c
000000b0: 3855 113e 65d8 983d 0632 09bd d76d 05be
000000c0: 2c06 b6bd 2cb2 39be e077 4cbe 8a56 733d
000000d0: 1bdf e53d 4b99 203e 2760 0ebe b380 183e
000000e0: 6c4b 2dbd e268 253e ca6f c7bd 31dd 27bd
000000f0: 4a52 52be 5186 033d 5833 95bd 1a29 17be
00000100: 7f7e e63d 5c67 13be 32be 233e 2b00 37bd
00000110: 3768 9fbd 91cc 293a 1f25 8abc 25bb b53d
00000120: 2425 01be e378 85bd d7a8 24bd f1ec 583d
00000130: bd3c ebbd 889e c7bc 75dc b43c dbe1 8bbd
00000140: 4c86 73be 7a7f 193e 0c02 103e b190 36bd
00000150: aa11 e43d 70e8 0c3d 2193 77bd 4926 0fbe
00000160: 605e 6cbe 68dd 053e d864 4abe 21dc 90bd
00000170: 9c92 283e f554 d13d 6a8c 75be 7887 0d3d
00000180: 8a09 e9bd ca0c 18be 0597 41be ea8d 1c3e
00000190: b9cc 8bbd 487d 22bc 6a67 0fbe 2cf9 f7bd
000001a0: 01d1 11bd db6e bfbd 83f3 2b3d 70fe a13d
000001b0: dbfa 343e 3ab1 07be 7178 343d 7d44 5cbe
000001c0: d7c2 47be a2cf f93d 6f9f 8a3d a8a2 04be
000001d0: 13e4 d63d b01a 9c3d f281 0dbe fc0a 033e
000001e0: c8a9 ad3d fd85 dabc 0d2a 1e3e 6132 1dbd
000001f0: 42e0 293e 6179 893d 4906 25be d002 5b3d
00000200: 51ef 103e d9c2 67be 7a3d 2f3d bb71 b9bb
00000210: d191 ad3c d1aa 8dbd 453b 33bc 2b7b 6cbd
00000220: 6e0c 9ebc d43f dfbd fc43 0abd 3436 0a3e
00000230: cea4 79be 96bf 29bd cf99 d13d abbe 0fbe
00000240: 131d cabc 2d6a d1bd b8d3 833d 86e9 2abe
00000250: 1be7 83bd 16a3 d7bc f223 62bd 9809 6abd
00000260: 47d4 9dbd 8746 2dbe 9924 bd3d f3a0 e23d
00000270: ab91 8c3b d44b 323d 8480 573d 1c07 16be
00000280: b118 d3ba de4a 15be 10d2 eb3d 3369 2dbe
00000290: 72d1 243e 03ef 35bd e2eb f23d 0ad0 83bd
000002a0: f327 103e 21ad 45be 5ead 053d 4658 5ebe
000002b0: 4810 cd3d d08f d9bd 2dc7 22be 029c ce3d
000002c0: 6f8f 20be f3a8 dc3c b6ee 163e b050 dd3c
000002d0: be99 d43d 04bb b2bd 6c44 12bd fd89 753d
000002e0: 3f92 003e 83e3 43bd f368 cd3d 7762 803d
000002f0: 3f3a 433e 152d ee3d 311c 11bd 1398 113d
00000300: 6de0 af3c c462 e43d 45f7 18be d263 c83c
00000310: 33e9 ba3c 6518 d43d fe7b f9bc df4e 013d
00000320: a8aa 00bc abd1 89be 51c0 18be a384 113e
00000330: a4f8 cfbd 80bb 14be 4b8c 30bd 234e 4f3d
00000340: 6d7c 4c3d 17f2 913d bb1f 85bd de51 0e3e
00000350: 154a 10be 65d5 d4bb 8019 b8bb 1ce3 153d
00000360: df94 183e de67 0dbe c100 ff3d 625f 4c3c
00000370: 54bd e73d eaf6 3f3d 321f 143e cfea b03d
00000380: 043e 60be 078f 81bc d902 d83d cd9a 5b3c
00000390: a40e 7ebd 07c7 afbe 4684 993c d8fc d13d
000003a0: c7df c13d b0ff 53be a1a5 07be 7675 dcbc
000003b0: f2a6 0a3d 40ca da3d a79b f0bc e0eb 123e
000003c0: faf7 143e c2ce 2fbd ab57 a0bd 15aa 55bd
000003d0: 5bee fcbc 2f1b 3bbe b70f 2bbe bd7e 8c3c
000003e0: d04d 1b3e 193d 55be 9abd 3d3d d7f6 023e
000003f0: ce6c 043d 3cbf 18be 97f0 0d3e a1ea 1e3e

net.8.bias f4 [6]
0.06764059 -0.035430558 0.03612258 -0.06404004 -0.14004725 0.0059525
00000000: 2687 8a3d a21f 11bd 45f5 133d 6d27 83bd
00000010: 8c68 0fbe 300d c33b
